cartpole_DDQN.pth (torch, 23759 bytes, 10 tensors)

network_arch.0.weight f4 [64, 4]
00000000: 3a2e c03e 88ea c63d 44a6 febe e493 4dbe
00000010: c000 d6be 1ca9 f3be 2047 1dbd 6a80 91be
00000020: d81a 11be e457 d53e 8a65 c4be e87b b4be
00000030: 40d2 edbd 2089 70bd e8aa 3fbe 0064 d03a
00000040: 54db d6be a4f8 2f3e 4a3c 803e 1a94 bdbe
00000050: 50ef fe3e 08ae cbbd 408c e43c f00e 053e
00000060: 3cd9 903e e8be 673e 08c1 9ebe 2e1c 803e
00000070: f04b 39be c0b2 e53c 88a4 e53e 4093 76bd
00000080: 2c04 503e 7201 cfbe 58b4 c13e c0a2 d03c
00000090: 6078 75bd 0893 2b3e e811 ed3e 4e3c a13e
000000a0: 44cb cdbe 202f 6abe 009c f73e 587e bcbe
000000b0: 0e62 883e 7846 e6bd ee33 b3be 58ba 563e
000000c0: 9a0c b93e 68f4 473e 8440 ecbe f4a4 053e
000000d0: a85c b33e 8043 8fbc 8ef1 943e 3ac7 f43e
000000e0: d480 5a3e dc61 5cbe 1e60 c3be 108c d63e
000000f0: 928e 933e 8a7a b73e 3e8f ba3e 326b d33e
00000100: 8ab3 ccbe 4040 aa3c e06d 943d b09b cebe
00000110: e0cd c4bc 7054 8fbe e68b adbe e0b0 123d
00000120: 909a 2a3d dc02 f6be 46a0 a0be f0a9 bd3e
00000130: 42ad 803e 4826 a73e e63b 99be a2f8 953e
00000140: f8bb 9c3e b0b0 62bd 6853 93bd 8aee 97be
00000150: 585f efbe 54d6 853e 46b4 d0be 1c67 0d3e
00000160: d47f 013e 309e 1c3d ded1 c33e 6c2a c73e
00000170: dad3 96be 8246 eabe 7c69 29be b0dc b23e
00000180: f016 913e 884d fa3e dacb 96be b0b4 533d
00000190: d0fa ad3d 1ef7 97be e60e 963e b25d f03e
000001a0: 78ae 86bd be66 c33e 3aaf be3e 66ff 99be
000001b0: 68ca 9d3e a8ff b8be 0080 d337 a8f8 673e
000001c0: 00cf c6bc 0065 0fbb dae6 e23e f4b7 cabe
000001d0: 80e4 e13d 5070 4fbd 3023 c7be ba84 fabe
000001e0: 98e4 e33d d826 e4bd c0f3 aabd 1042 5e3e
000001f0: a855 a03e 8c6d 24be 60e4 75bd 3826 0fbe
00000200: 8cb7 833e 38cc 823e 003a 91bb 94d7 4abe
00000210: b470 593e 4036 58bd 48fe a23d bef6 ef3e
00000220: 0c0f 32be 92f4 ec3e c0cf 0a3d 7670 ea3e
00000230: 0ea1 83be f48f d2be 0c74 8a3e d0d8 6fbe
00000240: 2c7c 93be b64c d43e da18 c9be 7038 b5be
00000250: e87f dbbe 4ec1 bfbe 94a1 d8be c65b fa3e
00000260: d003 04be 206e 4fbe 583a 923d 5e3e dbbe
00000270: d01d 363d 2276 a9be cc26 56be a4ae 12be
00000280: 488d 853d 80c1 ff3d 60a5 94bc 0876 f3be
00000290: 1cf2 a03e ccac bbbe a8f7 91bd fe1e 833e
000002a0: 60b1 a8be 84c7 d8be 702d da3e d815 90bd
000002b0: 58e4 00be 00ec 88be c0d0 ef3e 5a66 9dbe
000002c0: c4ea e9be 847e 433e 140d b9be 5079 413e
000002d0: aedb f53e bcab a53e b045 943e 18bb 293e
000002e0: 84c1 61be 68b8 d6bd e01a 17bd 84e6 323e
000002f0: 409a 81be dc27 0e3e 160b d63e 6629 c3be
00000300: fc34 babe 1401 d63e 6688 d8be 986f f4bd
00000310: f072 44bd f6f1 993e f05f 58be bc2d e1be
00000320: b6f6 bebe ac74 a03e 3a33 d83e 806a 98bb
00000330: fa43 b2be e03b efbd b686 883e ac90 adbe
00000340: 9488 343e c88d 39be 00f5 dfbc 70bb 203e
00000350: b8bf c2bd 4840 853e 26d9 8dbe ac10 a43e
00000360: 4ab1 bd3e 5060 54bd b005 2d3d 624f 9c3e
00000370: 700a 63bd 2431 f23e 265a c1be 5a2f 8b3e
00000380: 743a 75be 96c1 cebe f0ca 9f3d b2d6 f9be
00000390: 20a4 88bc 22e0 af3e 0e6b e1be 003e e03a
000003a0: 10c3 d1be fc47 c8be 5817 3f3e 60e8 7cbd
000003b0: 96cb ee3e b82b 93bd 58cc b53d 40fd 823d
000003c0: dc40 67be bc89 38be 2054 bcbe b8bc acbd
000003d0: ee6d 953e 24a9 293e 489f d13d 8860 17be
000003e0: f046 04be 3a9b aebe 50ce 0e3d 1ecd ffbe
000003f0: bc9a f0be 5886 97bd 781d c5be 822c 893e
0.37535268 0.09712702 -0.49736226 -0.20075947 -0.41797447 -0.47589958 -0.03839791 -0.28418285
-0.14170396 0.41668618 -0.38358718 -0.35250783 -0.11612368 -0.058724523 -0.1871754 0.0015898943
-0.4196421 0.17184693 0.25045997 -0.37027055 0.49791956 -0.09945303 0.027898908 0.1299398
0.28290737 0.22631419 -0.31006646 0.250215 -0.18095374 0.028039336 0.4485209 -0.060199022
0.20314091 -0.4043079 0.37832904 0.02546823 -0.05992925 0.16755307 0.46302724 0.3149132
-0.40194142 -0.2286954 0.48361206 -0.36815143 0.2663731 -0.112439096 -0.35000557 0.20969522
0.36142427 0.19526827 -0.46142972 0.13051206 0.3503163 -0.017488241 0.29090542 0.47808248
0.21338207 -0.21521705 -0.3815927 0.41903734 0.2881971 0.35835677 0.3643741 0.4129272
-0.39980727 0.02078259 0.072475195 -0.40353155 -0.02402395 -0.27994108 -0.33895797 0.035813212
0.04165131 -0.48049057 -0.3137228 0.37043715 0.25132185 0.32646394 -0.2992851 0.29291254
0.3061216 -0.055344284 -0.07193643 -0.29674178 -0.4675243 0.26140082 -0.40762538 0.13808864
0.12646419 0.038236797 0.38246053 0.38899553 -0.29458505 -0.45756918 -0.16544145 0.34933996
0.28337812 0.48887277 -0.294524 0.05168599 0.08495104 -0.29680723 0.29308242 0.46946484
-0.06576246 0.38164324 0.37243062 -0.30077666 0.30818486 -0.3613255 2.5212765e-05 0.22653449
-0.024268627 -0.002188027 0.4431675 -0.3959347 0.11029911 -0.05064422 -0.38894033 -0.48929387
0.11127585 -0.11140221 -0.08347273 0.21704888 0.3131535 -0.16057414 -0.06003225 -0.13979423
0.25725973 0.25546432 -0.004431963 -0.19808799 0.21234399 -0.05278611 0.079586565 0.46867937
-0.17388552 0.46280342 0.033889532 0.45788926 -0.25708812 -0.41125453 0.27041662 -0.23422551
-0.28805673 0.41464776 -0.39276773 -0.3539462 -0.42871022 -0.37452167 -0.42310774 0.48898143
-0.1289208 -0.20256853 0.071400344 -0.4282102 0.044462025 -0.3309794 -0.20913237 -0.14324433
0.06521088 0.12488079 -0.018145263 -0.47550988 0.31434715 -0.3665527 -0.07127315 0.25609583
-0.32947826 -0.42339718 0.4261279 -0.07035416 -0.12587106 -0.26742554 0.4683895 -0.3074215
-0.45686924 0.1909123 -0.3614279 0.18893933 0.48019165 0.32357585 0.28959417 0.16575277
-0.22046477 -0.104843915 -0.036890864 0.17470747 -0.25312996 0.13882393 0.41805333 -0.38117522
-0.3636855 0.41797698 -0.42291564 -0.11935347 -0.047961175 0.30067414 -0.21130347 -0.43980205
-0.372976 0.31339014 0.42226583 -0.0046513677 -0.34817487 -0.11681342 0.26665276 -0.33899438
0.17630225 -0.18120492 -0.027338505 0.15696502 -0.09509224 0.26025605 -0.27704734 0.3204397
0.37049323 -0.051849663 0.042241752 0.30529314 -0.055429876 0.47303116 -0.3776409 0.27184564
-0.2394808 -0.4038207 0.07802379 -0.48796612 -0.016679823 0.34350687 -0.4402699 0.0017108321
-0.40969133 -0.3911742 0.18661249 -0.061745048 0.466397 -0.07186073 0.08876866 0.0639596
-0.22583336 -0.18021291 -0.36782932 -0.08434433 0.29185432 0.16568428 0.102354586 -0.14782917
-0.12917686 -0.34102803 0.034864724 -0.4996118 -0.46993053 -0.07398671 -0.38499045 0.2679177

network_arch.0.bias f4 [64]
00000000: 8044 223d b415 d4be 80c0 34bc 9883 ffbd
00000010: 76f0 96be 266e c73e 28f6 e43d 369b c33e
00000020: e07c 2b3e 001f d93e 5c97 b23e 38f5 8d3d
00000030: 4c6b 85be 324e e9be b01c a83d 4816 7abe
00000040: 6822 6abe 083a 853d d808 a83e 782c 4dbe
00000050: 44b5 2e3e 74a6 8bbe e080 923e ac2e cabe
00000060: ee98 edbe 501e afbe 583a 8c3e 5873 b7be
00000070: 62a6 b63e 1a51 9ebe 02c6 9d3e 66a1 8b3e
00000080: 7488 ec3e 80e4 97be aa28 fdbe 7cc0 52be
00000090: e0b0 d7bd b064 973e 5481 e93e 38b1 c83e
000000a0: 4a41 8ebe e0e9 e8be 48d4 f2bd a07c d1be
000000b0: 4a40 8d3e a0db 49be b02f 0d3d c0fb 93be
000000c0: c290 983e e829 bcbd 2009 b23c c416 393e
000000d0: 58c0 523e bc4b a1be 009a 5cbd 4eae c3be
000000e0: 007b 6bbd 407b 56bc 4452 f2be e8f6 f0be
000000f0: f8a5 2dbe 78bb 85be bc0d e83e 7c93 47be
0.039616108 -0.41422808 -0.011032224 -0.124762714 -0.29480332 0.38951224 0.11179763 0.38204354
0.16746855 0.42406464 0.34881103 0.069315374 -0.26058424 -0.4556747 0.08208597 -0.24422562
-0.22864687 0.06505209 0.32819247 -0.20036495 0.17061335 -0.2727543 0.2861395 -0.39488733
-0.4640574 -0.34202814 0.27388263 -0.35830188 0.35673815 -0.3092125 0.3081513 0.27271575
0.46197855 -0.2966652 -0.49445087 -0.2058124 -0.10531783 0.29569006 0.45606482 0.39197707
-0.27784187 -0.45490932 -0.11856896 -0.40915394 0.2758811 -0.19712687 0.034469306 -0.28903008
0.2979794 -0.091876805 0.021732867 0.1807509 0.20581186 -0.31503093 -0.053857803 -0.3821892
-0.05749035 -0.0130909085 -0.4732839 -0.47063375 -0.16957843 -0.2611959 0.45322978 -0.19489855

network_arch.2.weight f4 [2, 64]
00000000: c007 5a3b fc55 883d ecb3 25bd c48a 56bd
00000010: 6086 f03d e014 1fbd f046 1e3d 785f c93d
00000020: 40d4 b9bc f82f aabd b279 f33d b26d 9e3d
00000030: 7682 98bd e49d 48bd 5cb2 f63d 9835 663d
00000040: 64b9 d4bd 742d 963d 2cfd f53d 4009 fbbc
00000050: 8012 f2bd 7418 043d d68d 973d e84d b33c
00000060: fe01 f4bd 04af 94bd 020f a8bd 3ede bdbd
00000070: 98cf c73d 8823 033d 70c9 743d c8c5 89bd
00000080: 281f 23bd 9cb9 10bd e083 103c 44f7 863d
00000090: 3030 2cbd 48d3 48bd a499 923d 464b 813d
000000a0: 9839 c4bd 98cd dfbd f07e be3c e0d4 c5bc
000000b0: 0a96 b5bd c41b 053d b453 cf3d 7a9d fbbd
000000c0: 7e7a a53d 004b 373c 5068 8e3d 806c 493b
000000d0: d886 d6bc 5420 b93d 00a9 613c 7830 413d
000000e0: 3013 6b3c b64b 873d 8862 84bc e2f7 99bd
000000f0: 3057 e93d d008 35bd 6615 cf3d 2a0a bfbd
00000100: 5c4f 333d 7056 25bc e039 13bc 9c1a a9bd
00000110: dcb0 4e3d b223 d1bd 76f1 a6bd ec90 6ebd
00000120: ec4b eebd d6ba dbbd 285b e5bd 24c5 a23d
00000130: dc02 06bd d0e2 02bd 0032 363c 108c aabc
00000140: 6ceb d1bd da14 e93d 88af 59bd 4036 ab3b
00000150: 00f1 5e3a 9814 eb3d f0ed bdbc 2c04 283d
00000160: 0a92 813d 08e9 67bd 2eec b1bd 0e2b 91bd
00000170: ecc1 65bd a068 ef3c 7cdf 043d e63b fdbd
00000180: e8ab 51bd 68e6 493d a0c3 0cbc 80a8 b6bc
00000190: 80d4 94bc fe3c bb3d 8a57 e13d dae5 e73d
000001a0: a46e 26bd 1cae 7f3d a64b dfbd e0b6 f73c
000001b0: c0b5 bfbd e8e3 f93d 2ca5 1b3d a2bb 813d
000001c0: b014 d7bd 90cb 69bc 3856 f13c 8e11 ba3d
000001d0: e64b c4bd 7223 9abd 0439 1fbd f0e8 1bbc
000001e0: d08c 21bc 78e2 dcbd 625f c83d b0da 17bd
000001f0: a8ae b83c 163c cebd 38cd b13d 9ef9 b73d
0.003326878 0.06657025 -0.04045479 -0.05237843 0.1174438 -0.038838267 0.03864187 0.09832662
-0.022684216 -0.083099306 0.11888446 0.077357665 -0.074467584 -0.0489787 0.12045738 0.056203455
-0.10386923 0.07332888 0.12011179 -0.03064406 -0.11819935 0.032249883 0.074001 0.021887735
-0.119144425 -0.07259944 -0.082059875 -0.09270905 0.09756392 0.032016307 0.05976242 -0.06727177
-0.039824635 -0.03533326 0.008820504 0.06590131 -0.042038143 -0.04902962 0.07158211 0.063131854
-0.09581298 -0.10927886 0.023253888 -0.024149358 -0.08866508 0.032497182 0.10123387 -0.12285896
0.08080004 0.011187315 0.0695349 0.0030734837 -0.026187345 0.09039369 0.013773203 0.047165364
0.014347836 0.066062376 -0.016160265 -0.07517983 0.11393583 -0.044197857 0.10111503 -0.093281105
0.043776855 -0.010091409 -0.008985966 -0.082570285 0.050461635 -0.102118865 -0.08151524 -0.058243677
-0.11635575 -0.107289955 -0.11199027 0.07947758 -0.03271757 -0.031954587 0.011120319 -0.02081874
-0.10249981 0.1138093 -0.053145915 0.005224973 0.000850454 0.11478537 -0.023184747 0.041019604
0.06326683 -0.05661872 -0.08687626 -0.0708829 -0.05609314 0.029224694 0.032439694 -0.1236494
-0.051189333 0.049292 -0.0085915625 -0.022297144 -0.018167734 0.09142493 0.11003025 0.113231376
-0.04063286 0.062421903 -0.10903101 0.030238569 -0.09360838 0.12201673 0.037999317 0.06334616
-0.10501993 -0.0142697245 0.029460058 0.090853795 -0.09584789 -0.07526292 -0.038872734 -0.009515986
-0.0098602325 -0.10785383 0.09783818 -0.03707379 0.02254422 -0.10070054 0.086817205 0.089831576

network_arch.2.bias f4 [2]
00000000: dc0e 5dbd 285e d1bc
-0.05396925 -0.025557593

layer1.weight f4 [64, 4]
00000000: 80e9 bd3d 73dd 29be 809d 77c0 ac9b d9be
00000010: 503b 5bc0 e9f5 6fbf 8db5 cfbe 7170 55bf
00000020: b80d 933e 7bfc acbe d26d 9ac0 59a8 1abf
00000030: 21a4 103e 5d8f bb3e c39f d6be e2fb 763d
00000040: 4294 c13e a5e4 043d 4411 8bbe b34c a2bd
00000050: 5a44 7f3d 12e6 ac3e a6ba a6be 3796 2d3e
00000060: 93eb ad3d 1783 843e 13f2 f3be a710 7f3e
00000070: 85dd b33d d31b 763e d9f9 a0be 710c 883d
00000080: 6e91 5f3e f5c2 803c 4a48 17bf 24ba d4bc
00000090: 6481 843e 94aa 8a3e 8c9d b6be 697f 5d3e
000000a0: dd0f 36be f5d4 1b3e a788 95bf 2664 ecbe
000000b0: 1b76 3dbf b1a3 74bd 8fcb 0640 77ca c33e
000000c0: db01 ffbf a875 b1bf f2d3 e53d 527d 01bf
000000d0: 44e1 543e 7988 ae3d d09b 6ebe affc c6bd
000000e0: 08b2 043e 818f ba3e 80e0 c3be 2f77 853e
000000f0: 3a3d fb3d d9cb 443d 8de5 a9be d3b6 d13c
00000100: 3563 c53d baa4 5a3e 7710 7abe 1042 973d
00000110: 0fa9 6a3d db69 a53e fe51 2ac0 6660 773d
00000120: 6aac 99bf 1c7d a9bd c0a0 7c40 6d8e f13e
00000130: d3cd 533f 3374 a43f 68c8 8a40 fc89 843f
00000140: 1a05 d7be 541b ecbe fbcb d0c0 c436 d1bf
00000150: 7418 6c3e 6214 9a3d 0471 1cbf 481d 373d
00000160: cef3 493e 4b55 bbbf 8311 85bf bd23 17bf
00000170: 937b 9e3f 7ced aa3f a362 9640 febe 883f
00000180: 1d6b 653e e3e4 1a3f 04c4 abbe 57bf c93d
00000190: 2734 903e 4134 1eba 32b8 d8be 038e 103d
000001a0: d519 1ac0 f658 29c0 ffc9 01c1 d144 21c0
000001b0: 0cde 433e 4f08 363d 4ffd 50be 6a84 32bc
000001c0: ca0d 5e3e 7069 49bc 09e9 00be 1f03 18bd
000001d0: 44ff a3bf e698 61bf d7e5 493e 800d 93be
000001e0: d39d c03d 2ed4 713e 7bbf 4fbe 3ac7 143e
000001f0: 5ff2 733e 7247 7d3e 5e6f 69be 4968 a13d
00000200: 096e d0be aefa a73e 63a8 a840 ecec 813f
00000210: c7b1 a83e 2cf5 913d 8640 eebe 5403 db3d
00000220: 1ba6 f73d ea96 283e 153d 4d40 48ba 973f
00000230: e808 d13d 3234 043f 1753 a7be 2f44 7e3d
00000240: 4e4f 0cc0 6632 82bf 40ee cdbe 2094 2bbf
00000250: e0e3 f2bf fd4e 18bf 02fc 7340 ffef 813e
00000260: f0d8 6e3d 4f23 9f3d 1f8a 85be d51a eebc
00000270: 1441 63c0 26e1 c4bf 580b 2a3f 4f3d 98be
00000280: ea26 2d3e c325 2a3e c5e5 39bf 8dbc 0b3e
00000290: 1355 913e 6a44 98be a90a a5c0 59b2 d9be
000002a0: edaa 1e3d 1bc2 a4bd 08a3 dd3d dd9d 00be
000002b0: f632 b03e a4c0 1d3e b702 10bf 9897 5a3e
000002c0: 08c7 2e3d edb5 95bd 51ce 1a3e 5fa3 cfbd
000002d0: 8586 443e 9a64 813e a25c 9840 7a40 9c3f
000002e0: f2bd 293e c2a8 b13e 1825 77be fc99 bd3d
000002f0: 8504 453e 4aed aa3e fac7 bfbe f6ad 7d3e
00000300: 99cb a43e 02e1 d53e f3dd 0fbf 6dad e43d
00000310: ce54 a83e 2d42 743d be29 8ebe 0c5e 543d
00000320: 757f 8f3e 4dc9 223f 1a49 9abe 048a 8f3e
00000330: cf27 633e 86ea af3e c034 d5be 67e2 963d
00000340: 12e5 5a3e 2a18 ba3e 9f53 49be 2c7c 9f3d
00000350: 0701 373e 84d8 fc3d 4662 34bf 2536 593e
00000360: c058 843e ef1c 113e 68d0 9640 3933 883f
00000370: 534b f53d 0b09 cc3e a5fa ccbe feb6 3d3d
00000380: c03c a53c 2dd2 023e dc04 a0c0 5290 22bf
00000390: 78b5 8a3f 76f9 963f bbd2 8540 7af6 813f
000003a0: e10d 843e 3eb5 f43e e0ef 06bf bcc3 ce3d
000003b0: e06d e83d 35a8 21be 2679 a1c0 79ae 08bf
000003c0: 7872 863f 4aea 043f 63a9 1ebf 084f eabe
000003d0: 8c0b fcbf f975 0abf db54 4740 ab43 a83e
000003e0: 935e fd3c a3da a53e e89e 08bd 96f7 aabb
000003f0: edfc 553e 869c b93d 7d0c c8be a40a 5fbc
0.09273052 -0.16588382 -3.868988 -0.4250158 -3.4254951 -0.93734604 -0.405682 -0.83374697
0.28721404 -0.33786377 -4.825906 -0.6041313 0.1412511 0.36632815 -0.41918764 0.060298808
0.37808424 0.032444615 -0.2716161 -0.079247855 0.062321045 0.3376928 -0.32564276 0.16951834
0.08492198 0.25881264 -0.47645625 0.24908696 0.08782486 0.24034052 -0.3144062 0.06642998
0.21832821 0.015717963 -0.5909468 -0.025967665 0.25879967 0.27083266 -0.35667074 0.21630634
-0.17779489 0.15217955 -1.1682328 -0.46170157 -0.7400834 -0.05972642 2.1061742 0.38240406
-1.9922441 -1.3864031 0.11222066 -0.5058185 0.20789057 0.08522124 -0.23301625 -0.09716164
0.12958539 0.3643761 -0.38257217 0.26067492 0.122675374 0.048045967 -0.33182946 0.025599873
0.09638063 0.213519 -0.24420343 0.07385647 0.057290133 0.32307324 -2.6612544 0.060394667
-1.2005742 -0.08275816 3.9473114 0.47178975 0.8273594 1.2847961 4.3369637 1.035461
-0.4199608 -0.461146 -6.5249 -1.6344838 0.23056203 0.07523419 -0.6110995 0.04470566
0.1972191 -1.4635404 -1.0395969 -0.5903891 1.2381462 1.3353724 4.6995406 1.0683286
0.22404142 0.60505503 -0.33547986 0.09850948 0.2816479 -0.0006035008 -0.4232803 0.035291683
-2.4078267 -2.6460547 -8.111815 -2.5198252 0.19127673 0.044441517 -0.2040913 -0.010895828
0.21684948 -0.012293205 -0.12588896 -0.03711235 -1.2812276 -0.8812393 0.19716583 -0.28721237
0.094051026 0.23616096 -0.20287888 0.14529124 0.23822926 0.24734285 -0.2279639 0.07881219
-0.4070895 0.3280844 5.270555 1.0150428 0.32948133 0.07126841 -0.46533602 0.10693994
0.12092229 0.16463819 3.2068532 1.1853724 0.10206777 0.51642144 -0.3268058 0.062076744
-2.1923404 -1.017163 -0.40220833 -0.67022896 -1.8975792 -0.59495527 3.8122563 0.25378415
0.058312356 0.077704065 -0.2608194 -0.029065529 -3.550847 -1.538121 0.6642356 -0.29734275
0.16909376 0.16615967 -0.72616225 0.13646145 0.2838522 -0.29739696 -5.1575513 -0.4251888
0.038737226 -0.08044835 0.10822111 -0.1256022 0.3441388 0.15405518 -0.5625414 0.21346891
0.04267028 -0.0731009 0.15117766 -0.101385824 0.1919194 0.25272065 4.7613077 1.2207177
0.16576365 0.34699064 -0.24135244 0.09257886 0.19240005 0.33384162 -0.37457258 0.24773392
0.32186583 0.4177323 -0.5619804 0.11165891 0.328772 0.059633423 -0.27766222 0.051847503
0.2802693 0.6358841 -0.30133897 0.28034985 0.22183155 0.34358615 -0.41641808 0.073674016
0.21376446 0.3634656 -0.19660805 0.07787356 0.17871486 0.123459846 -0.70462453 0.21212061
0.2584896 0.14171194 4.71294 1.0640632 0.119772576 0.3985065 -0.40034977 0.046317093
0.02017057 0.12775488 -5.000593 -0.63501465 1.083663 1.179488 4.181974 1.0153344
0.2579184 0.47794527 -0.5270977 0.10095927 0.11349082 -0.15786822 -5.0460386 -0.53391224
1.0503683 0.51919997 -0.61977214 -0.4576342 -1.9691024 -0.5408626 3.1145542 0.32864127
0.030928886 0.3239337 -0.03335467 -0.005217503 0.20897265 0.090630576 -0.39072028 -0.013613377

layer1.bias f4 [64]
00000000: 7f1e 613f f9b0 183f 32c0 8a3f a2c2 973f
00000010: db9e 913f 8900 973f ce37 9c3f 93db 883f
00000020: 6ab6 a03f 8418 9d3f 6677 653f bc16 403f
00000030: b1bd 60bf 6ec7 933f fe6e 8c3f 0fe4 823f
00000040: 79f7 973f 045c 863f db2b a7bf e3bf 6e3f
00000050: 2c55 a8bf 8de1 863f 0183 c03e 45ab 7d3f
00000060: 3330 893f 44bb 823f c09e 68bf 1f9c 963f
00000070: f7f9 993f afc8 ea3e 1b1e 963f a434 903f
00000080: 83ea 94bf 8913 9d3f 9a90 c5bf 5772 863f
00000090: 8844 b7be 79e5 09bf 359a 9d3f 9479 593f
000000a0: 397f 8b3f 898b 753f b7b7 71be de96 a43f
000000b0: 7490 7dbe ab6d bcbf 4b4d 8e3f ec48 9b3f
000000c0: e6ee 8b3f 3be1 953f 5ee6 9b3f 8ca6 993f
000000d0: 0a83 983f 0998 9e3f 1c2a 81bf 4ed1 713f
000000e0: 31aa 91bf 0bca 593f 6303 8c3f 8a01 933f
000000f0: 2831 dcbe 5a35 1fbe 2f77 9e3f f901 893f
0.8793716 0.5964504 1.0839903 1.1856272 1.1376604 1.1797038 1.220453 1.0692009
1.2555668 1.2273107 0.8963531 0.7503469 -0.87789446 1.1545236 1.0971372 1.0225848
1.1872398 1.0496831 -1.3060259 0.93261546 -1.3150992 1.0537583 0.37599948 0.9908946
1.0717834 1.0213399 -0.90867233 1.1766394 1.2029408 0.45856234 1.1727937 1.1266065
-1.1634067 1.2271587 -1.5434754 1.0503644 -0.35794473 -0.5386577 1.2312685 0.8495114
1.08982 0.9591604 -0.23605238 1.2858541 -0.24762136 -1.4720968 1.1117338 1.2131629
1.0932281 1.170936 1.2179677 1.2003951 1.191499 1.2390147 -1.0090976 0.9446
-1.1380063 0.8507392 1.0938534 1.1484845 -0.43006253 -0.15547696 1.2380122 1.0703727

layer2.weight f4 [64, 64]
00000000: e0bb 0dbf 00f6 86bf 6127 b1bf 27a3 2a3f
00000010: 6039 243f 360e 253f ee6f 093f 0f88 273f
00000020: 3d38 4b3f 4d2b 113f ea63 8bbd 8409 9abe
00000030: f686 203f 4bfe 443f 7350 f33e 1128 1b3f
00000040: a9e4 343f 72cb 96be 1b2d 86c0 21df 1ac0
00000050: 9de2 f1c0 9393 143f a5f8 053f 78a2 17c0
00000060: a002 0d3f 4325 0d3f 07fa 53c0 bf07 353f
00000070: 7736 423f 9c3f debd a445 1d3f 55d8 2f3f
00000080: 3100 9cc0 5cf7 303f 1496 49c0 8ff1 fe3e
00000090: 443a 5d3f 4c72 a9c0 6613 3c3f 3aed 6d3f
000000a0: cc01 0b3f 8269 e6bf 0197 ddba 09c0 253f
000000b0: 1aa5 3bbc 806a b3bf ee37 2e3f df38 2b3f
000000c0: 173f da3e b32c 313f fcf7 1a3f ef9b 373f
000000d0: 3c45 2e3f 0624 0f3f cf23 20c0 0c5f 443e
000000e0: 6e57 a2c0 6080 1ec0 2888 093f 15b0 a8bf
000000f0: 361f 6fbf c02e 26c0 63b3 3c3f 9a95 1a3f
00000100: 85e4 06bd 927b 633c edeb 81bd d7d2 b1bd
00000110: 2baf b13c d457 08bc 767d 713c 19b8 d33b
00000120: c988 9b3b d4d8 e83c 9c8d 62bd 6852 d8bc
00000130: bdd9 36bd 2ecc e93b 3d33 1e3d 5f95 83bd
00000140: 66cb c03c 40e1 e03b 25bf 1a3b cf03 403c
00000150: 955f eabc 5203 d9bc 639a 793b 5d71 bc3c
00000160: a8aa 31bd 6e6e 2cbd 73e7 44bc 2f76 c6bc
00000170: 8181 f2bc 59b7 aa3b d335 c73c 0a58 95bd
00000180: e466 a7bc b852 0ebd 3903 633d 30f1 62bd
00000190: 5429 593d 9b6e 1a3c 9088 cd3a 099e 37bd
000001a0: ba10 4f3c 8a74 0bbd aa66 363c 4899 63bd
000001b0: 36c1 283a 524e 6cbd 6567 5abc 3423 b4bd
000001c0: b39b 91bd e2bb 15bd 691a 3bbd 2f12 11bd
000001d0: a8ac 3bbd 8a7e aebd 3b2a 17bc 314e d0bc
000001e0: 04ab 2fbc 6ddd 57bd a023 773c 22cc 39bd
000001f0: 4c5a a0bd 7e46 043d dba8 a9bd b750 81bc
00000200: 9395 16be 36d8 bbbe 8ea8 05be 6d8f 62be
00000210: b9b1 58be cf6c e7bd 51cb 1dbe 774e 24be
00000220: a0b6 38be 1c76 41be 7f53 cfbe db97 d9bd
00000230: 4505 cdbd fef7 67be 191a 49be 94a6 3cbe
00000240: de7c 05be 4d74 c0be 2568 8dbd 875d d9bd
00000250: 05f9 acbd 66cb 5bbe 18df 55bd 9378 e2bd
00000260: 727d 08be 4440 5abe 7ffc 02be 3cef 66be
00000270: 2b19 41be 173f 09be 4a12 17be ce19 91be
00000280: d232 76bd 1933 32be 8f02 d9be 1147 12be
00000290: 1763 97bd 4850 4fbd 21ae f1bd 5e31 9cbd
000002a0: 5aba 39be 2085 5abe 10fb 423d d98d 74be
000002b0: 54e8 823c 2376 0f3d 41e6 8bbe 5f6b 15be
000002c0: a5cf 43be 8e3a 66be 3880 09be ae41 44be
000002d0: a7d5 45be b2b0 50be 2a0a e5bd 631a 1bbe
000002e0: 1d65 a7be 1bdb 0dbe 0574 0dbe 00ca 12be
000002f0: 9298 08bf c189 8bbc ea3c 5ebe 5cf6 67be
00000300: 9ba0 efbf aefe 603e 02d3 14c0 a244 223f
00000310: db3b 0f3f 3500 353f 7c69 363f 5046 1f3f
00000320: c66d 323f 8db8 233f 6f01 ca3e 46ce 43bd
00000330: b108 a8bf 3b97 333f e8e4 093f 0833 253f
00000340: e52a 333f 2a20 57be 8bfc 61c0 9f8f f4bf
00000350: 7b5e a0c0 f78a 133f 865a 8c3f 4bde dabf
00000360: 0328 133f ce57 123f b9f7 a9c0 265d 333f
00000370: c9e5 303f 72a4 ed3e c62f 3a3f de70 1f3f
00000380: 62e8 a9c0 fa4b 2c3f 82f0 1bc0 91a8 e63e
00000390: 4c19 4fbf 3365 1ac0 cc14 313f bb41 1e3f
000003a0: 62d1 1a3f f271 04c0 f959 0e3d 9d47 223f
000003b0: 058a 193d 72aa 19c0 09c4 2e3f d219 343f
000003c0: e085 033f e4ba 183f 49f1 1c3f 8524 3a3f
000003d0: dea0 1e3f cb16 363f 26a1 14c0 3deb ab3e
000003e0: af19 25c0 9cf7 27c0 f840 0c3f 8eb6 07c0
000003f0: 4b73 e0be 2290 2fbe 0472 2c3f aea4 1e3f
-0.553648 -1.0543823 -1.3840142 0.666552 0.6415005 0.6447481 0.53686416 0.65441984
0.7938269 0.56706697 -0.068061665 -0.30085385 0.62705934 0.7695052 0.47522315 0.6060801
0.7066141 -0.2945209 -4.193006 -2.4198687 -7.5589128 0.5803768 0.52332526 -2.3692913
0.5508213 0.5513498 -3.3121355 0.70714945 0.75864357 -0.10851976 0.6143439 0.6868947
-4.8750234 0.6912744 -3.149785 0.4979367 0.8641703 -5.2952023 0.734671 0.92940104
0.54299617 -1.8000948 -0.0016905965 0.6474615 -0.0114529375 -1.4016876 0.6805409 0.66883653
0.4262626 0.6920883 0.60534644 0.7172231 0.68074393 0.5591434 -2.5021856 0.19176883
-5.0731726 -2.4765854 0.5372338 -1.3178736 -0.93407 -2.5966034 0.7371122 0.60384524
-0.032932777 0.013884442 -0.063438274 -0.08682793 0.021689972 -0.008321721 0.014739385 0.006461155
0.0047465307 0.028423704 -0.05531083 -0.026406482 -0.044641245 0.007134936 0.038623083 -0.06424975
0.023534488 0.0068627894 0.0023612466 0.011719658 -0.02861003 -0.026490841 0.0038086406 0.023003275
-0.04337564 -0.0420975 -0.012018072 -0.024226276 -0.029602768 0.005209845 0.024317658 -0.07292183
-0.020434804 -0.034746855 0.055422995 -0.055405796 0.05301793 0.009425784 0.0015680958 -0.04482845
0.012638265 -0.034046687 0.011132875 -0.055566102 0.0006437482 -0.05769188 -0.013330315 -0.08795777
-0.071097754 -0.036556132 -0.045679484 -0.03541773 -0.045818955 -0.08520229 -0.009226377 -0.02542791
-0.010721926 -0.052701402 0.015084177 -0.04536069 -0.07829723 0.03229379 -0.0828416 -0.015785558
-0.14705496 -0.36688393 -0.1305258 -0.22125025 -0.21161546 -0.113000505 -0.1540959 -0.16045557
-0.18038416 -0.18892711 -0.4049339 -0.10624667 -0.10010771 -0.22653195 -0.19638862 -0.1842292
-0.13035914 -0.3758873 -0.069046296 -0.10613542 -0.08445934 -0.21464309 -0.052214712 -0.11058154
-0.13329104 -0.21313578 -0.12791632 -0.22552198 -0.18857257 -0.13402973 -0.1475307 -0.2834
-0.06010706 -0.17402305 -0.42384765 -0.14284922 -0.07391947 -0.05061367 -0.118007906 -0.076266035
-0.18137494 -0.21339846 0.047602713 -0.23882236 0.015979923 0.035024773 -0.27324107 -0.1459174
-0.19122179 -0.22483274 -0.13427818 -0.1916568 -0.19319783 -0.20379904 -0.11183579 -0.15146784
-0.3269433 -0.13853113 -0.13813789 -0.1433487 -0.53357804 -0.01703346 -0.21702924 -0.22652572
-1.8720888 0.21972153 -2.325379 0.63385975 0.5595071 0.7070344 0.71254706 0.62216663
0.6969875 0.6395348 0.3945422 -0.04780414 -1.3127652 0.70152634 0.5386491 0.6453099
0.69987327 -0.21008363 -3.531039 -1.910633 -5.0115333 0.5763392 1.0965126 -1.7099088
0.5748293 0.5716523 -5.3114896 0.7006401 0.69100624 0.46414524 0.72729146 0.62281597
-5.309617 0.6730343 -2.4365544 0.4505048 -0.80897975 -2.4124267 0.6917236 0.61819047
0.6047574 -2.0694547 0.034753773 0.63390523 0.03748514 -2.4010282 0.68267876 0.703519
0.5137615 0.5966017 0.6130567 0.72711974 0.61964214 0.7112853 -2.3223357 0.3357791
-2.5796926 -2.6244879 0.54786634 -2.1205173 -0.43837962 -0.17144826 0.67361474 0.6197003

layer2.bias f4 [64]
00000000: b33e 843f 8feb 98bd b210 25be 13f7 843f
00000010: b7ba 8b3f 5422 233f bf6b ce3e 7e91 6c3f
00000020: c1b7 e9bd 694b 853f 3373 8dbe 52ca 7f3f
00000030: 22f7 99bd 0dbd a13b 612e 723f e855 82bd
00000040: ee8d 6c3c bc13 77bd cf5a 53bd 1bf9 3dbd
00000050: 317c 1d3c 6238 8e3f 52ee 7ebc 51a5 903f
00000060: d6bc 18bd 5140 14bd d991 3cbd 2609 b23c
00000070: 0f63 6e3f e7b5 8e3f a005 7d3f 67ee 753f
00000080: 63da 77bc c3a5 16bd a5ea 6ebd 0051 7b3f
00000090: 1baa 8b3f 86ee 833f 5ca2 d33c f992 ad3c
000000a0: d18b a4bd 0195 903f 0f8d 83bd 2978 793f
000000b0: 9fbf ab3c 015d 843f e4f8 95be e227 3e3c
000000c0: 9fc0 813f 34eb 973c 901c 923f 82d2 05bd
000000d0: d23f 23be eb96 7c3f c2a5 9bbd bd8c 733f
000000e0: 7294 ceb9 90e5 893f 6703 48be c218 6b3f
000000f0: 748a 8b3f 4a0a 8e3f 2eb1 7c3f ca92 863f
1.0331634 -0.07466804 -0.1611965 1.0387901 1.0916356 0.63724256 0.4031658 0.92409503
-0.114120014 1.0413638 -0.27626953 0.9991809 -0.0751784 0.0049358667 0.9460202 -0.063640416
0.014438136 -0.060321555 -0.051600274 -0.046380144 0.009612129 1.1110957 -0.01555975 1.130045
-0.037289463 -0.03619415 -0.04603753 0.021732878 0.931199 1.1149262 0.9883671 0.960669
-0.015127751 -0.036779176 -0.058329243 0.9817047 1.0911287 1.0307167 0.025834255 0.021188246
-0.0803448 1.1295472 -0.06423389 0.97448975 0.020965395 1.0340883 -0.2929145 0.0116061885
1.0136908 0.01854477 1.1414967 -0.03267146 -0.15942314 0.9866778 -0.07599975 0.95136625
-0.00039401982 1.0773182 -0.19532548 0.9183465 1.0901628 1.109689 0.98707855 1.0513546

layer3.weight f4 [2, 64]
00000000: c656 0640 d1b3 40bd 2fca 3ebe 7f5f ee3f
00000010: dce0 dc3f 7830 a73f 413f 2340 2f92 0a3f
00000020: 20f6 483d e7e0 2540 3701 943d 7175 3840
00000030: a2b1 4c3d 0941 003c 27f8 6240 475d d23b
00000040: 76d3 c8bc 71f1 223b 1adc 25b9 56bc 1a3d
00000050: ad91 c13c 718f 1c40 5c2f dabb 56a9 1f40
00000060: 7dc0 293d 7af4 ffbc e2c5 e23c d491 f4bc
00000070: b350 1e40 2ff5 9040 b004 6e3f e78c 2b40
00000080: 741b db3c 82c1 79bc 9997 6c3d 5c3a 003f
00000090: 7e3e 003f ceef 903f a99c 90bc 24df 47bc
000000a0: 6c07 c9bc d4b7 1f40 a3ab 2a3d 686a 02bf
000000b0: ae37 7d3c 0f30 0240 c185 09be 658c 2cbb
000000c0: fda8 823f 18da 87bc d7fd ebbe c7d3 353c
000000d0: 7148 653e 3d83 2240 49d1 8b3d 2fcd 5140
000000e0: fa91 b8bc 07e5 2240 66c4 e03d a01c 2e40
000000f0: 4cc6 0340 10f8 a83f 277b ed3f 0f83 1640
00000100: 0ee6 f13f c505 693c 9317 123e 64d6 1e40
00000110: 1dee 1c40 e13b 1040 ad5c d03f 3ff7 c13f
00000120: cc83 983d d357 0e40 937b 3cbe eb09 3940
00000130: 288a b5bc baa9 6abd 16f6 3c3f 0869 3dbc
00000140: 3e62 4c3d 3fd5 fcbb 23de 073c 10ee 9fbb
00000150: 811b 483c b492 0b40 1e04 51bc 2964 1540
00000160: d211 a0bc 0c31 23bd e359 02bd 74ed 183c
00000170: 82ef 933f 5d3f 24bf 172a 2740 1f24 fa3f
00000180: aec6 00bc 3b81 443b 1012 f6bc 2f09 2640
00000190: 68a1 3240 71aa 2040 28e7 66bb 9acc cc38
000001a0: 40e3 0b3d 375a 1140 7751 a4bc 8cfc 1040
000001b0: 66ed 4d3c 5e82 1740 ce7b a63d 8a7f 103d
000001c0: b7b4 2540 04d2 f53a 1f0c 3c40 227e 9c3d
000001d0: e00f f83c 7bd1 0240 efde e2bc 577b ae3f
000001e0: 7070 cfbc 890b 1140 86b0 013d 03f4 f13f
000001f0: 95eb 1740 c162 1e40 c6ab 1540 52a9 0740
2.0990462 -0.047046486 -0.18631814 1.8622893 1.7256122 1.3061666 2.5507357 0.5412931
0.049062848 2.591852 0.07226794 2.882168 0.04997409 0.007828006 3.546396 0.006419811
-0.024514895 0.0024863149 -0.0001581762 0.037777267 0.023629034 2.446255 -0.0066584777 2.4947104
0.041443337 -0.031244505 0.027682249 -0.029854693 2.4736755 4.5299296 0.929759 2.680475
0.02674649 -0.01524389 0.057761762 0.5008905 0.50095356 1.1323183 -0.017652826 -0.012199197
-0.024539672 2.495595 0.04166759 -0.50943613 0.01545517 2.0341833 -0.1342993 -0.00263288
1.0207821 -0.016583487 -0.46092102 0.011097855 0.22390915 2.5392601 0.06827027 3.2781484
-0.022530545 2.5452287 0.1097496 2.7204971 2.058978 1.3200703 1.8553208 2.3517492
1.8898332 0.014222567 0.14266805 2.4818354 2.4520333 2.2536547 1.6278282 1.5153579
0.07447013 2.2241104 -0.18406515 2.8912303 -0.022160605 -0.05729077 0.73813 -0.011560686
0.04989838 -0.0077158506 0.008292708 -0.004880674 0.012213589 2.180829 -0.012757329 2.3342383
-0.019539747 -0.039841697 -0.031824004 0.009333957 1.1557467 -0.64159185 2.611944 1.9542273
-0.007859869 0.0029984254 -0.03003791 2.5943105 2.7911015 2.510403 -0.0035232995 9.765588e-05
0.03415227 2.2711313 -0.020058377 2.2654142 0.012568807 2.367332 0.081290826 0.03527788
2.589155 0.0018754606 2.9382398 0.076412454 0.030281007 2.0440357 -0.027694194 1.363139
-0.025322169 2.266329 0.031662486 1.8902591 2.3737538 2.4747775 2.3386092 2.1197095

layer3.bias f4 [2]
00000000: 092b 1b3f 0497 e03e
0.6061254 0.43865216
