cartpole.pth (torch, 23699 bytes, 10 tensors)

network_arch.0.weight f4 [64, 4]
000000 88 11 b6 3e 88 16 8f 3d 68 00 9d 3d 40 e2 01 bc
       0.3556025 0.06986719 0.07666093 -0.007927477
000010 70 1e d3 3e 4a 51 de 3e 78 c5 f7 3d 46 b2 aa 3e
       0.4123416 0.43421394 0.12098211 0.33339137
000020 c0 70 c5 bd 50 ff 2f 3d e0 38 9c 3c 88 ec 74 be
       -0.09640646 0.042968094 0.019070089 -0.23918355
000030 18 7c b9 3d 50 33 4a 3e 40 50 44 3c 7e f1 d3 be
       0.09056872 0.19746137 0.011982024 -0.4139518
000040 cc 5c a1 be 64 4b a7 be 66 60 c0 be da 04 be be
       -0.3151611 -0.32674706 -0.37573546 -0.37113076
000050 fc c2 24 be 50 a1 e8 3d 44 fa 44 3e dc 06 d1 be
       -0.16090006 0.11358893 0.19236094 -0.40825546
000060 04 f1 85 be fe 8a a5 be 44 0d f8 3e e0 d7 bb bd
       -0.26160443 -0.32332605 0.4844762 -0.09172034
000070 1c dc ae be 1e 6c dc 3e be 4a bd be 8a 30 e9 be
       -0.34152305 0.43051237 -0.36971086 -0.45544845
000080 58 be 11 be 38 23 c0 3e 98 ff c4 bd c0 77 ef be
       -0.14232767 0.3752687 -0.09619063 -0.4677105
000090 e8 53 f6 3d 4c 1a 88 3e 84 3d d1 be 7c fd 12 3e
       0.120277226 0.26582563 -0.40867245 0.14354509
0000a0 4a ea 93 be 0e 53 dc 3e a2 fe d0 be 2a 81 f9 be
       -0.28889686 0.43032116 -0.4081927 -0.48731357
0000b0 58 5e c8 be 70 ed fb bd f0 ab 6b 3e ea da 86 be
       -0.3913448 -0.12301147 0.23014808 -0.26338893
0000c0 9a d4 b9 3e 2a ee bc be 90 1d 09 3d ae 16 ee 3e
       0.36295015 -0.36900455 0.03347546 0.46501678
0000d0 58 d1 1d 3e 00 ac 4e ba c0 23 81 be 74 cc fc be
       0.1541189 -0.00078839064 -0.25222588 -0.49374735
0000e0 d4 3c e0 be a0 f4 93 bc 00 45 93 be c4 ec 56 be
       -0.43796408 -0.018060982 -0.2876358 -0.20988756
0000f0 12 62 94 be ce f2 fd 3e 30 a3 e9 bd d4 32 8e be
       -0.28981072 0.49599308 -0.11408079 -0.27773154
000100 34 f9 04 be e0 69 eb 3d 50 97 3f 3e 28 8f ef bd
       -0.12985688 0.114948034 0.18710065 -0.11697227
000110 08 9f 61 be a0 4e 1d bd 3c 0e a8 3e 20 c2 9e bc
       -0.22033322 -0.03840506 0.3282336 -0.019379675
000120 9a 29 d4 be 78 f3 84 bd 60 bc 5d 3d 96 a1 9c be
       -0.4143799 -0.064917505 0.054134727 -0.3059203
000130 14 a1 25 3e 8a ad a1 3e 14 5c bf be ac 38 9c 3e
       0.16174728 0.31577712 -0.37374938 0.30511987
000140 f6 e1 bc 3e 80 bd ad be 20 f9 99 3c c4 9d f2 be
       0.36891145 -0.3393364 0.01879555 -0.4738599
000150 a0 3a 91 be aa 4a 82 3e ac c5 17 be 3e b4 ab be
       -0.2836504 0.2544759 -0.148215 -0.3353595
000160 60 ab b8 3d 18 e2 03 3e d4 c5 ff be 00 e0 59 3b
       0.09017062 0.12879217 -0.49955618 0.0033245087
000170 a4 51 9c be 44 87 e9 3e e8 c0 a6 3d 30 12 df 3d
       -0.30531037 0.45611012 0.08142263 0.10892141
000180 10 d7 9c 3d 08 a4 d3 3e 00 e6 61 be 90 36 f8 bd
       0.076582074 0.41336083 -0.22060394 -0.12119782
000190 3a 1d eb 3e 40 cf 2d 3e 48 85 c5 bd 78 61 55 3e
       0.45920736 0.16973591 -0.09644562 0.20837963
0001a0 82 cb d5 3e a8 ae c8 3e 00 30 da 3e 82 cc cb be
       0.41756827 0.39195752 0.42614746 -0.39804465
0001b0 ec d9 62 3e e8 cd f1 3d ae 94 9c 3e e8 cd 8d 3e
       0.22153443 0.118068516 0.30582184 0.27696157
0001c0 50 74 96 3e 04 68 69 3e aa b0 b2 3e b8 67 e6 bd
       0.29385614 0.22793585 0.3490041 -0.112502515
0001d0 00 80 fe bd 8e 3d df 3e c8 39 8a 3e 68 d8 bb be
       -0.12426758 0.4360165 0.2699721 -0.36688542
0001e0 c4 09 a0 be 6c c8 94 3e 74 a7 57 3e 40 16 f5 3c
       -0.3125745 0.2905916 0.21059972 0.029917836
0001f0 f8 f6 cf 3e 20 10 5d bd 90 8d 22 be 30 6a 26 be
       0.4061811 -0.053970456 -0.15874314 -0.16251445
000200 6e 95 f5 be 04 14 a7 3e 14 02 01 be d0 2c 01 bd
       -0.47965568 0.32632458 -0.12598449 -0.031536877
000210 d8 72 be 3e c4 41 13 3e 0c d0 ec be fc 2e ae be
       0.37196994 0.14380556 -0.46252477 -0.3402022
000220 70 af ed 3d 70 04 ca 3d a0 db ea 3c ae 66 ed 3e
       0.11605728 0.09864128 0.028669178 0.463674
000230 a2 b0 ab 3e 5c 8f 06 3e d0 42 d9 bd 08 2e 1f 3e
       0.33533198 0.13140625 -0.106084466 0.15544903
000240 da ae af 3e 28 4e 86 be 82 71 e9 3e 2a f6 c5 3e
       0.3431309 -0.26231503 0.45594412 0.3866437
000250 ec b0 50 be ac bb 9b be 80 40 92 3e ac 20 5c be
       -0.2037999 -0.3041662 0.28564835 -0.21496838
000260 70 f1 17 3d d0 f0 97 3d 2c af a0 3e 16 00 bf 3e
       0.037095487 0.07418978 0.31383646 0.37304753
000270 2e 32 ef 3e 70 e3 5e bd aa 96 ec 3e d8 f3 c4 bd
       0.46717972 -0.05441612 0.46208698 -0.09616822
000280 70 14 ca 3e 50 03 7b 3e 34 7f 87 be 5a 49 fa be
       0.39468718 0.24512982 -0.26464236 -0.48884088
000290 dc 11 1c be 50 ca 66 bd 6c fb fe be 8c f1 17 be
       -0.15241188 -0.056345284 -0.49801195 -0.14838237
0002a0 40 07 8a bd 58 ad ec 3d 78 94 35 3e 64 88 44 be
       -0.06739664 0.115565 0.17732418 -0.19192654
0002b0 80 06 60 bd c4 df 97 3e 74 c0 9d be 1e b4 82 3e
       -0.0546937 0.29662907 -0.30810893 0.25528044
0002c0 d8 47 d2 3d e6 67 bb be 90 e2 ec 3d 3e 8a e3 be
       0.10267609 -0.36602706 0.11566651 -0.44441408
0002d0 ea cb 82 be c4 07 f8 3e 98 7f a1 3e 94 67 01 be
       -0.255462 0.48443425 0.3154266 -0.12637168
0002e0 da 3a d9 be 50 d9 94 bd 86 b4 97 3e 1e 50 83 be
       -0.42427713 -0.072680116 0.29629916 -0.25647062
0002f0 00 ea 83 bd 9c fe 4f be 90 ab 39 3e fa 13 c7 be
       -0.06441116 -0.2031197 0.18131852 -0.38882428
000300 ba 9f fb 3e d0 29 fc bd c6 d8 bf be 4e d3 9d be
       0.491453 -0.123126626 -0.37470073 -0.30825275
000310 94 77 f5 be 50 67 71 3d ae 06 a8 3e f8 0a b4 be
       -0.47942793 0.058936417 0.32817596 -0.35164618
000320 58 99 ab 3d 90 29 73 be b8 dc d2 bd 50 13 20 be
       0.083788574 -0.23746324 -0.10296005 -0.15632367
000330 52 61 9a 3e fa c3 ea 3e 86 23 8b be f8 ce b9 3e
       0.30152375 0.45852643 -0.2717554 0.36290717
000340 54 96 a4 be 76 df ce be 78 fe d1 bd 26 d7 f9 3e
       -0.3214594 -0.40404862 -0.10253614 0.48796958
000350 a0 87 9c 3c 64 f8 19 3e f4 aa 64 3e c0 de 3e 3e
       0.01910764 0.1503616 0.22330838 0.1863966
000360 3c 19 cb be 8c 20 3d be 30 38 97 bd e8 f1 8e be
       -0.3966769 -0.18469447 -0.07383764 -0.27918935
000370 00 30 51 3b c8 c9 3c be ce 75 f3 3e 4c 71 5a 3e
       0.003191948 -0.18436348 0.47550815 0.21332282
000380 64 e4 73 be 80 ca 77 3c 3c d1 f2 3e 02 96 d1 3e
       -0.23817593 0.015123963 0.47425258 0.4093476
000390 00 d0 c5 bb 40 91 6f bd b0 e9 f3 bd 48 56 19 be
       -0.0060367584 -0.05848813 -0.11909807 -0.1497432
0003a0 c0 b4 05 3c 16 27 e8 3e fe 3a aa 3e b2 50 c9 3e
       0.00816077 0.4534232 0.33248132 0.39319378
0003b0 f8 9e fa 3e dc 3e 46 be c2 d2 89 be 5e 60 bd be
       0.4894941 -0.19359916 -0.26918608 -0.36987585
0003c0 ae 14 ac 3e 90 df da be b0 ee 9d 3d f6 5f bd 3e
       0.33609527 -0.4274869 0.07711542 0.36987275
0003d0 38 a0 ff 3d c4 27 28 be 88 f5 ae be d8 97 bd be
       0.12481731 -0.1642142 -0.341717 -0.3702991
0003e0 e0 b5 e6 bc 3e c5 db be 18 fb 0c be e0 ca 17 3e
       -0.028162897 -0.4292392 -0.1376766 0.14823484
0003f0 78 d0 46 be 3e ee 9a be 6a f1 cb 3e be d8 e4 be
       -0.19415462 -0.3025989 0.39832622 -0.4469661

network_arch.0.bias f4 [64]
000000 a0 08 c6 3e 2c af 43 3e 30 4f 44 be 30 7e f4 be
       0.38678455 0.19109792 -0.19170833 -0.47752523
000010 2a c4 92 be 10 6a da 3d 20 a7 bb 3c a0 3e 9a 3e
       -0.28665286 0.10664761 0.02290684 0.30125904
000020 68 78 89 3e cc e4 3b be 30 68 a4 3e e4 51 92 be
       0.26849675 -0.18348998 0.3211074 -0.28578103
000030 c0 55 21 bd c0 e2 8c 3d 1a 28 80 3e 20 7e af bd
       -0.03938842 0.06879187 0.25030595 -0.08568978
000040 f0 9f 13 3d 98 99 d4 be 00 f4 94 bc 72 da c0 3e
       0.0360412 -0.41523433 -0.018182755 0.3766666
000050 de 85 d1 3e 90 09 1b 3e de 6e c0 be 38 c8 ce be
       0.40922445 0.15140367 -0.37584585 -0.4038713
000060 c8 59 c7 be 84 0b 03 be ac 66 a1 3e 5c 66 da 3e
       -0.38935685 -0.12797362 0.31523645 0.4265622
000070 48 89 a2 3e c8 e6 47 be 86 59 d8 3e e4 8b ac 3e
       0.31745362 -0.1952163 0.422558 0.33700478
000080 80 89 26 3c 40 cc ca 3c a4 1f 65 3e 70 ba d5 3d
       0.0101646185 0.024755597 0.22375351 0.10435951
000090 8e b8 c1 3e 6c 52 f2 be 3e 48 d4 be 44 36 8a 3e
       0.37836117 -0.47328508 -0.41461366 0.26994526
0000a0 86 36 a9 be ec 07 ed 3e e0 a9 52 be b4 f7 47 be
       -0.3304941 0.46295106 -0.20572615 -0.19528085
0000b0 6c 0e e1 be 16 37 81 3e 74 ec a7 be 50 46 a9 bd
       -0.43956316 0.2523734 -0.32797587 -0.08265364
0000c0 a0 af ca 3c ae 42 cc be 88 44 3c 3e 90 49 73 3d
       0.024741948 -0.39894623 0.18385518 0.059396327
0000d0 a0 dc ff bd 08 6a fc 3e c8 fe f1 3e 78 32 ab 3d
       -0.12493253 0.49299645 0.47264695 0.083592355
0000e0 7c 27 37 3e bc d4 b5 3e b8 ab cc 3d 7c 63 82 be
       0.17886156 0.35513866 0.0999369 -0.25466526
0000f0 b4 a5 67 3e a4 dc 07 be 96 5b c3 3e 5c 61 14 3e
       0.22621804 -0.13267761 0.38155812 0.14490265

network_arch.2.weight f4 [2, 64]
000000 e8 91 3c 3d 10 72 f6 3d 22 15 96 3d c8 1f a8 bd
       0.046037585 0.120334744 0.073282495 -0.08209187
000010 78 fc d8 bd bc e1 83 3d 20 64 82 3c 04 1d 86 bd
       -0.105950296 0.0643954 0.015916884 -0.06548503
000020 9c 0a ed 3d e4 f9 e6 bd 7c 3f 69 bd 1c de 2a bd
       0.11574289 -0.112781316 -0.05694531 -0.041715726
000030 20 ab 7c bd 10 8b 0b bd 66 94 8d 3d 44 68 bd 3d
       -0.061686635 -0.034068167 0.069130704 0.09248403
000040 6e ed 93 bd 30 4e da 3d 4c f2 2b 3d a0 b1 1f bc
       -0.072230205 0.10659444 0.04197912 -0.009746939
000050 a8 5c 09 3d 14 71 34 3d 0c e9 a2 3d 14 45 16 3d
       0.03353563 0.044053152 0.079546064 0.03668697
000060 cc ce 29 3d e8 8b 05 3d 14 37 85 bd d0 14 6e bc
       0.041456982 0.032604128 -0.06504646 -0.014531329
000070 e0 75 cf bd 6a cc ac 3d 46 62 b4 3d 50 f9 1a 3d
       -0.10129905 0.084374264 0.08807807 0.03783542
000080 62 b0 ea 3d 40 67 77 bd 96 b0 f0 bd a4 15 c9 3d
       0.114594236 -0.0604012 -0.11752431 0.09818581
000090 88 b2 3e bd 96 a2 bd bd 60 cb 8c 3d 68 6a 1e bd
       -0.04655698 -0.092595264 0.06874728 -0.038675696
0000a0 70 fa c8 bc 3e af d9 3d 84 00 fb bd ee e3 a9 3d
       -0.02453348 0.10629128 -0.12255958 0.08295427
0000b0 a6 4c a4 bd 52 a9 82 3d 7e 94 e8 3d d2 31 88 bd
       -0.08022432 0.063799515 0.11356448 -0.066501275
0000c0 54 d1 85 3d f4 01 48 3d a4 54 8f 3d 1a 2d ae 3d
       0.06534067 0.048829988 0.06998566 0.08504696
0000d0 c8 3d 94 bd 72 9f 96 3d b0 b2 40 bc 80 26 dd 3c
       -0.07238346 0.073546305 -0.011761352 0.026995897
0000e0 54 a5 45 3d 48 a9 95 3d b0 75 ee bd 6e 68 e4 bd
       0.048253372 0.073076785 -0.11643541 -0.11152731
0000f0 5c 6e ce 3d 18 0c e2 3d 88 82 4a 3d c8 39 e7 bc
       0.10079643 0.11037463 0.04944089 -0.028225794
000100 86 c3 fd 3d 00 00 6c 39 80 76 da 3a 94 b3 38 3d
       0.12390809 0.00022506714 0.0016667396 0.045093134
000110 48 f0 ba 3c 00 9f a8 3a 20 8a 7d bd 26 94 ec bd
       0.022819653 0.0012864769 -0.061899304 -0.115516946
000120 ae 6b da bd 0a b3 f9 3d 54 4a 33 3d a0 82 36 3d
       -0.106650695 0.12192352 0.043772057 0.044558167
000130 38 e9 11 bd c8 1f f5 3c 68 ac e2 3d 90 c1 ab 3c
       -0.035622805 0.029922381 0.1106804 0.020966321
000140 40 c3 e2 3c 72 e8 e2 3d 10 a4 7a 3d 1c ff eb bd
       0.027680993 0.11079492 0.06119162 -0.115232676
000150 4e 59 8f 3d 90 d7 d0 3c 94 17 c0 3d d0 39 82 3c
       0.069994554 0.025493413 0.09379497 0.015896708
000160 8e 77 d6 3d 04 40 05 bd f2 3e b1 3d 80 1d e9 3a
       0.10472022 -0.032531753 0.08654584 0.0017785281
000170 78 2f ae 3c 18 4e ed 3c 4a c1 87 bd 4c a3 fb 3d
       0.02126287 0.028967902 -0.06628664 0.12287006
000180 a8 bf a3 bc 74 6e f1 bd aa 4a ae bd ac dc fc bd
       -0.01998885 -0.117886454 -0.08510335 -0.12346777
000190 48 c0 6e 3d b4 e6 99 bd ba 6f a0 3d 76 84 ff 3d
       0.058288842 -0.07514706 0.0783381 0.12476437
0001a0 50 ef 67 bc 84 7c 29 bd 90 9e f2 3d 32 72 86 3d
       -0.014156178 -0.041378513 0.1184665 0.0656475
0001b0 f8 08 e5 bc e8 48 78 3d c0 ca 21 bb c0 1d bf 3c
       -0.027958378 0.060616404 -0.0024687499 0.023329616
0001c0 f0 84 a7 3d 08 d7 92 bc bc 60 60 bd 70 93 23 3d
       0.08179653 -0.0179248 -0.054779753 0.03993553
0001d0 00 aa 7c ba f0 83 d7 3c f0 02 e9 3d 40 64 54 bd
       -0.0009638369 0.02630803 0.113775134 -0.05185342
0001e0 ec 94 88 bd e0 a3 65 3d 50 32 76 bd f0 71 9e bc
       -0.066690296 0.056064487 -0.060106575 -0.019341439
0001f0 14 7c bc 3d 64 a6 01 bd 14 01 b6 bd 10 f2 72 3d
       0.092033535 -0.031652823 -0.088869244 0.05931288

network_arch.2.bias f4 [2]
000000 f8 fd c8 bc e8 8f 6f bd
       -0.024535164 -0.05848685

layer1.weight f4 [64, 4]
000000 fe 95 9a bb ba 87 c6 bb d9 78 e7 bc fa ea 48 3b
       -0.0047175875 -0.0060586603 -0.028255867 0.0030657635
000010 31 49 39 3c 5c 98 c6 3a f5 c2 ec 3c 36 91 9e 3b
       0.011308954 0.0015151608 0.028901557 0.004839088
000020 c1 41 61 bd 7e 3a 8b 3d 31 89 5a 3e e1 d1 aa bd
       -0.05499435 0.06798266 0.21341397 -0.083408125
000030 31 47 06 40 93 57 65 3f de b8 bb c0 a0 4c e1 be
       2.0980952 0.8958675 -5.866317 -0.44003773
000040 2c 61 31 3f df 76 be 3e fd 36 0e 3f e7 dd 37 3e
       0.692889 0.37200066 0.55552655 0.17955743
000050 a6 88 2a 3f da a9 de 3e db 52 02 3f e5 56 e7 3d
       0.6661476 0.4348896 0.5090768 0.11295871
000060 e6 9b 53 c0 2c 24 70 c0 33 9f b8 c0 a9 88 23 c0
       -3.3063903 -3.7522078 -5.7694335 -2.555216
000070 c7 55 38 3f 0d dc cf 3e e2 97 10 3f 11 cb 0b 3e
       0.72005886 0.40597573 0.56481755 0.13651682
000080 72 61 40 3f 38 36 b3 3e 41 cd 10 3f c1 f8 23 3e
       0.7514869 0.35002303 0.5656319 0.16012861
000090 01 cc 43 3f 65 85 be 3e f6 1f 0c 3f c0 7a e4 3d
       0.7648316 0.37211147 0.5473627 0.11156225
0000a0 95 75 26 3d 00 aa 8e ba 83 ad da 3c 2f d3 2f bc
       0.04063948 -0.0010884404 0.026694065 -0.010731502
0000b0 b6 ff 4d c0 11 8b 85 bf 05 53 b1 40 67 a7 aa 3f
       -3.2187324 -1.0433065 5.541384 1.3332337
0000c0 55 14 75 bb 34 40 85 3c 94 bb 8e 3b 59 3b 80 3c
       -0.0037396152 0.016265966 0.004355857 0.0156533
0000d0 6f 48 18 3d bb b5 89 bc f6 e4 33 3d f4 07 85 bc
       0.037178453 -0.016810289 0.043919526 -0.016239144
0000e0 d3 d0 37 c0 2f ba 97 bf b9 72 2e 40 86 1e b6 3f
       -2.8721206 -1.1853694 2.725752 1.4228065
0000f0 0f aa 97 bb ba 72 6b bb 45 4e 1e bc a8 8b 2a bc
       -0.004628427 -0.0035926537 -0.009662216 -0.010409273
000100 9d 67 c8 3f a8 f8 16 40 75 ae f6 40 5a 04 05 40
       1.565662 2.3589268 7.708796 2.0783906
000110 1d ab 9c be 89 41 c6 3e 56 a4 3a 3f 5c af 19 3c
       -0.305993 0.38721874 0.72907007 0.009380188
000120 0c 2b 0d 3e 3d bd c9 3c 96 29 70 be 94 24 05 bc
       0.13785952 0.024626369 -0.23453364 -0.008126397
000130 a6 75 a4 be 58 36 a0 bd 9e 26 f9 3e b6 40 d6 3c
       -0.3212101 -0.07822865 0.48662275 0.026153903
000140 b6 0b 0e c0 8a 61 1a c0 e8 98 09 c1 de 8c 22 c0
       -2.2194648 -2.4122033 -8.599831 -2.5398479
000150 b4 3b 4a 40 e3 0e a9 3f 51 92 2e c0 2f 3b f8 be
       3.159894 1.3207668 -2.7276804 -0.48482653
000160 7f cd 30 40 ae 28 fe 3f 1f 0c 71 40 54 ea 06 40
       2.7625425 1.9856164 3.7663648 2.1080523
000170 9d 5b 1c 40 c2 3c cc 3f aa 50 0b c0 e5 51 02 3f
       2.4430916 1.5956042 -2.1767983 0.5090621
000180 35 e7 80 40 c8 e7 83 40 9d b7 08 41 17 87 35 40
       4.0282235 4.1220436 8.544827 2.8363702
000190 e0 d1 23 40 88 d3 37 3f 0d 27 a7 c0 73 11 13 bf
       2.5596848 0.71807146 -5.223517 -0.574485
0001a0 14 6a b2 bf 66 d2 00 3f 97 4f bd 40 78 29 97 3f
       -1.3938622 0.5032104 5.9159656 1.180953
0001b0 10 b1 37 c0 2b 74 38 c0 84 23 d6 c0 5e 3b 14 c0
       -2.870182 -2.8820903 -6.6918354 -2.3161235
0001c0 ec aa 15 3e 78 b9 5b bf 32 bb 0d c1 da c1 19 c0
       0.14615983 -0.8582988 -8.858202 -2.4024568
0001d0 70 27 ff 3f fe ba 82 3e a4 ef a5 c0 bd 7f 18 bf
       1.993391 0.2553329 -5.185503 -0.59569913
0001e0 ca 24 c3 bc 95 a7 65 3c ec 1b e1 bc aa 8e db bb
       -0.023821253 0.014017005 -0.027479135 -0.0067003565
0001f0 99 46 13 c0 aa 2a 02 3e 48 6a ec 40 6d 51 ef 3f
       -2.301184 0.12711588 7.387974 1.8696724
000200 58 8d 36 3f 64 4c c5 3e 1c 8f 0e 3f fd 8c 1a 3e
       0.71309423 0.38534844 0.5568712 0.15092845
000210 9e d7 e6 3f 4b c3 df 3d a0 33 d7 c0 b0 15 c2 bf
       1.8034551 0.10925921 -6.725052 -1.5162868
000220 aa 6c 5e c0 f2 c6 1c c0 27 f4 b4 c0 8b a6 ff bf
       -3.4753823 -2.4496427 -5.6548038 -1.99727
000230 e2 53 48 3e 39 5c 86 3f c6 08 e0 40 30 f0 07 40
       0.19563249 1.0496894 7.001071 2.124035
000240 f4 6a 2b 40 28 8e 42 40 da 57 ee 40 91 07 20 40
       2.678403 3.0399265 7.448224 2.5004618
000250 e3 32 24 3f 7c 42 63 3e 7a c9 31 3f 0b ef e9 3e
       0.64140147 0.2219333 0.69448054 0.45690188
000260 38 16 09 bd 8c 43 f8 3c cd 2d 80 3d 1f a7 5b 3b
       -0.033468455 0.030305646 0.06258736 0.003351636
000270 ee a1 3b 40 c1 51 af 3f 08 b1 a0 be 45 8c a7 3f
       2.9317584 1.3696824 -0.31385064 1.3089682
000280 f2 fc 3b c0 7b 55 28 c0 89 2c 01 c1 dd b4 06 c0
       -2.9373136 -2.6302173 -8.073373 -2.104789
000290 cb a8 34 3f cf f7 af 3e 56 33 14 3f 16 33 49 3e
       0.7057006 0.3436875 0.5789083 0.19648394
0002a0 49 53 16 3f f1 55 6e 3e b8 90 27 3f 70 d6 e1 3e
       0.58720833 0.23274972 0.654552 0.44108915
0002b0 df c9 35 3f 5d 23 b0 3e df e7 10 3f 31 53 29 3e
       0.71011156 0.3440198 0.5660381 0.16535641
0002c0 64 13 93 3f e0 fa 65 3f 8e 67 ce bf eb e4 ba bf
       1.1490293 0.8983593 -1.6125352 -1.460111
0002d0 7e 2b 1e 3d 71 b4 69 be a4 82 07 be e0 53 f0 be
       0.038615696 -0.22822739 -0.13233429 -0.46938992
0002e0 a0 ed fc bd 1c c8 15 be 3d ac 16 be 03 31 d3 be
       -0.12350011 -0.14627117 -0.14714141 -0.4124833
0002f0 ab df b9 3e 3f 02 bb 3f 32 37 ee 40 05 51 17 40
       0.36303458 1.461006 7.4442377 2.36432
000300 12 89 83 bf 14 f0 43 3f ae ca e6 40 bf 3e 0a 40
       -1.0276206 0.76538205 7.212241 2.1600797
000310 cc e9 d1 bf f9 71 37 c0 52 87 c2 c0 4a fc 10 c0
       -1.6399474 -2.8663313 -6.0790186 -2.2653985
000320 3d 14 32 3c 7a f1 2e bb d1 b5 fa bd 67 f4 0d bd
       0.010869083 -0.0026694224 -0.1224171 -0.03465691
000330 8f f5 f1 3f 80 dc 2e 40 49 7c fc 40 25 8a 0d 40
       1.8903064 2.7322083 7.8901715 2.2115567
000340 0c a6 32 40 2e f2 8e 3f 15 9a 3e c0 9d 3c 5f be
       2.7913847 1.1167657 -2.9781544 -0.21800466
000350 a4 6a 3d 40 34 1d bc 3f 40 94 16 c0 b5 6f 66 bf
       2.9596338 1.4696412 -2.3527985 -0.900142
000360 40 93 2d 3f be e4 bc 3e ca 62 13 3f e2 34 4f 3e
       0.6780281 0.36893266 0.57572615 0.20235017
000370 ed ad c5 bb d1 38 e9 bb aa f2 ac bc 70 4b 34 3c
       -0.0060326965 -0.0071173687 -0.021111805 0.011004314
000380 b7 84 88 3e 28 ac db be d5 15 3b bf 52 ee 6d be
       0.26663753 -0.42904782 -0.7308019 -0.23235443
000390 02 e8 47 bb d9 91 c8 bc 42 2d 58 3b f7 61 99 bc
       -0.0030503278 -0.024483608 0.003298596 -0.018723471
0003a0 db 3b 1d 3e cc 40 d0 3c ed f1 ca 3e e6 51 19 3e
       0.15354864 0.025421523 0.396377 0.14972648
0003b0 26 15 2b bd 69 1f cd 3c 81 cc b8 3d 84 12 53 3c
       -0.041768216 0.025039392 0.09023381 0.012882832
0003c0 4c e9 a2 3f 45 5a a1 be 2c a3 c0 c0 a8 59 68 bf
       1.2727447 -0.31514183 -6.0199184 -0.90761805
0003d0 10 df 80 3c 99 15 b2 bb 62 58 88 bd 06 e4 8f b9
       0.015731364 -0.0054347035 -0.06657483 -0.00027444976
0003e0 59 66 26 3f 4f da ca 3d 23 bc 93 40 f4 89 12 40
       0.6499992 0.0990492 4.616716 2.28967
0003f0 7e 0b 2e 3f d5 fc ff 3e 31 60 3c 3f f8 2b ef 3d
       0.67986286 0.49997583 0.73584276 0.11678308

layer1.bias f4 [64]
000000 78 c7 0c bd 19 99 3c bd b2 19 33 bf 93 df a8 bf
       -0.034369916 -0.046044443 -0.6996108 -1.319323
000010 bc 80 51 40 f1 e5 4f 40 cb 2f 53 3f 0a 24 4f 40
       3.2734823 3.2484095 0.824948 3.2365746
000020 e8 00 4e 40 5d 69 4e 40 7e b9 4c be bb 77 27 bf
       3.2188053 3.2251809 -0.19992635 -0.6541707
000030 96 bb e5 bd 9d 23 96 bd 66 7a fc bf 18 cb 01 be
       -0.1121742 -0.073310114 -1.9724853 -0.1267513
000040 66 e3 55 3d e2 82 69 bf b5 02 23 bf 67 e5 a5 bf
       0.052218817 -0.91215336 -0.63676006 -1.2960633
000050 56 11 0e bf b0 49 d4 be 31 83 bd 3e 40 3a c8 3e
       -0.554952 -0.4146247 0.37014154 0.3910694
000060 a6 5d df 3e 11 31 53 bf b4 e5 d7 3f f5 21 50 be
       0.43626136 -0.82496744 1.6866975 -0.20325454
000070 a8 d9 ee bf c2 ae 64 3f 77 25 80 bd 7b 41 eb bf
       -1.8660173 0.8932916 -0.06257146 -1.8379358
000080 89 a6 4f 40 73 7c f8 bf 72 4f 76 3e b2 fa d2 bf
       3.2445395 -1.9412979 0.24053743 -1.6482756
000090 69 69 f2 bd 7e 64 57 40 4a 67 fc bd 9f 60 3e be
       -0.11836512 3.3655086 -0.12324388 -0.18591546
0000a0 01 fb 61 3d 82 d8 51 40 d7 c1 5b 40 1b c5 50 40
       0.055171017 3.2788396 3.433706 3.2620304
0000b0 f2 43 3a 40 6d 80 8b bf 21 7e b0 bf 91 31 bf bf
       2.910397 -1.0898567 -1.3788491 -1.4937001
0000c0 fb c6 e5 bf ef d9 32 3e 38 bb 70 be 9e ae 3c 3f
       -1.7951349 0.17465948 -0.23508918 0.73703945
0000d0 78 60 23 3e a7 cf 9f 3d aa 03 51 40 e0 cf a9 bd
       0.15954769 0.078032784 3.2658486 -0.08291602
0000e0 fe 8b 07 bf b5 80 f9 bd b0 6b 22 bf c8 0d f0 bd
       -0.52947986 -0.12182752 -0.6344557 -0.117213786
0000f0 21 71 c0 3f c8 cc 5a bd 3d 20 1e 40 1f 42 49 40
       1.5034524 -0.05341795 2.4707177 3.1446607

layer2.weight f4 [64, 64]
000000 10 f5 10 bd 59 f8 05 bd 45 24 45 3b fe dc 17 bd
       -0.03538996 -0.032707546 0.0030081433 -0.03707599
000010 61 97 10 bd 3e 5c 14 bd 35 17 05 bd 55 ec 17 bd
       -0.035300616 -0.03622078 -0.032492835 -0.03709062
000020 7c 95 11 bd 0b 69 0d bd a9 c9 38 bd 15 3f 0e bd
       -0.03554295 -0.034524005 -0.045114193 -0.03472813
000030 dd 58 24 bd ba f5 9c 3b 33 0c d1 3b 56 a6 d0 bb
       -0.04012381 0.004790035 0.006379628 -0.006367485
000040 c2 28 2f bd f8 3b 78 ba 9f 6b 26 bd 04 12 02 bd
       -0.04276348 -0.0009469385 -0.04062998 -0.031755462
000050 27 a2 24 bd 53 c2 39 bd 48 f2 2e bd 71 12 b7 bb
       -0.040193703 -0.045351338 -0.042711526 -0.005586915
000060 82 b6 1d bd 25 03 21 bd b3 42 30 bd 7b 17 18 bd
       -0.03850413 -0.03930964 -0.04303236 -0.037131768
000070 5b 11 01 bd 11 9d 31 bd e4 00 17 bd 4d 55 1b bd
       -0.031510692 -0.04336268 -0.036866084 -0.037923146
000080 62 b4 27 bd d1 72 28 bd cd 5a ad 39 a8 7d 21 bd
       -0.04094351 -0.041125122 0.00033064783 -0.039426476
000090 3e cd 05 bd fb cf 1b bd 89 30 03 bd 3f 1b 20 bd
       -0.032666437 -0.038040143 -0.03202871 -0.039088484
0000a0 eb da 0c bd d8 98 29 bd 78 06 3c bd d2 23 fd bc
       -0.034388464 -0.04140553 -0.045904607 -0.03090087
0000b0 0d 12 37 bd 67 f1 27 bd c2 ae 2f bd ba 70 ff bc
       -0.04469495 -0.041001704 -0.04289127 -0.031181682
0000c0 6b ee 34 bd dc 51 4c ba f6 e1 10 bd 93 89 1e bd
       -0.044172686 -0.00077941804 -0.035371743 -0.03870542
0000d0 59 b2 04 bd d8 90 34 bd c2 57 28 bd f7 1a fc bc
       -0.032396648 -0.044083446 -0.041099317 -0.030774577
0000e0 f8 21 0a bd 10 60 01 3c 3f 80 3d bd 19 05 2b bd
       -0.0337238 0.007896438 -0.046264883 -0.04175291
0000f0 54 11 04 bd 4b ca 25 bd a9 96 07 bd a7 ba 2f bd
       -0.032243088 -0.040476125 -0.033102665 -0.042902615
000100 c8 9c d1 3a 17 05 5c bd 49 3c cb bc 1f 7b 8e c0
       0.0015992159 -0.05371579 -0.02480902 -4.4525294
000110 0d e6 1b 40 e6 7f 1c 40 05 28 ee bf 47 db 1b 40
       2.4359162 2.4453063 -1.8605963 2.4352586
000120 57 0a 17 40 a6 bc 1b 40 bb cb 5a bd 30 ed cc c0
       2.360006 2.4333892 -0.05341695 -6.4039536
000130 ce f9 39 bd e3 b2 9a 3d 81 36 14 c0 f6 55 42 3d
       -0.045404248 0.07553651 -2.3158267 0.04744526
000140 f2 60 f6 c0 aa 17 da 3d b0 4a 81 bd 0d 77 fc be
       -7.699334 0.10649045 -0.06313074 -0.4930958
000150 a4 9a bc c0 56 38 36 c0 d1 7f 52 bf b1 f6 28 bd
       -5.893877 -2.8471885 -0.8222628 -0.04125089
000160 07 8f e4 c0 0d 59 99 c0 46 f8 47 c0 3b 07 a0 c0
       -7.1424594 -4.7921205 -3.1245284 -5.0008826
000170 24 2a 82 c0 1b 96 47 bf fc 79 e6 bc 65 46 f8 c0
       -4.067644 -0.7796342 -0.028134339 -7.758593
000180 ee 38 1b 40 a8 62 f0 c0 18 57 1d c0 ad b1 80 c0
       2.4253497 -7.512043 -2.4584408 -4.021689
000190 19 98 b2 c0 19 9a 11 40 a8 c6 64 3d 21 12 e5 bf
       -5.5810666 2.2750304 0.055853516 -1.7896158
0001a0 5e f9 35 c0 e1 a1 1b 40 22 fb 16 40 1e 1c 1a 40
       -2.8433452 2.4317553 2.359078 2.4079661
0001b0 de 0d 15 40 49 df 29 3e 21 46 33 bf d4 ca 83 c0
       2.3289714 0.16589083 -0.70028883 -4.1185093
0001c0 40 86 c0 c0 c7 f3 d2 c0 e2 35 2a bd 09 fd de c0
       -6.016388 -6.592258 -0.041555293 -6.968388
0001d0 83 57 85 bf 55 2a 63 3f 1c 82 18 40 21 97 9f 3c
       -1.0417331 0.8873647 2.3829412 0.019481244
0001e0 e9 3c 54 3f 9c 9f 2c 3d bb f0 73 be 76 50 28 bc
       0.8290544 0.042144403 -0.238223 -0.01027309
0001f0 f8 57 9c 3f f9 4f 88 3c f3 97 d2 bf fc f7 13 40
       1.2214346 0.016639696 -1.6452621 2.3120108
000200 e5 4e 0e bd 2d d8 17 bd 1d e2 ea 3b 3f 78 e4 bc
       -0.03474321 -0.037071396 0.007168068 -0.027889369
000210 35 16 06 bd f4 94 ea bc 3e f1 a4 3b d7 2f 21 bd
       -0.032736022 -0.02863548 0.005033641 -0.039352264
000220 22 02 27 bd 96 6d 29 bd 09 a7 dc bb 1f 06 04 bd
       -0.04077352 -0.041364275 -0.0067337793 -0.0322324
000230 7b 78 0d bd f2 db 87 3b 3c 9c fd 3a 28 71 41 3b
       -0.034538727 0.0041460926 0.001934893 0.002951691
000240 df ce 35 3b 10 59 0d 3b 3f c0 21 bd 69 f4 11 bd
       0.0027741713 0.0021567978 -0.03948998 -0.03563348
000250 91 fb a2 3b 53 a3 ff bc e4 21 0f bd 78 0d c9 3b
       0.0049738367 -0.031205809 -0.03494443 0.006135639
000260 f4 8f 1f 3d 2c be 2d bd 72 c5 d9 ba 44 f9 4b ba
       0.038955644 -0.04241769 -0.001661463 -0.0007780979
000270 e8 e2 fb bc 09 76 02 bd 60 65 2f bd da 17 08 bb
       -0.030747846 -0.03185085 -0.042821288 -0.002076617
000280 e6 3d 1a bd a2 d1 07 bd 78 14 67 3b cc b2 0c bd
       -0.037656687 -0.033158906 0.0035260003 -0.0343502
000290 1d 98 f8 bc 7c 92 ae 3b f0 1a e1 3b 4d 24 2f bd
       -0.03034597 0.005327521 0.0068696663 -0.04275923
0002a0 59 cc ba ba 6d e7 0b bd 23 19 83 bb 7f 31 20 bd
       -0.0014251574 -0.03415625 -0.0040007993 -0.039109703
0002b0 e3 7c 1c bd bd b0 ee bc dc f8 72 bb 6a 21 06 bd
       -0.03820504 -0.02913701 -0.0037074601 -0.03274671
0002c0 9e 7a 03 bd f9 d0 95 bb 9e 02 f4 bb cc bf 2b bd
       -0.03209936 -0.0045720306 -0.007446601 -0.04193096
0002d0 39 f0 2f bd 44 b2 59 ba db 87 2c bd 01 ce ce bb
       -0.042953704 -0.0008304457 -0.04212175 -0.0063111787
0002e0 f7 7b 30 bd fa 24 a9 bb 06 63 1e bd 59 26 b9 bb
       -0.043086972 -0.0051618787 -0.038668655 -0.0056503233
0002f0 d2 67 1f bd 7d 2c 30 bd e3 9d 6a bb a9 59 2a bd
       -0.03891737 -0.043011177 -0.0035799674 -0.041589413
000300 47 9d 5d bb 28 17 ea bc 5b fe 52 3d a2 9c 9c bd
       -0.0033815668 -0.028575495 0.051512104 -0.07647063
000310 81 d2 11 bd 12 da 1b bd 40 d7 13 3d 0c c5 16 bd
       -0.035601143 -0.038049765 0.03609395 -0.036809012
000320 9f 70 85 bd a8 71 92 bd bc 44 eb bd da a1 d0 bc
       -0.065156214 -0.071505845 -0.114877194 -0.025467802
000330 da 4e 0f bd 83 93 02 bd f6 64 db bd b0 d2 41 bd
       -0.034987308 -0.03187896 -0.10712616 -0.047320068
000340 9d 06 9b bd 61 fb c9 bd dc fb 8e bd fb bd 04 bd
       -0.07569621 -0.098624 -0.06981632 -0.032407742
000350 3a f0 e9 bd 8b 59 7b bd 9e 2d 43 bc a8 33 ad be
       -0.11422773 -0.06136469 -0.011912731 -0.33828473
000360 aa 40 c7 bd 16 a2 bd bc cd 77 a5 bd 5a 87 3f bd
       -0.097291306 -0.023148578 -0.08079491 -0.04675994
000370 e6 08 9c bc 63 c9 98 bd 3c 13 bc bc 32 85 cb bd
       -0.019047212 -0.074602865 -0.02295839 -0.09937514
000380 d1 0b 18 bd 04 93 a2 bd 09 bf 5e bd a6 d4 a4 bd
       -0.037120644 -0.07938197 -0.054381404 -0.08048372
000390 ed 83 89 be b4 86 68 3b 8a a3 82 bc 85 3f 46 be
       -0.26858464 0.003548068 -0.015947122 -0.19360168
0003a0 33 7b 3e be da 8b 04 bd 3f dc 69 3d ee cf 61 bd
       -0.18601684 -0.032359935 0.05709481 -0.055129938
0003b0 ca c2 b9 be d3 1d 15 bc 9a 45 23 bd b5 72 41 bd
       -0.36281425 -0.009101349 -0.0398613 -0.047228534
0003c0 48 68 f2 bc 3e 48 cd bb aa 2b e3 bd a9 3c 1e bd
       -0.02959074 -0.0062647155 -0.11092313 -0.03863207
0003d0 a4 f6 22 bd d9 94 0e 3d 46 7d 0c bd 15 3f 35 3d
       -0.039785996 0.03480992 -0.034299158 0.044249613
0003e0 66 9d c6 bc c8 91 07 bd 3d e7 9c bc a6 30 b1 bd
       -0.024244975 -0.033098012 -0.019153232 -0.08651857
0003f0 a8 61 03 bd 43 71 95 bc e5 2e 78 bd 10 83 85 bd
       -0.032075554 -0.018242484 -0.060591597 -0.06519139

layer2.bias f4 [64]
000000 a7 5f 10 bd 1f 55 2b 40 00 96 f0 bc b8 b1 1a bc
       -0.03524747 2.6770704 -0.0293684 -0.0094417855
000010 8b 5c 54 40 14 e3 65 bf b7 a1 13 bd 0e 35 2f bd
       3.3181484 -0.8979962 -0.036042895 -0.042775206
000020 41 7c 65 be a6 1d 30 bd 5b 68 1c bd aa f3 09 bd
       -0.2241068 -0.042997025 -0.03818546 -0.03367964
000030 14 ff 19 bd 51 c9 17 bd d4 68 a3 bb bb 01 da bc
       -0.037596777 -0.037057225 -0.0049868617 -0.026612153
000040 7d f9 57 3f 52 f7 f5 bc 11 15 f0 bc fb 6c 45 bc
       0.84365064 -0.030025158 -0.02930692 -0.012049909
000050 50 4e ad bb 1b 1c 5b bc c6 88 f0 bd d8 71 2b bd
       -0.0052888766 -0.0133734 -0.117448375 -0.041856617
000060 10 47 ab bb f2 fe 00 bd 52 22 6b bc d4 48 00 bd
       -0.005226977 -0.031493135 -0.014351444 -0.031319454
000070 cb a2 16 bd e2 b1 34 bd 13 ed 4b bc 8a 9d 28 bc
       -0.036776345 -0.044114955 -0.01244666 -0.0102914665
000080 a3 5a 2f bc 66 06 2a bd aa 33 a8 bd 1e 81 17 be
       -0.010702762 -0.04151001 -0.08212979 -0.14795348
000090 0b cb ef 39 37 d5 08 bd 64 2c b2 bd bf dc 2a bd
       0.0004573691 -0.033406463 -0.08699873 -0.041714426
0000a0 d2 3a 1e bd 6a 5f 43 bd bd 6d b2 bc 69 51 12 bd
       -0.038630314 -0.047698416 -0.021780843 -0.03572217
0000b0 1c 40 8e 3c c3 bc 22 bd 13 c8 1a bd 85 a7 6a bd
       0.017364554 -0.0397308 -0.037788462 -0.057288665
0000c0 e7 60 19 bd 23 54 be bc 2b 18 21 bd 78 d0 10 bd
       -0.03744593 -0.023233479 -0.03932969 -0.03535506
0000d0 33 62 61 40 3a 8e bc bb df d6 43 40 34 8e 19 bd
       3.5216186 -0.0057542594 3.0599897 -0.03748913
0000e0 54 bd 9e bc 5a ca 47 bc b1 d0 02 bd 51 4f 30 bd
       -0.019377388 -0.0121942405 -0.031937305 -0.043044392
0000f0 da 8f f9 bc 7d 5c 25 bd 1c 91 00 be b4 1b ff bc
       -0.030464102 -0.040371407 -0.12555355 -0.03114114

layer3.weight f4 [2, 64]
000000 59 65 1a 3d 06 62 b6 40 3e 03 f0 bc 5c 3c 6f 3d
       0.03769431 5.6994658 -0.029298421 0.058407173
000010 4c 7d 5d 40 08 c0 97 be ff a3 10 3d c7 65 0e 3d
       3.4607725 -0.29638696 0.03531265 0.03476503
000020 85 dc 3d 3e e4 75 00 3d d6 20 eb bb f4 28 02 3d
       0.18541153 0.03136243 -0.007175545 0.031777337
000030 e0 cb 0c 3d 27 bd 03 3d 2e 60 b3 b8 51 43 d5 3c
       0.034374118 0.03216281 -8.5533e-05 0.026033076
000040 c7 9b 18 40 3c b7 75 bd cf e9 f0 bc ed ad c7 bb
       2.384508 -0.0599892 -0.029408364 -0.0060937316
000050 ec 36 82 bc 59 74 84 bc 3d 09 4f 3b 5d d9 05 3d
       -0.01589533 -0.01616876 0.00315912 0.032677997
000060 ef 1d 67 3c 74 c9 18 3d cd ef 9e ba e2 4a 29 bd
       0.014106258 0.037301496 -0.001212591 -0.04133118
000070 90 ed 0d 3d 98 d6 40 bd 47 90 84 bc a7 21 81 bc
       0.034650385 -0.047079653 -0.016182078 -0.015763117
000080 d1 ce 46 3c c0 f6 08 3d 9b 1b 2a bd c9 b5 d5 bd
       0.01213427 0.033438444 -0.041530233 -0.104350634
000090 94 98 8a 3c 4f 00 0d 3d 07 ea 4c bc 0a bc 28 3d
       0.016918458 0.034424122 -0.012506968 0.041194953
0000a0 87 88 fe 3c 2c 05 eb 3c 38 5e e5 bc 5d 06 17 3d
       0.03107096 0.02868899 -0.027999029 0.036871303
0000b0 5c fd 73 3e 1b eb 0e 3d 0f 46 ff 3c 67 4b 45 3c
       0.23827118 0.034892183 0.031161336 0.012041903
0000c0 e4 3e 05 3d 3c af 06 bb 70 6d 07 3d 9a 12 fa 3c
       0.03253068 -0.0020551225 0.033063352 0.030526448
0000d0 46 c5 a8 3f aa c2 83 bc 48 e0 86 40 ab 0e 19 3d
       1.3185203 -0.016084034 4.214878 0.037367504
0000e0 52 f8 bf bc c5 72 69 ba 34 54 d1 3c 26 b3 b7 b9
       -0.023433838 -0.00089053466 0.025552846 -0.00035037956
0000f0 db a2 d7 bc 64 10 05 3d 84 97 2b be 03 93 0b 3d
       -0.026322773 0.032486334 -0.16757017 0.03407575
000100 66 90 14 3d b8 fb bd 3f c0 87 32 bd e7 d8 b1 3c
       0.03627052 1.4842443 -0.043586493 0.021709872
000110 16 36 87 40 5e 4a 28 be 7b 3b 22 3d 0e 2c 32 3d
       4.2253523 -0.16434619 0.039607506 0.043499045
000120 d4 37 e8 3c 40 71 fb 3c ea 48 a0 bc 82 4d 28 3d
       0.028346933 0.03069365 -0.019566018 0.041089542
000130 96 f3 14 3d 73 4d 2b 3d f2 a8 18 bc 33 b1 38 3b
       0.036365114 0.04182191 -0.009317623 0.002818179
000140 16 69 43 40 5c 28 e5 3e 7a 3f 92 bb 85 35 df bc
       3.053289 0.44757354 -0.0044631334 -0.0272472
000150 85 48 d7 bc c4 66 3f bc 94 2b d5 3d fb b9 67 bb
       -0.026279697 -0.011682216 0.104087025 -0.0035358656
000160 05 51 28 3c ff 41 0a 3d e6 72 d1 bc 57 98 28 3d
       0.010273223 0.033754345 -0.025567483 0.041160908
000170 47 27 15 3d d5 c5 1b bd 6a f1 ad bc d3 50 14 bc
       0.03641441 -0.038030464 -0.02123328 -0.009052473
000180 00 f9 e7 3c c9 58 1a 3d 65 28 58 bd 19 a7 43 3d
       0.028316975 0.03768233 -0.0527729 0.04776678
000190 80 a6 93 3c 85 53 05 3d 23 be 3f bd 88 69 05 3d
       0.01802373 0.032550354 -0.046812188 0.032571346
0001a0 34 c9 2d 3d c6 97 aa bd 5b 2b ac bc 24 56 14 3d
       0.04242821 -0.0832973 -0.021016767 0.036214963
0001b0 61 98 49 be 08 aa 16 3d 83 90 0c 3d 6c a3 1d bd
       -0.19687034 0.03678325 0.034317505 -0.03848593
0001c0 a5 7e 37 3d 06 c0 c9 bc a6 cb 35 3d be 6b 63 ba
       0.044798512 -0.024627697 0.044383667 -0.00086754176
0001d0 2b c3 a6 40 92 cb 8d bc 40 e5 6a 40 7c 53 26 3d
       5.211324 -0.017308984 3.6702423 0.04060696
0001e0 fa 12 a4 bb 2b e9 e4 bc b2 74 09 3d b7 14 0e 3c
       -0.005007145 -0.027943214 0.033558555 0.008671931
0001f0 01 33 ba bc 6b b2 08 3d b5 bd 23 3e d8 dd 9c bb
       -0.022729399 0.033373278 0.15990336 -0.004787188

layer3.bias f4 [2]
000000 f5 77 74 3f f7 18 1d 40
       0.9549554 2.4546487
