lunar.pth (torch, 84059 bytes, 14 tensors)

network_arch.0.weight f4 [64, 8]
0	0xbe675d08	-0.22594082
1	0xbe0a5f0b	-0.13512819
2	0x3e06bc6a	0.13157812
3	0x3e9f2dbc	0.3108958
4	0x3e9160dd	0.28394213
5	0xbe3bca00	-0.18338776
6	0x3de80a79	0.113301225
7	0xbe8b3ef8	-0.2719648
8	0x3cc90807	0.02453996
9	0x3d7f8448	0.062382013
10	0x3da37cf1	0.07982815
11	0xbd819612	-0.06327452
12	0xbd9a04c2	-0.07520439
13	0x3d9b97d5	0.07597319
14	0x3dee4105	0.11633495
15	0xbe3822f4	-0.17982084
16	0x3e88aaac	0.26692712
17	0x3e933aae	0.28755707
18	0x3db1fc15	0.08690659
19	0x3e865742	0.26238447
20	0xbe66c2ce	-0.2253525
21	0x3e2a35bb	0.16622059
22	0xbd04d3a9	-0.032428417
23	0xbe8385fa	-0.25688154
24	0x3e907822	0.28216654
25	0x3e3be09e	0.18347403
26	0xbdc43dcb	-0.095820986
27	0xbe9ddca0	-0.30832386
28	0x3e81d02b	0.25354132
29	0xbeb3a9ac	-0.35090387
30	0xbe4ce9f4	-0.20011121
31	0xbdedf1d8	-0.11618394
32	0x3e8c6b4f	0.2742562
33	0xbe3add60	-0.1824851
34	0x3e52d9d3	0.20590906
35	0xbde08a25	-0.10963849
36	0xbdede4b3	-0.116158865
37	0xbe875f56	-0.26439923
38	0xbea6223f	-0.32448003
39	0xbe5c90d4	-0.21539623
40	0xbe83c11c	-0.25733268
41	0x3d88c481	0.06678105
42	0x3e4e03a3	0.20118575
43	0x3d0bfc70	0.03417629
44	0x3e89aa36	0.26887673
45	0x3c99baa5	0.018765757
46	0xbe7953cf	-0.24348377
47	0x3ea6bc19	0.32565382
48	0x3e433632	0.19063643
49	0xbc19a60d	-0.0093779685
50	0x3e9365e7	0.28788683
51	0x3dee937c	0.11649224
52	0x3e6ecd3a	0.23320475
53	0xbe0fcac3	-0.14042191
54	0x3d9d0820	0.07667565
55	0xbe88dafb	-0.2672957
56	0xbd8e763f	-0.069561474
57	0x3e42ee40	0.19036198
58	0x3e81c426	0.25344962
59	0xbdd3a515	-0.10334221
60	0x3e59900d	0.21246357
61	0xbdf37d46	-0.118891284
62	0xbe033eaa	-0.12816873
63	0xbdc00095	-0.09375111
64	0xbe47f595	-0.19527276
65	0x3e7dd37d	0.24787708
66	0xbe4ba2a4	-0.19886261
67	0x3ea7ef86	0.3279993
68	0xbe6faa5f	-0.23404835
69	0x3e3061d7	0.17224823
70	0x3d2e4dd7	0.042554703
71	0x3e9e6cf1	0.3094249
72	0x3e0ca271	0.13733841
73	0x3e9ed9ec	0.31025636
74	0xbe55b814	-0.20871001
75	0xbe002a81	-0.12516214
76	0x3e8c8733	0.274469
77	0xbdbaf3fe	-0.09128569
78	0xbe0d5239	-0.13800897
79	0xbe82221d	-0.2541665
80	0x3e0f5e66	0.14000854
81	0xbe6414bf	-0.22273539
82	0x3cacbe75	0.02108691
83	0x3cdbd68a	0.026835699
84	0x3eb0b169	0.34510353
85	0xbe467ee7	-0.19384347
86	0xbd96fdc0	-0.07372618
87	0x3e33610d	0.1751749
88	0x3ded823c	0.11597106
89	0x3e0de4f3	0.13856868
90	0xbe8c867b	-0.2744635
91	0xbe3d3aae	-0.18479416
92	0xbe36757c	-0.17818254
93	0xbe95ce98	-0.2925918
94	0xbd4555f6	-0.048177682
95	0xbe39421d	-0.18091626
96	0x3e3436bd	0.17599006
97	0x3e0f325c	0.13984054
98	0x3cf4abb2	0.029867027
99	0xbd819f6a	-0.06329234
100	0x3eb1e5ff	0.34745786
101	0xbe1f6e26	-0.15569362
102	0xbd99a23b	-0.07501646
103	0x3e7e5b71	0.2483957
104	0x3b6285d3	0.0034564629
105	0xbd996c4a	-0.074913576
106	0xbdc39aa1	-0.095509775
107	0x3d170bf5	0.036876637
108	0x3e08a520	0.1334424
109	0xbe8225d2	-0.2541948
110	0x3eabbcf6	0.33542603
111	0x3d265ec4	0.04061772
112	0x3ea413a2	0.3204623
113	0xbe807411	-0.25088552
114	0x3eb0faf4	0.34566462
115	0xbea4cee9	-0.3218911
116	0xbe8b1b1a	-0.27169114
117	0xbea3c165	-0.31983486
118	0x3da420e1	0.08014084
119	0xbea0a394	-0.313748
120	0xbd00df2c	-0.031462833
121	0xbe9dddbd	-0.30833235
122	0x3d438044	0.047729746
123	0x3e045437	0.1292275
124	0xbe5a2370	-0.21302581
125	0x3e961a16	0.29316777
126	0xbd3428f3	-0.043984365
127	0x3db6fe9e	0.08935283
128	0xbe12caea	-0.14335218
129	0xbe843e58	-0.25828815
130	0xbe3658ea	-0.17807356
131	0x3ea436ef	0.3207316
132	0x3d1b756d	0.037953783
133	0xbcea2352	-0.028581295
134	0x3e937030	0.2879653
135	0xbe0ebbf1	-0.13938881
136	0xbea73deb	-0.32664427
137	0x3de9939a	0.11405106
138	0x3ddf36ab	0.10899099
139	0xbdfa4f8a	-0.12222202
140	0xb8bb34de	-8.926702e-05
141	0x3e6dde58	0.23229349
142	0xbe3065f6	-0.17226395
143	0x3d7a6d37	0.06113931
144	0x3e4bf658	0.19918191
145	0x3e868d2a	0.26279575
146	0x3e8623db	0.2619923
147	0x3e91950a	0.2843402
148	0x3d9368f1	0.0719775
149	0xbe8e3f02	-0.27782446
150	0x3db8f674	0.09031382
151	0xbca78250	-0.02044788
152	0xbd57f382	-0.05272246
153	0x3d315978	0.043298215
154	0xbeaf885a	-0.34283715
155	0xbe901fe2	-0.28149325
156	0x3dd108c2	0.102067485
157	0x3d957855	0.07298342
158	0x3e0f6743	0.14004235
159	0x3e348140	0.1762743
160	0x3e89fafc	0.26949298
161	0xbe90ba9e	-0.28267378
162	0x3e8de370	0.27712584
163	0x3e7fea81	0.249918
164	0xbe3dd1ba	-0.18537036
165	0x3e1c79f1	0.15280892
166	0x3b5ffed3	0.0034178987
167	0xbe08d291	-0.13361575
168	0x3d932ca9	0.071862526
169	0xbdbb99cf	-0.09160196
170	0xbe4e9bbe	-0.20176598
171	0xbe908c03	-0.2823182
172	0x3dbeb81c	0.0931246
173	0x3e69e836	0.22842488
174	0x3e39462b	0.18093173
175	0xbd9bae38	-0.07601589
176	0xbe164274	-0.14673787
177	0xbdd92f24	-0.106046945
178	0xbe20d731	-0.15707089
179	0x3e922d0f	0.28550002
180	0x3c7c1373	0.015385496
181	0x3e64bca1	0.22337581
182	0x3e09afe1	0.13445999
183	0xbe5422cb	-0.20716397
184	0xbb83bedf	-0.0040205563
185	0x3e2cc382	0.16871455
186	0xbe788d03	-0.24272542
187	0xbe6f586a	-0.23373571
188	0xbe7ae4dc	-0.24501365
189	0x3e854d8c	0.26035726
190	0x3e6287dc	0.22122139
191	0x3e1dbbf3	0.15403728
192	0xbeb28433	-0.34866485
193	0xbe8b3c78	-0.27194571
194	0x3de60ed6	0.112332985
195	0xbe8b7c08	-0.27243066
196	0xbddfbee6	-0.10925083
197	0xbe802b09	-0.25032833
198	0xbe73cff6	-0.238098
199	0x3e5fb8da	0.21847859
200	0x3cc62ed3	0.02419225
201	0xbe5305bb	-0.20607655
202	0xbdba208b	-0.09088238
203	0xbd586fc8	-0.052840978
204	0x3e142b19	0.14469565
205	0xbdb68e2b	-0.08913835
206	0xbe9084ff	-0.28226468
207	0x3ea044a3	0.31302366
208	0x3cd6836a	0.02618571
209	0x3d10799e	0.035272233
210	0xbddadfdf	-0.10687231
211	0x3e3e49fa	0.18582907
212	0x3e22cb3a	0.15897837
213	0xbea4ee7d	-0.32213202
214	0x3e795efb	0.24352638
215	0xbd0332f4	-0.032031015
216	0x3e1d0eeb	0.15337722
217	0xbdbdf09e	-0.0927441
218	0x3e8e3919	0.27777937
219	0xbe3de994	-0.18546134
220	0xbe810d4d	-0.2520546
221	0x3e9df73b	0.30852684
222	0xbdb0fbef	-0.086418025
223	0xbe4e79d8	-0.20163667
224	0x3d718965	0.05896892
225	0xbe359aa0	-0.17734766
226	0xbe367089	-0.17816366
227	0x3e82ca81	0.25545123
228	0xbea0979b	-0.31365666
229	0x3d0a043a	0.033695437
230	0x3e9e5702	0.30925757
231	0x3e3590cd	0.17731018
232	0x3e8d1c9b	0.27560887
233	0xbe0b0e71	-0.13579728
234	0x3e9e1c65	0.30881038
235	0x3cc4701c	0.02397924
236	0x3cd30d96	0.025763314
237	0xbd054598	-0.032537073
238	0xbd9b08c1	-0.07570029
239	0xbeb24061	-0.34814742
240	0xbe89be1e	-0.2690286
241	0x3e54f7d2	0.20797661
242	0xbe280ddb	-0.16411535
243	0x3e1c923d	0.1529016
244	0x3ead2846	0.3381979
245	0xbe8619aa	-0.26191455
246	0xbe00aea3	-0.12566619
247	0x3dd80e0c	0.10549554
248	0x3b0b03fa	0.0021212087
249	0xbde11bf7	-0.10991662
250	0x3e4ebae0	0.20188475
251	0x3e3dbdba	0.18529406
252	0x3dac1f61	0.084044226
253	0x3e2a6c22	0.16642812
254	0x3e725c03	0.23667912
255	0x3dc48cfd	0.09597204

network_arch.0.bias f4 [64]
0	0x3e299e99	0.16564406
1	0xbe38edd1	-0.1805947
2	0xbca03366	-0.019555759
3	0x3e899764	0.26873314
4	0xbe4b1e36	-0.19835743
5	0x3e826ef1	0.25475267
6	0x3e0a0adb	0.13480704
7	0x3dac3deb	0.084102474
8	0xbe924bf3	-0.2857357
9	0x3c4a6e16	0.012355348
10	0xbe014fc4	-0.12628084
11	0x3e9387e3	0.2881461
12	0xbe949687	-0.29021093
13	0x3e18dc87	0.14927875
14	0x3e90d812	0.2828985
15	0xbdaea7aa	-0.08528073
16	0x3e890380	0.26760483
17	0x3e84f18c	0.25965536
18	0x3e82b8f7	0.25531742
19	0xbe5a5b5a	-0.2132391
20	0xbe3a1787	-0.18173037
21	0xbe74e58b	-0.23915689
22	0x3e93ab2c	0.2884153
23	0xbea15dc3	-0.31516847
24	0x3cb8b041	0.022544982
25	0x3e1ab9f7	0.15110002
26	0x3e07f9af	0.1327884
27	0x3e8c9826	0.2745983
28	0xbbb34cc6	-0.0054717986
29	0x3d234ab2	0.039866157
30	0x3ddbf076	0.10739224
31	0x3e87aef1	0.26500657
32	0xbda9215d	-0.08258317
33	0xbea3444b	-0.3188804
34	0xbe4f2d5f	-0.20232151
35	0xbe7f6778	-0.24941814
36	0xbea2e116	-0.31812352
37	0xbe7eebef	-0.24894689
38	0x3e92186a	0.2853425
39	0x3e88b6f8	0.26702094
40	0x3e5ac136	0.21362767
41	0xbd191eaf	-0.037382778
42	0xbe315573	-0.17317753
43	0x3e8f2388	0.27956796
44	0xbdbf9438	-0.09354442
45	0x3e2a6d81	0.16643335
46	0x3e8c2ad1	0.27376416
47	0xbeb12118	-0.3459556
48	0x3e33012e	0.17480919
49	0xbe845c19	-0.25851515
50	0x3e8d5e5e	0.2761106
51	0x3d81a5de	0.06330465
52	0xbeb3ecfd	-0.35141745
53	0x3d821cc0	0.0635314
54	0xbce44f6a	-0.027869899
55	0xbe9164fc	-0.28397357
56	0x3e12550f	0.1429026
57	0xbe8be7da	-0.27325326
58	0xbea69730	-0.32537222
59	0x3d9c6e54	0.07638231
60	0x3dce7d5c	0.10082504
61	0xbe92aef7	-0.28649113
62	0x3e8e68c9	0.2781432
63	0x3d99e578	0.07514471

network_arch.2.weight f4 [4, 64]
0	0xbcc96a30	-0.024586767
1	0x3d622644	0.055212274
2	0xbda6bc4c	-0.081413835
3	0xbd2ddedc	-0.042448863
4	0x3d2fab78	0.042888135
5	0xbd89d4c4	-0.06730035
6	0xbd04deac	-0.03243892
7	0x3dab118c	0.08352956
8	0x3dae7bda	0.085197166
9	0xbd9a1530	-0.075235724
10	0xbda1b74e	-0.07896291
11	0x3dc9d256	0.098545715
12	0xbc430bc0	-0.011904657
13	0xbcb1afb8	-0.021690235
14	0xbdf56e0a	-0.11983879
15	0xbcbed270	-0.023293704
16	0xbd6e937c	-0.05824612
17	0x3d741d64	0.05959834
18	0xbd95fa70	-0.07323158
19	0xbd796118	-0.06088361
20	0xbd3239b8	-0.043512076
21	0xbc11ffc0	-0.008911073
22	0x3cf69dd0	0.030104548
23	0xbd2729d0	-0.04081136
24	0xbd5b612c	-0.053559467
25	0x3dc53ade	0.09630369
26	0x3dd48b52	0.10378136
27	0x3da56860	0.080765486
28	0x3df0f4a4	0.117654115
29	0xbc4d1eb0	-0.0125195235
30	0x3d9f13ec	0.07767472
31	0xbda833ec	-0.08213028
32	0x3d04d1dc	0.0324267
33	0xbdd661ee	-0.10467897
34	0x3cce52f0	0.025186032
35	0x3c8c1600	0.017100334
36	0xbd92fe50	-0.071774125
37	0x3de3efb8	0.11129707
38	0xbc1e9940	-0.009680092
39	0x3df5fd9c	0.12011263
40	0xbd5db430	-0.05412692
41	0x3dee77c6	0.11643939
42	0xbcd1bd48	-0.025602952
43	0xbd313184	-0.043260112
44	0xbd23cf0c	-0.039992377
45	0xbd9aa768	-0.075514615
46	0xbd7daac8	-0.061930448
47	0x3d18ceb0	0.037306488
48	0x3dc988e2	0.098405614
49	0x3dec7654	0.11546007
50	0xbd41af78	-0.04728648
51	0x3ddf241c	0.10895559
52	0xbdefe14a	-0.11712892
53	0xbdc349f6	-0.09535591
54	0xbd4a45bc	-0.04938291
55	0xbdddae2c	-0.10824236
56	0x3dbaecdc	0.091272086
57	0x3df6e18c	0.120547384
58	0xbd9ec942	-0.07753231
59	0x3d3fda14	0.046838835
60	0xbc381350	-0.011235073
61	0xbdc51970	-0.096239924
62	0xbd73ea80	-0.05954981
63	0xbdcb56ca	-0.09928663
64	0x3d7598a4	0.059960023
65	0xbdee25fc	-0.11628339
66	0xbcd9e100	-0.026596546
67	0xbd910f56	-0.07083003
68	0xbd45c8ac	-0.04828708
69	0xbd9bf1c2	-0.07614471
70	0x3dd3a820	0.10334802
71	0xbdbd0384	-0.09229186
72	0xbddd03a8	-0.10791713
73	0x3db6bfde	0.089233145
74	0x3d80a96c	0.06282315
75	0xbd99d20a	-0.07510765
76	0x3d41b90c	0.047295615
77	0x3da6560a	0.081218794
78	0x3d9569d4	0.07295576
79	0xbdd6102e	-0.10452305
80	0x3dc518b0	0.096238494
81	0x3ba9e460	0.005184695
82	0x3dffb3f6	0.12485497
83	0xbcb26020	-0.021774352
84	0xbc6b8ff0	-0.014377579
85	0x3d0d7dd0	0.034543812
86	0x3df1807e	0.11792086
87	0x3d91c68c	0.07117948
88	0x3d99d1b0	0.07510698
89	0x3d858a84	0.065205604
90	0xbde9dd48	-0.11419159
91	0xbd007444	-0.03136088
92	0xbdcff56a	-0.10154231
93	0xbd2e9308	-0.04262069
94	0x3d314828	0.043281704
95	0x3dac46bc	0.08411929
96	0x3dee3086	0.11630349
97	0x3d9fc206	0.07800679
98	0xbd3d1dd0	-0.04617101
99	0xbdb6b57a	-0.08921333
100	0x3dd33f56	0.10314815
101	0x3d568270	0.05237049
102	0x3d80f916	0.06297509
103	0x3dbd9090	0.09256089
104	0xbb88c0e0	-0.004173383
105	0x3d91d740	0.07121134
106	0xbdba90f8	-0.09109682
107	0x3da153d0	0.07877314
108	0x3d398464	0.045292273
109	0xbdd241b6	-0.102664396
110	0x3cb69350	0.022287041
111	0x3c269830	0.01016812
112	0x3c0f9830	0.008764312
113	0xbdf44e3c	-0.119289845
114	0x3dcabe8e	0.09899627
115	0x3d9a3a04	0.07530597
116	0xbda5fb34	-0.08104554
117	0x3bbf1c40	0.005832225
118	0xbb91bbc0	-0.0044474304
119	0x3d92e492	0.071725026
120	0xbd6e8b8c	-0.05823855
121	0x3c1de630	0.0096374005
122	0x3db26014	0.08709732
123	0xbd8631ec	-0.065524906
124	0xbcf29470	-0.029611796
125	0x3ca8e628	0.02061756
126	0xbdb0cc2e	-0.08632694
127	0xbdb15d14	-0.08660331
128	0xbdcf527c	-0.101231545
129	0x3d93ee5a	0.07223196
130	0x3d9a3ee0	0.07531524
131	0xbb3dcf00	-0.0028962493
132	0xbce19728	-0.027537897
133	0x3da5075a	0.08058043
134	0xbde29b18	-0.11064738
135	0x3d598020	0.053100705
136	0xbd3b22d4	-0.04568751
137	0xbd1b7248	-0.037950784
138	0x3ddd5f22	0.10809161
139	0xbdae04a2	-0.084969774
140	0xbdfcefc6	-0.12350421
141	0xbdb5b4fc	-0.08872411
142	0x3c857308	0.016290203
143	0xbd2f8738	-0.042853564
144	0xbde29f00	-0.11065483
145	0x3ba652c0	0.0050757825
146	0xbddb22d0	-0.10699999
147	0xbdeb500a	-0.114898756
148	0x3cca9d88	0.02473332
149	0xbde59b26	-0.11211233
150	0x3d1ec738	0.03876421
151	0xbd330820	-0.04370892
152	0x3d20fc84	0.039303318
153	0xba285600	-0.00064215064
154	0xbc672430	-0.014107749
155	0xbda8b334	-0.08237305
156	0xbdefc1d4	-0.11706892
157	0x3c7dae00	0.015483379
158	0x3d774ed0	0.060377896
159	0xbde4f22c	-0.11179003
160	0xbd479b24	-0.048731938
161	0x3dd0c8a4	0.10194519
162	0xbdbf6bfe	-0.0934677
163	0x3c941a30	0.018078893
164	0x3db66bb2	0.0890726
165	0x3d1b9da4	0.037992135
166	0x3ca55fc0	0.020187259
167	0xbd417d98	-0.047238916
168	0xbd4f9368	-0.050677687
169	0x3d6966ac	0.05698268
170	0xbdd07042	-0.101776615
171	0xbdc4f8a0	-0.09617734
172	0x3d259310	0.040423453
173	0xbdd9bc2c	-0.10631594
174	0xbdf2f50c	-0.11863145
175	0x3daa72de	0.083226904
176	0x3cd34988	0.025791898
177	0x3d877536	0.06614153
178	0xbd850be4	-0.064964086
179	0xbc3f69c0	-0.011682928
180	0xbce04f08	-0.027381435
181	0xbd4acefc	-0.049513802
182	0xbde2f3c0	-0.11081648
183	0xbd694af4	-0.056956246
184	0xbdbc6752	-0.09199394
185	0x3de9115a	0.11380263
186	0xba558300	-0.00081448257
187	0x3c332580	0.010934234
188	0xbdbee45e	-0.09320901
189	0xbdddc3c8	-0.10828358
190	0xbd2c6990	-0.04209286
191	0x3c97d188	0.01853253
192	0x3ca7ceb0	0.020484298
193	0xbd34fcc8	-0.044186383
194	0x3cf4c520	0.029879153
195	0x3bc40c40	0.0059829056
196	0xbde30f16	-0.11086862
197	0x3da3ee04	0.08004382
198	0x3c0dd1d0	0.00865598
199	0x3d930946	0.07179503
200	0xbc554a90	-0.013018265
201	0x3d4a8be8	0.04944983
202	0xbda472b8	-0.08029693
203	0xbd592940	-0.053017855
204	0x3c4d5d10	0.012534395
205	0xbda4013c	-0.08008048
206	0x3d80bd96	0.06286161
207	0xbd774c8c	-0.060375735
208	0x3b86ab20	0.004109755
209	0x3d5115cc	0.051046178
210	0x3b3bd980	0.0028663576
211	0x3c3456f0	0.011007056
212	0x3d61ad14	0.0550967
213	0x3d848a9e	0.06471752
214	0x3db40fac	0.08792052
215	0x3dc109e0	0.09425712
216	0x3df57476	0.11985104
217	0xbdd788ce	-0.1052414
218	0x3cdfc490	0.027315408
219	0x3ce14ac0	0.027501464
220	0x3c2f4250	0.0106969625
221	0x3db5bfc4	0.08874467
222	0x3c94a4b0	0.018144935
223	0xbda9a1a8	-0.082827866
224	0x3d12a478	0.03580138
225	0xbd939978	-0.07207006
226	0xbddfcae4	-0.1092737
227	0x3ce73138	0.028221712
228	0x3da6c994	0.08143917
229	0xbd8b983e	-0.06816147
230	0xbd8ddda4	-0.0692704
231	0xbdf9a486	-0.121895835
232	0x3d657a10	0.05602461
233	0x3d804642	0.062634006
234	0xbd6c091c	-0.057625875
235	0xbdd66468	-0.1046837
236	0xbde5cafe	-0.11220358
237	0xbca05ec8	-0.019576445
238	0xbdf4ed60	-0.11959338
239	0xbcb0f2f8	-0.021600232
240	0x3d817cdc	0.06322643
241	0x3c9ea8e0	0.019367635
242	0xbdda85be	-0.106700405
243	0xbdd3d970	-0.10344207
244	0xbdf38014	-0.11889663
245	0x3dd70a14	0.10499969
246	0xbdbf28cc	-0.09333953
247	0x3cdfd578	0.02732347
248	0xbdac656a	-0.08417781
249	0xbd0844f0	-0.03326887
250	0x3d013e40	0.031553507
251	0xbbfb20c0	-0.007663816
252	0x3d3c1aa4	0.045923844
253	0x3d44ae0c	0.048017547
254	0xbdd5a7a2	-0.10432364
255	0x3dce582a	0.1007541

network_arch.2.bias f4 [4]
0	0xbd7b09f0	-0.061288774
1	0xbca61f28	-0.020278528
2	0xbdb9ede2	-0.09078576
3	0xbb467f80	-0.0030288398

layer1.weight f4 [32, 8]
0	0xbe6515cf	-0.223716
1	0x3d95eff1	0.07321156
2	0xbe5274ff	-0.20552443
3	0x3ed73a6f	0.4203677
4	0xbe4103a1	-0.1884904
5	0xbf320435	-0.6953767
6	0x3e8f28bf	0.27960774
7	0x3f4d5fff	0.80224603
8	0xbecba1b2	-0.397718
9	0xbe7f4a26	-0.24930629
10	0x3d18dd3f	0.03732037
11	0x3edbf18d	0.42957726
12	0x3be59b71	0.0070070555
13	0x3dc6cda2	0.0970719
14	0xbe636a6e	-0.22208568
15	0xbf034709	-0.51280266
16	0xbe203a02	-0.15647128
17	0xbfab5c62	-1.3387568
18	0x3e1f8b70	0.15580535
19	0x3cc8b1d7	0.024498863
20	0xbeb0c672	-0.34526402
21	0xbef9bed6	-0.4877841
22	0x3d5b7f25	0.05358805
23	0x3f2e45b9	0.6807514
24	0xbd0bfeb6	-0.03417846
25	0xbdb7fe3e	-0.0898404
26	0xbd96ddbb	-0.073665105
27	0x3db31b59	0.087454505
28	0x3d5776e7	0.05260363
29	0xbd084832	-0.033271976
30	0xbe367c20	-0.17820787
31	0xbc40a095	-0.011757036
32	0xbd9899f2	-0.07451238
33	0x3f0c6325	0.5483878
34	0xbe8c5fb4	-0.27416766
35	0xbf30489f	-0.6886081
36	0x3ef8b398	0.4857452
37	0x3fbe4348	1.4864283
38	0xbfcb4dcb	-1.5883116
39	0xbe1a38cb	-0.15060727
40	0xbe27ee7d	-0.1639957
41	0xbe1af82d	-0.15133734
42	0x3e05a59b	0.13051455
43	0x3e8f83d2	0.28030258
44	0xbc041b07	-0.008063084
45	0x3d759d6e	0.05996459
46	0xbe15c38b	-0.14625375
47	0xbe9b28b7	-0.303045
48	0x3ebc4eb6	0.36778802
49	0xbd01dd64	-0.031705275
50	0x3e8ad3de	0.27114767
51	0x40018e5b	2.0243137
52	0x3f685f58	0.90770483
53	0xbe5a6216	-0.2132648
54	0x3e4da294	0.2008155
55	0x3f147cde	0.5800303
56	0x3e8ff974	0.28120005
57	0xbf947091	-1.1596853
58	0xbccec20f	-0.025239019
59	0x3e865935	0.26239935
60	0x3eb75180	0.35804367
61	0xbe1c932b	-0.15290515
62	0x3e0435b5	0.12911113
63	0xbe6cc458	-0.23121774
64	0xbea757d7	-0.32684204
65	0xbe126de3	-0.14299731
66	0x3e055a77	0.13022791
67	0x3ea14ed5	0.31505457
68	0x3d483eb2	0.048887916
69	0xbe67919f	-0.22614144
70	0xbe8b1246	-0.2716238
71	0xbdfcf2c3	-0.123509906
72	0x3e88c61d	0.26713648
73	0xbfd11d88	-1.6337137
74	0xbd04f619	-0.03246126
75	0x3fe31357	1.7740277
76	0xbe03dbea	-0.1287686
77	0x3e75e5a1	0.24013378
78	0x3f344e58	0.70432043
79	0xbeba5d0d	-0.36399117
80	0x3dbc0db6	0.09182303
81	0xbfd9f0a1	-1.7026559
82	0xbea78552	-0.32718903
83	0x3f239091	0.63892466
84	0x3ecad82e	0.39618057
85	0x3dee2e34	0.11629906
86	0xbfa6e4a2	-1.3038523
87	0x3edb05a4	0.4277774
88	0xbfb23e03	-1.3925174
89	0xbe6c0812	-0.23049954
90	0xbf518178	-0.8183818
91	0x3e6f1cdf	0.23350857
92	0x3e50acaa	0.20378366
93	0xbd5c1654	-0.05373223
94	0x3d7db7ce	0.061942868
95	0xbf2e898e	-0.6817864
96	0xbeb6d3df	-0.3570852
97	0x3e7b7e1b	0.24559824
98	0xbdcb41a5	-0.0992463
99	0x3e8a271b	0.2698296
100	0xbef7845b	-0.48343167
101	0xbf52e29a	-0.82377017
102	0xbecc8330	-0.39943838
103	0x3f800a3f	1.0003127
104	0x3d44747a	0.047962643
105	0xbf616c4e	-0.88055885
106	0x3e2514bc	0.16121191
107	0xbd99f353	-0.075171135
108	0xbd855c38	-0.0651173
109	0x3d97b749	0.07408006
110	0x3d1bd0f1	0.03804106
111	0xbe14029b	-0.14454119
112	0xbf0b2cf3	-0.5436546
113	0xbe4ab235	-0.19794543
114	0xbe666a24	-0.22501427
115	0x3f850426	1.0391891
116	0x3e71dc5f	0.23619221
117	0xbe8f7888	-0.28021646
118	0xbf0b926f	-0.54520315
119	0x3e085e6c	0.13317269
120	0xbf5356ea	-0.82554495
121	0xbf1cf5ba	-0.6131245
122	0xbf058ee9	-0.5217119
123	0xbe1b6f2a	-0.15179124
124	0x3e957985	0.29194275
125	0xbdb720e5	-0.08941821
126	0xbf2d4d15	-0.6769574
127	0xbf171aff	-0.5902557
128	0x3c32185d	0.0108700665
129	0x3e33af52	0.17547348
130	0xbed072a5	-0.40712467
131	0x3f31d329	0.6946283
132	0xbfa217df	-1.2663535
133	0x3f36716b	0.7126681
134	0xbe5e6a94	-0.21720344
135	0xbf363862	-0.71179783
136	0xb89f06f2	-7.5830045e-05
137	0xbeb5f0a2	-0.3553515
138	0xbe66140e	-0.22468588
139	0xbd2e62f9	-0.042574856
140	0x3eafbbe6	0.34323043
141	0x3f9f2375	1.2432696
142	0x3f27b4be	0.65510166
143	0x3d91eb76	0.07124989
144	0xbe4868de	-0.19571254
145	0x3d0232c4	0.031786695
146	0xbf3ae7a9	-0.73009735
147	0x3ed97016	0.42468327
148	0x3f86cf8f	1.0532092
149	0x3f5a1678	0.85190535
150	0xbe3a0aec	-0.18168229
151	0x3eee62dc	0.465598
152	0xbeb6bef4	-0.3569256
153	0xbec299ab	-0.38007864
154	0xbdeeeb75	-0.116660036
155	0x3f5eaff2	0.8698722
156	0x3dcc7dcc	0.09984931
157	0x3da1e92e	0.079058036
158	0xbc331d0e	-0.01093222
159	0xbdff8e30	-0.12478292
160	0xbd8e60f9	-0.0695209
161	0xbf0aefef	-0.5427236
162	0xbcb1c2c8	-0.021699324
163	0x3d982317	0.07428568
164	0xbb1c429f	-0.002384342
165	0xbd53bd11	-0.05169398
166	0xbec79bfd	-0.38986197
167	0x3dff4cd4	0.12465826
168	0x3fbc99d2	1.4734442
169	0xbf1d4521	-0.6143361
170	0x3f0d33ad	0.55156976
171	0xbe422ea7	-0.18963109
172	0xbe805e48	-0.2507193
173	0xbe7515f3	-0.23934154
174	0x3e476890	0.19473481
175	0x3ddfb26e	0.10922705
176	0x3ea9df3c	0.33178127
177	0x3d1e81a3	0.03869785
178	0xbf31e634	-0.6949189
179	0x3fc0927a	1.5044701
180	0x3f0fd3b3	0.561824
181	0x3d6c7180	0.05772543
182	0xbdf7d79e	-0.121016726
183	0x3e007266	0.1254364
184	0x3eb282b6	0.3486535
185	0x3e9ed77d	0.3102378
186	0x3f097e4b	0.5370833
187	0x3fa2f846	1.2732017
188	0xbf115e1b	-0.5678422
189	0xbe71ceb5	-0.23614009
190	0x3e008474	0.12550527
191	0x3d25d9cf	0.04049092
192	0xbedea157	-0.43482468
193	0x3b2cf425	0.0026390639
194	0xbefc6b7c	-0.49300754
195	0xbdc2d2c4	-0.095128566
196	0x3eea3a58	0.45747638
197	0x3f2ba4c4	0.6704829
198	0xbf3cb09b	-0.7370698
199	0xbe933211	-0.28749135
200	0x3dd201e1	0.102542646
201	0xbfd16c16	-1.636111
202	0xbe0e1fd7	-0.13879333
203	0xbf9c0c9b	-1.2191347
204	0x3f2a1dd0	0.6645174
205	0x3e5e7142	0.21722892
206	0x3f08fad7	0.5350775
207	0x3f1e5754	0.61852
208	0xbe612117	-0.21985279
209	0xbe42fab4	-0.19040948
210	0x3e176f98	0.14788663
211	0xbd9c4465	-0.07630233
212	0x3d278621	0.0408994
213	0x3b2543f0	0.0025217496
214	0x3d8998c4	0.06718591
215	0xbd926390	-0.07147896
216	0xbdbebcdf	-0.09313368
217	0xbddf10b7	-0.1089186
218	0x3d897fe9	0.0671385
219	0x3e19ec91	0.15031649
220	0x3cdd3b3c	0.027005784
221	0xbce5eed8	-0.028067991
222	0xbdd2093a	-0.10255666
223	0x3d0eec0e	0.034893088
224	0xbe700be2	-0.23442033
225	0xc0128190	-2.2891579
226	0x3d2b3ecf	0.041807946
227	0xbf371071	-0.7150946
228	0xbd947c7b	-0.07250305
229	0xbdce9fed	-0.10089097
230	0x3e4743c2	0.19459441
231	0x3eb6754c	0.35636365
232	0x3f46f627	0.7771935
233	0xbe040788	-0.12893498
234	0x3f2ddd41	0.6791573
235	0x3e83d2e5	0.25746837
236	0x3ed5705f	0.41687295
237	0x3f29a5ae	0.6626843
238	0xbea80e4f	-0.32823417
239	0xbf06c4cf	-0.52644056
240	0x3ed233e7	0.41055223
241	0x3e1338d5	0.14377148
242	0xbe8bc802	-0.2730103
243	0xbf4e3388	-0.8054738
244	0x3ee8faf1	0.45503953
245	0xbf942188	-1.1572733
246	0xbf1a1c8b	-0.60199803
247	0x3deff54f	0.11716711
248	0xba342d2e	-0.00068731874
249	0xbfa2f05c	-1.2729602
250	0x3e74448a	0.2385427
251	0x3ec66d8a	0.38755447
252	0x3e8e0a7b	0.2774237
253	0xbce687c5	-0.028140912
254	0x3e4ba7a6	0.19888172
255	0xbe99adb5	-0.3001534

layer1.bias f4 [32]
0	0xbd9e31e3	-0.07724359
1	0xbf003725	-0.50084144
2	0xbe9aaf89	-0.30212048
3	0xbe979067	-0.29602358
4	0xbd2cf8ff	-0.04222965
5	0xbeadef7e	-0.3397178
6	0x3df29990	0.11845696
7	0xbf2fc94d	-0.68666536
8	0xbf3cddb0	-0.7377577
9	0x3ee51d66	0.44748992
10	0x3e452df7	0.19255815
11	0xbf11029b	-0.566446
12	0xbd925414	-0.07144943
13	0xbf182724	-0.59434724
14	0xbf147d5b	-0.5800378
15	0xbf0611e6	-0.5237106
16	0xbe2c9762	-0.16854623
17	0xbe306dcd	-0.17229386
18	0x3e1bd0a8	0.15216315
19	0xbf294ff2	-0.6613761
20	0xbef6e665	-0.48222652
21	0xbec637a7	-0.38714334
22	0x3f4b781b	0.7948014
23	0x3d4d5771	0.05013222
24	0xbe7f47ce	-0.24929735
25	0x3dcc9708	0.099897444
26	0xbee5d416	-0.4488837
27	0xbe67d144	-0.22638422
28	0xbdd9d734	-0.1063675
29	0xbe01ead3	-0.12687235
30	0x3e3c3a07	0.1838151
31	0xbf3644f0	-0.7119894

layer2.weight f4 [64, 32]
0	0x3cb17954	0.0216643
1	0x3bfba80d	0.0076799453
2	0xbcfa0483	-0.03051973
3	0xbcaa4209	-0.020783441
4	0xbc525887	-0.012838489
5	0xbd4c7cf8	-0.049923867
6	0x39614d9c	0.00021486584
7	0xbd02dc55	-0.031948406
8	0xbca12012	-0.019668613
9	0xbd5e6e9f	-0.054304715
10	0xbc7aef7c	-0.015315887
11	0xbcf1c01b	-0.029510548
12	0xbd01bdda	-0.031675197
13	0xbc6cb4a0	-0.014447361
14	0x3bfd0422	0.00772144
15	0x3cc4a3f8	0.024003968
16	0xbd62bdf9	-0.055356953
17	0xbd9656dc	-0.07340786
18	0x3bbe7bec	0.0058131125
19	0x3d11c06c	0.0355839
20	0xbd17c06b	-0.03704874
21	0xbcb3af99	-0.021934317
22	0xbd429752	-0.04750759
23	0xbd124e5e	-0.035719268
24	0xbcf243d1	-0.029573353
25	0x3c225e0f	0.009910121
26	0xbd393d98	-0.045224756
27	0x3c0106db	0.00787517
28	0xbd73974b	-0.059470456
29	0xbcecdd5b	-0.028914144
30	0xbc772d83	-0.015086534
31	0x3b946026	0.0045280633
32	0x3e9de05f	0.30835244
33	0xbe8c12b2	-0.27358013
34	0x3dd0afc2	0.10189773
35	0x3de35f00	0.11102104
36	0xbf653b68	-0.8954377
37	0x3c9e8d5a	0.019354511
38	0xbf96b3f6	-1.177367
39	0xbee482a0	-0.4463091
40	0xba89d65a	-0.0010516152
41	0xbfa66d73	-1.3002151
42	0xbe8afd79	-0.2714651
43	0x3d438d9d	0.047742475
44	0x3f03b7e6	0.5145248
45	0xbdf2a3a9	-0.11847622
46	0xbd824307	-0.06360441
47	0x3d786f34	0.060652927
48	0xbef6350d	-0.4808735
49	0xbea5314c	-0.32264173
50	0xbfb5f757	-1.4216107
51	0xbec29851	-0.38006833
52	0xbdf529eb	-0.11970886
53	0x3f4154e1	0.7552014
54	0xbf2e77a3	-0.681513
55	0x3ef5b5bf	0.47990224
56	0xbf4242d4	-0.7588322
57	0x3eab048a	0.334019
58	0x3d9ab1dd	0.07553456
59	0x3e049635	0.12947924
60	0x3db908d0	0.09034884
61	0xbe28650e	-0.164448
62	0x3f0b2c95	0.543649
63	0xbe0de7cb	-0.13857953
64	0xbdd38326	-0.10327749
65	0xbcb0b3e8	-0.021570161
66	0xbc88b43a	-0.016687501
67	0xbbe6c46c	-0.0070424583
68	0xbcfd55cf	-0.030924706
69	0xbc9e09da	-0.019291807
70	0xbc498fac	-0.01230232
71	0xbcc4d863	-0.024028962
72	0xbcb9493b	-0.022617927
73	0x3c25ccef	0.010119661
74	0xbcbb6602	-0.02287579
75	0x3a16a31a	0.000574635
76	0xbce49d2e	-0.02790698
77	0xbd0d7383	-0.03453399
78	0x3c57d8e5	0.01317427
79	0xbd184b22	-0.037181027
80	0x3b59b159	0.003321728
81	0xb947ba6e	-0.0001904757
82	0x3ca6b63e	0.020350572
83	0x3be692b1	0.00703653
84	0xbd84a337	-0.06476443
85	0xbd94b667	-0.07261353
86	0xbd3d3a0f	-0.046197947
87	0xbc088e2f	-0.00833468
88	0x3cc8c07c	0.024505846
89	0xbc742673	-0.014901745
90	0xbc3ca0bd	-0.011512932
91	0x3c801801	0.015636446
92	0xbcf5282f	-0.029926388
93	0xbd52dcd7	-0.05148014
94	0xbd1b9030	-0.037979305
95	0x3d2f8f5c	0.042861328
96	0xbd9a8d23	-0.07546451
97	0xbccbb5fa	-0.024867047
98	0xbe274304	-0.16334158
99	0xbc24a159	-0.010048234
100	0xbddc3e4e	-0.10754071
101	0x3be9c94d	0.0071345926
102	0xbdf6e4be	-0.12055348
103	0xbcd362f4	-0.02580402
104	0xbbc4b6ac	-0.0060032215
105	0xbe662c40	-0.22477818
106	0xbd84491f	-0.06459259
107	0xbdb821a9	-0.08990795
108	0xbde3828f	-0.111088865
109	0x3ce2f1f8	0.02770327
110	0xbd8c228e	-0.06842528
111	0xb9ed0b6a	-0.00045212667
112	0xbed1ca3a	-0.409746
113	0xbdfddf6c	-0.1239613
114	0xbe8fbc42	-0.28073317
115	0xbc560ae2	-0.013064118
116	0xbc233afa	-0.009962792
117	0xbe7335b0	-0.23750949
118	0xbdeaa84a	-0.1145788
119	0xbe9f4f3b	-0.31115136
120	0xbe4174a1	-0.18892147
121	0xbc44425f	-0.011978715
122	0x3d5bcf1e	0.05366432
123	0xbd513a53	-0.051081013
124	0xbcb5b029	-0.022178726
125	0x3c3e3a16	0.011610528
126	0xbb63c8e9	-0.0034757203
127	0x3c88fe23	0.016722744
128	0x3bf32aaf	0.0074208598
129	0x3b43abc1	0.0029857012
130	0xbd6234f2	-0.055226274
131	0x3bf284cd	0.007401085
132	0xbd9cfecf	-0.076657884
133	0x3c8059e1	0.015667858
134	0xbd01baa7	-0.031672146
135	0xbd5b6bac	-0.05356948
136	0xbdcd1b71	-0.10015
137	0xbdc31c29	-0.095268555
138	0xbcd63efc	-0.02615308
139	0xbc92b28e	-0.017907407
140	0xbd020eed	-0.031752516
141	0xbd1158d3	-0.0354851
142	0xbdc1ebfa	-0.09468837
143	0x3b9d75bd	0.0048052953
144	0xbd2b8191	-0.04187161
145	0xbd821097	-0.063508205
146	0xbdbb9123	-0.09158542
147	0xbab2ec80	-0.0013650805
148	0xbd1d1f7d	-0.038360108
149	0xbd172478	-0.036900014
150	0xbd82b26d	-0.06381688
151	0x3ba0bdd4	0.004905442
152	0xbd65b6df	-0.056082603
153	0xbcc0137f	-0.023446796
154	0x3c0fc4ee	0.008774979
155	0xbc13edc7	-0.0090288585
156	0xbd4ed659	-0.050497387
157	0xbdc473fb	-0.09592434
158	0xbd92f4fe	-0.07175635
159	0x3c82ee3d	0.015982741
160	0xbcbabb00	-0.022794247
161	0xbb65e372	-0.0035078195
162	0xbe1b4036	-0.15161213
163	0xbb58a418	-0.0033056792
164	0xbdb7f78f	-0.08982765
165	0xbd9a5f24	-0.07537678
166	0xbd859e5d	-0.06524346
167	0xbdc19fd5	-0.09454314
168	0xbda8fb50	-0.08251059
169	0xbe161c66	-0.1465927
170	0xbdd8f979	-0.10594458
171	0xbddd153e	-0.10795067
172	0xbdc35f7e	-0.09539698
173	0xbdff1866	-0.124558255
174	0xbafa35e4	-0.0019089547
175	0xbcb95340	-0.022622705
176	0xbdbe4cfb	-0.092920266
177	0xbe092c7e	-0.13395879
178	0x3d9c6787	0.07636934
179	0xbda89a89	-0.082326
180	0xbc29f191	-0.010372535
181	0xbdf7b7bb	-0.12095591
182	0xbe1deac3	-0.15421586
183	0x3d698d3a	0.05701945
184	0xbe4a8744	-0.19778162
185	0x3d95d128	0.07315284
186	0xbd232f02	-0.039839752
187	0x3cee9829	0.02912529
188	0xbd242153	-0.040070843
189	0x3d1286f2	0.035773225
190	0xbe53183e	-0.20614716
191	0xbd4a8400	-0.04944229
192	0xbee82e17	-0.45347664
193	0x3d703efa	0.05865381
194	0xbe94c1fc	-0.29054248
195	0x3e111109	0.14166655
196	0x3c962a40	0.018330693
197	0x3b9de3e9	0.004818429
198	0xbe5c3cfc	-0.21507639
199	0x3f859c1e	1.0438268
200	0x3ddc4a57	0.10756367
201	0xbe49506d	-0.19659586
202	0xbe2bf2d7	-0.16791855
203	0xbf28d747	-0.6595349
204	0xbee87a7a	-0.45405942
205	0x3dba064c	0.09083232
206	0xbd95a13b	-0.07306143
207	0xbd34127f	-0.04396295
208	0x3e12c714	0.14333755
209	0xbedd6c06	-0.43246478
210	0x3e4e2dfd	0.2013473
211	0x3e54f5ba	0.20796862
212	0x3e9ba0f6	0.3039624
213	0x3e8f4fa9	0.27990463
214	0xbed64fd2	-0.41857773
215	0xbe815b71	-0.25265077
216	0xbe07b399	-0.13252105
217	0xbdf3b182	-0.11899091
218	0x3e6876c3	0.22701554
219	0x3db6f37b	0.08933159
220	0xbd2e1468	-0.04249993
221	0xbdc03f4a	-0.093870714
222	0xbf04a42c	-0.51813006
223	0x3e716520	0.23573732
224	0x3cc4c8d9	0.024021553
225	0xbb490907	-0.0030675547
226	0xbda61d9d	-0.08111117
227	0x3c805097	0.015663428
228	0xbd2fab26	-0.04288783
229	0xbd1b5cab	-0.037930172
230	0x3bc38135	0.0059663304
231	0xbc49034d	-0.012268853
232	0xbc121321	-0.0089156935
233	0xbd937125	-0.07199315
234	0xbdf5caae	-0.12001549
235	0xbcc5b574	-0.024134375
236	0xbd60f185	-0.05491783
237	0x3b028d5d	0.0019920685
238	0x3c7ff8f8	0.015623324
239	0xb9a6b877	-0.00031799424
240	0xbcab4085	-0.020904789
241	0xbc416941	-0.01180488
242	0x3b93d306	0.00451124
243	0xbd25a405	-0.040439624
244	0xbc0e2d1a	-0.008677745
245	0xbc739fec	-0.014869671
246	0xbd119ad4	-0.035548046
247	0xbd26b700	-0.040701866
248	0xbd3f30c8	-0.04667738
249	0x3cf54690	0.029940873
250	0xbd2e519e	-0.042558305
251	0x3d11e875	0.03562208
252	0xb9cd26c6	-0.00039129535
253	0xbd817eab	-0.06322988
254	0xbd8ce3ac	-0.068793625
255	0xbd996af8	-0.07491106

layer2.bias f4 [64]
0	0xbca7200b	-0.020401021
1	0x3eb6dac7	0.3571379
2	0xbdb484c4	-0.088143855
3	0xbd537d5d	-0.051633228
4	0xbd54599a	-0.051843263
5	0xbdaa3877	-0.08311551
6	0xbedd452b	-0.43216833
7	0xbd997840	-0.07493639
8	0x3f39874e	0.72472084
9	0xbe56c91f	-0.20975159
10	0xbe7f5646	-0.24935254
11	0x3ecd6d98	0.40122676
12	0xbe109fc0	-0.1412344
13	0xbe3a4ace	-0.18192598
14	0xbe33e453	-0.17567568
15	0xbde7746f	-0.11301505
16	0x3f6899b7	0.9085955
17	0xbec499bd	-0.38398543
18	0xbf53ab45	-0.8268321
19	0xbd94eebc	-0.072720975
20	0xbe872065	-0.26391903
21	0xbeb0141f	-0.3439035
22	0xbe576276	-0.21033654
23	0xbe20da21	-0.1570821
24	0xbdffb005	-0.12484745
25	0xbe817c55	-0.2529017
26	0x3f2b338b	0.66875523
27	0xbe5d87b5	-0.216338
28	0xbde87101	-0.11349679
29	0xbd55f3c7	-0.052234437
30	0x3e84606f	0.25854823
31	0xbd419a27	-0.04726615
32	0xbd52bf03	-0.051451694
33	0xbdc4d015	-0.09610001
34	0xbdf572e6	-0.11984806
35	0xbc7cb2bf	-0.015423476
36	0xbed352a5	-0.4127399
37	0xbe2508c3	-0.16116624
38	0xbc90a886	-0.017658483
39	0xbe7a5623	-0.24446921
40	0xbe424309	-0.18970884
41	0xbe4ed632	-0.20198897
42	0xbdb60ef7	-0.08889573
43	0xbe66e237	-0.22547232
44	0xbe49ebec	-0.19718903
45	0xbf039a97	-0.5140776
46	0xbf024486	-0.5088581
47	0x3e3dd7e6	0.1853939
48	0xbe30fde0	-0.17284346
49	0xbdaf7058	-0.0856635
50	0xbd5092d2	-0.05092127
51	0xbdc70b6e	-0.09718977
52	0xbda4e8ca	-0.080522135
53	0xbd87778d	-0.066145994
54	0xbe32869e	-0.17434165
55	0xbf88fd79	-1.0702354
56	0x3e1e208c	0.15442103
57	0xbebb5716	-0.3658988
58	0x3d424d80	0.04743719
59	0xbda12beb	-0.07869705
60	0xbe2f924a	-0.17145649
61	0x3f3e6c6f	0.74384207
62	0xbeacb10e	-0.33728832
63	0xbd5d55d3	-0.054036926

layer3.weight f4 [128, 64]
0	0xbc89aead	-0.016806925
1	0x3f18a603	0.59628314
2	0x3d5b4399	0.053531263
3	0xbc12e8d4	-0.008966643
4	0x3ceaf4cd	0.028681183
5	0x3bf31f37	0.0074194926
6	0x3cec9797	0.028880877
7	0xbc736413	-0.0148554025
8	0xbe077541	-0.13228323
9	0x3e2bcfaf	0.16778444
10	0xbd8e70c9	-0.06955106
11	0x3f17cf04	0.59300256
12	0x3dab190c	0.08354387
13	0x3c76aab3	0.015055346
14	0x3c3d85ac	0.011567514
15	0x3ce72adb	0.028218677
16	0xbddeb7a9	-0.10874874
17	0x3e2b16d6	0.1670793
18	0x3f01360c	0.50473094
19	0x3b9a1ece	0.0047033792
20	0xbe131a3b	-0.14365475
21	0xbe8f680f	-0.28009078
22	0x3d576e89	0.05259565
23	0x3cf4c10c	0.029877208
24	0x3ebe42fb	0.37160477
25	0x3ca663e5	0.020311305
26	0xbee9198e	-0.4552731
27	0xbe2eefc6	-0.17083654
28	0x3c9c7121	0.019096913
29	0x3d18cc74	0.037304357
30	0x3f1e0f94	0.6174252
31	0xbcbb5fa8	-0.02287276
32	0x3c6d493a	0.014482791
33	0xbd75eb8c	-0.060039088
34	0x3bf4e485	0.0074735307
35	0x3e06994d	0.13144417
36	0x3ebaa918	0.36457133
37	0x3de3da6e	0.111256465
38	0xbc094a14	-0.008379478
39	0xbdbf3b34	-0.09337464
40	0x3e44fee1	0.19237854
41	0xbe27d8c1	-0.16391279
42	0x3c73a78b	0.014871488
43	0xbdaa2a05	-0.08308796
44	0x3d821091	0.06350816
45	0x3e266b92	0.16251972
46	0x3d5f8b54	0.054576233
47	0x3f469459	0.7757011
48	0xbcafcb68	-0.021459296
49	0x3da86041	0.08221484
50	0xbd162015	-0.03665169
51	0xbc01c0c8	-0.007919498
52	0x3d363b1c	0.044489965
53	0x3d00d0d5	0.031449158
54	0xbe18707d	-0.14886661
55	0x3ea6abb2	0.32552868
56	0x3f3b3cbb	0.7313954
57	0xbd0e66d6	-0.03476604
58	0x3f2481da	0.6426064
59	0xbacb79ce	-0.0015523972
60	0x3cf79d4d	0.030226374
61	0xbec8d086	-0.3922159
62	0x3e2156f8	0.15755832
63	0xbd246411	-0.040134493
64	0x3c8cd325	0.017190525
65	0xbc4a8281	-0.012360216
66	0x3cc73874	0.024318911
67	0x3ae0e7a1	0.0017158875
68	0x3d14fd72	0.036374517
69	0xbd0981f6	-0.033571206
70	0x3c042214	0.0080647655
71	0x3ca54a74	0.020177104
72	0xbd830c02	-0.06398775
73	0x3c41bcfb	0.011824842
74	0x3d79cc63	0.060985934
75	0xbb170ce6	-0.002304846
76	0xbd300fb9	-0.042983744
77	0x3d06a875	0.032875497
78	0xbcb3e9b6	-0.021962028
79	0xbbac6310	-0.0052608326
80	0xbdd8ef08	-0.105924666
81	0x3c3e2f93	0.011608022
82	0xbbfb7ad6	-0.0076745553
83	0x3cde2a17	0.02711968
84	0xbcefbd1a	-0.029264975
85	0x3c1ef58e	0.0097020995
86	0xbd535c55	-0.051601727
87	0x3cb929ef	0.022603003
88	0x3bcd9513	0.0062738745
89	0xbb7aafbd	-0.003825172
90	0xbcd78dd8	-0.026312754
91	0x3c91025e	0.017701324
92	0x3aba587e	0.0014217047
93	0x3d265968	0.04061261
94	0xbdd3b9f8	-0.10338205
95	0x3c6d8565	0.014497136
96	0x3c8fcb7a	0.01755308
97	0xbc8dec39	-0.017324554
98	0xbcff9e1b	-0.03120332
99	0xbe0ee8a1	-0.13955928
100	0x3cce9b3f	0.025220511
101	0xbc16c6ec	-0.0092027
102	0xbbd13b6f	-0.006385259
103	0x3d10024c	0.03515844
104	0x3adca941	0.001683511
105	0xbbe62087	-0.0070229205
106	0xbb89c0fd	-0.004203914
107	0xbd2ac5ac	-0.04169242
108	0xbc82d2eb	-0.015969714
109	0xbc82861e	-0.015933093
110	0xbc569e24	-0.013099227
111	0xbb2cebf8	-0.0026385766
112	0x3ccf31ff	0.025292395
113	0x3d68816e	0.05676406
114	0xbd0d09f7	-0.03443333
115	0xbcc2c813	-0.023777043
116	0x3b4e2d9c	0.003146029
117	0x3c0d654f	0.008630111
118	0x3c4138f2	0.011793362
119	0xbc6e5370	-0.01454626
120	0xbcb14bba	-0.021642555
121	0x3af62ae1	0.001878109
122	0xbb1dccda	-0.00240784
123	0xbd6b20b8	-0.05740425
124	0x3d011ff6	0.03152462
125	0xbd200379	-0.03906581
126	0x3abee344	0.001456358
127	0xbb6b390e	-0.0035892162
128	0xbc857cbf	-0.016294835
129	0xbd49705b	-0.049179416
130	0x3d0adb7d	0.033900727
131	0x3bda5f17	0.0066641676
132	0x3d324cb3	0.043530177
133	0xbe02f2b2	-0.12787893
134	0xbde7896e	-0.113055095
135	0xbc810e8b	-0.015754005
136	0xbd492aa1	-0.04911292
137	0x3b90eed3	0.0044230013
138	0x3bf7721e	0.0075514456
139	0xbdd34f2f	-0.103178374
140	0xbccc8870	-0.024967402
141	0xbdc2fcf0	-0.095209
142	0xbd23426a	-0.03985826
143	0xbc3506a7	-0.011048949
144	0xbe2a61f6	-0.16638932
145	0xbda24cbc	-0.07924792
146	0xbd1acd8b	-0.037793677
147	0x3d4d747c	0.050159916
148	0xbcbd11af	-0.023079721
149	0x3c972dc7	0.018454446
150	0xbddad907	-0.10685926
151	0xba872d9d	-0.0010313276
152	0xbddbf0d4	-0.10739294
153	0x3a4f6942	0.0007912108
154	0xbb39bd3e	-0.0028341557
155	0x3c87213f	0.016495345
156	0xbcc55527	-0.024088455
157	0x3c63c133	0.013901043
158	0xbd9c6b9f	-0.076377146
159	0x3d1bde5c	0.038053855
160	0xb9fccfc0	-0.0004821997
161	0xbbf3cf07	-0.007440451
162	0xbc855e12	-0.016280208
163	0xbda54985	-0.08070663
164	0xbcfb25fd	-0.030657763
165	0xbd15d0b1	-0.036575977
166	0xbcdb2b78	-0.026754126
167	0x3c86579b	0.016399195
168	0x3b04badc	0.0020252978
169	0xbc386b4b	-0.011256049
170	0x3c6a1490	0.014287129
171	0xbc8529fa	-0.016255368
172	0xbd0ef9c2	-0.034906156
173	0xbdd560b9	-0.10418839
174	0xbe2c8773	-0.16848545
175	0xbd79221e	-0.060823552
176	0x3c417c68	0.011809446
177	0xbcca9c13	-0.024732625
178	0xbd196b1e	-0.03745567
179	0x3ba6171c	0.005068673
180	0xbc0290b5	-0.007969071
181	0x3d1ab145	0.037766714
182	0x3c79626b	0.015221219
183	0xbd6684ce	-0.056278996
184	0xbd9fa000	-0.077941895
185	0xbd8b6a1b	-0.068073474
186	0xbd08af92	-0.033370562
187	0xbd3d4f0c	-0.046217963
188	0xbccc737e	-0.024957415
189	0xbdbeeb24	-0.09322193
190	0xbd98b30e	-0.07456027
191	0x3c8fccf2	0.01755378
192	0x3ace36ff	0.0015732943
193	0xbd207c9c	-0.039181337
194	0x3c9a4c19	0.018835114
195	0xbc2bdd0f	-0.010489716
196	0x3c780b65	0.015139435
197	0xbd108b1d	-0.03528892
198	0xbc8755d1	-0.016520413
199	0x3b3cc93e	0.0028806473
200	0xbdb3eebe	-0.08785771
201	0x3a1378c6	0.00056256016
202	0xbcb34f36	-0.021888357
203	0xbe9c23a0	-0.3049593
204	0xbc9929d4	-0.018696703
205	0x3dbfbdf7	0.09362405
206	0xbb011386	-0.0019695475
207	0xbcd13781	-0.025539162
208	0xbd993494	-0.074807316
209	0xbe9de0bc	-0.3083552
210	0xbca51f4d	-0.020156527
211	0xbba73f13	-0.0051039546
212	0xbd03b358	-0.032153457
213	0xbbf024a6	-0.0073285876
214	0x3b8bae5e	0.0042627295
215	0xbba9fd90	-0.0051876977
216	0xbd866394	-0.06561962
217	0xbcb08dc6	-0.021551978
218	0xbdfee076	-0.12445156
219	0xbc7f3763	-0.01557717
220	0xbcc93a75	-0.024564007
221	0x3c49c7b4	0.012315679
222	0xbd6d7034	-0.057968333
223	0x3964b86f	0.00021812481
224	0x3caa0198	0.020752713
225	0x3caacd71	0.020849915
226	0xbd38efda	-0.045150615
227	0xbbde7681	-0.006789029
228	0xbb921349	-0.0044578654
229	0xbb03176e	-0.002000298
230	0xbc69c6ea	-0.014268616
231	0xbc9c128e	-0.019051816
232	0xbce216e2	-0.027598802
233	0xbd2c6e23	-0.042097222
234	0xbd22e38c	-0.039767787
235	0x3aa4dd19	0.0012578099
236	0xbc93cc68	-0.018041804
237	0xbe1ecbff	-0.15507506
238	0xbde7bd8b	-0.11315449
239	0xbe0f392c	-0.13986653
240	0xb91b2085	-0.00014794066
241	0xbba84ce9	-0.0051361215
242	0xbbcf47c1	-0.0063256924
243	0xbcb1d685	-0.021708736
244	0xbd32b30f	-0.043627795
245	0xbc05bcd8	-0.0081627
246	0x3aafab0e	0.0013402419
247	0x3bffb81d	0.0078039304
248	0xbe9a71a7	-0.30164835
249	0xbbbfe420	-0.005856052
250	0xbe03c468	-0.12867892
251	0xbce11f59	-0.027480768
252	0xbd22051a	-0.039555646
253	0xbe38949b	-0.18025438
254	0xbd1e583a	-0.03865836
255	0x3ca115d4	0.019663729

layer3.bias f4 [128]
0	0x3b755687	0.0037435608
1	0xbde894fb	-0.11356541
2	0xbe1bbb2d	-0.1520812
3	0xbeafae60	-0.34312725
4	0x3e74ea17	0.23917423
5	0xbdba6c57	-0.091026954
6	0xbe6c8d36	-0.23100743
7	0xbeb3d274	-0.351215
8	0xbd9aff5b	-0.075682364
9	0xbdd98378	-0.10620779
10	0xbd1f8993	-0.03894956
11	0x3f72ed21	0.9489308
12	0xbe9385b6	-0.2881295
13	0xbe45c721	-0.19314243
14	0xbf5173eb	-0.818175
15	0xbe7fea4c	-0.24991721
16	0xbdcc0ab9	-0.09962983
17	0x3efc6e52	0.49302918
18	0xb8c6b997	-9.4759445e-05
19	0x3f3a6a62	0.7281858
20	0xbe368099	-0.17822494
21	0xbf01a600	-0.5064392
22	0xbe712889	-0.23550619
23	0xbe06c0b8	-0.13159454
24	0xbddfb196	-0.10922544
25	0xbd7137ee	-0.05889123
26	0xbe4b51b0	-0.1985538
27	0xbed49624	-0.41520798
28	0xbce7c3d6	-0.028291624
29	0xbd7d70af	-0.06187504
30	0xbea00ba0	-0.3125887
31	0xbe497d12	-0.19676617
32	0xbdbca748	-0.09211594
33	0x3f414b4c	0.7550552
34	0xbeaa9905	-0.3331987
35	0xbed62a1a	-0.41828996
36	0x3d96e9ac	0.07368788
37	0x3fb349ba	1.4006875
38	0xbe264e66	-0.16240844
39	0x3f3522c8	0.70756197
40	0xbd8d1b49	-0.0688997
41	0xbd90ad69	-0.07064325
42	0xbd20203a	-0.039093234
43	0x3f2bc543	0.6709787
44	0xbd9fc28e	-0.0780078
45	0xbde8f2ad	-0.11374412
46	0x3e160a45	0.14652355
47	0x3d58e6cb	0.052954476
48	0xbe22b34b	-0.15888707
49	0xbd1311ba	-0.035905577
50	0xbe1131c1	-0.14179136
51	0xbd7f04dc	-0.062260494
52	0x3ed68744	0.41900074
53	0x3e90d1e1	0.28285125
54	0xbe4e3714	-0.20138198
55	0xbd2f60bd	-0.042816866
56	0xbe4556ad	-0.19271345
57	0xbe31b875	-0.17355521
58	0xbe85af3e	-0.26110262
59	0xbe191cf3	-0.1495245
60	0xbd8e29fa	-0.069416
61	0xbde9403d	-0.113892056
62	0xbdf8a1cd	-0.12140236
63	0xbe6b8653	-0.2300046
64	0xbe037f2e	-0.12841484
65	0xbcd27680	-0.02569127
66	0xbe43e4a1	-0.19130184
67	0x3f377746	0.7166637
68	0xbd718ec5	-0.058974046
69	0xbe8715f9	-0.2638395
70	0xbe15f893	-0.14645605
71	0xbea5abdf	-0.3235769
72	0xbe8f9243	-0.28041276
73	0xbd7cf0ee	-0.061753206
74	0xbe6af41b	-0.22944681
75	0xbd6a0163	-0.05713023
76	0xbd55f21a	-0.05223284
77	0xbd72f7c0	-0.059318304
78	0xbe3a5759	-0.18197383
79	0xbe2237da	-0.15841618
80	0xbe57d195	-0.21076043
81	0x3f4698b5	0.7757676
82	0xbe390a94	-0.18070441
83	0xbd77a00c	-0.060455367
84	0x3e6591c1	0.22418882
85	0xbcbc443a	-0.022981752
86	0xbdefbea1	-0.117062815
87	0xbdd8ee80	-0.10592365
88	0x3eda39e7	0.426223
89	0xbe6a0c4e	-0.22856256
90	0xbde84c61	-0.11342693
91	0xbe5639f3	-0.20920543
92	0xbd8f69db	-0.07002612
93	0xbe3f0ae5	-0.186565
94	0xbed0d4c9	-0.40787342
95	0xbdc03046	-0.093842074
96	0xbe3435cf	-0.17598651
97	0x3f3a3216	0.72732675
98	0xbe5bdf9d	-0.2147202
99	0xbd52481b	-0.051338296
100	0xbcfc9c1e	-0.030836161
101	0xbd0ac7cf	-0.03388196
102	0xbe429323	-0.1900144
103	0x3cf260f6	0.02958725
104	0xbd5ce1d6	-0.05392631
105	0xbdd4cca3	-0.10390594
106	0xbc7ccb17	-0.01542928
107	0xbde89339	-0.113562055
108	0xbe972e85	-0.2952768
109	0xbd8eab80	-0.06966305
110	0xbeaac00c	-0.33349645
111	0xbe53dcf3	-0.20689754
112	0xbedc331a	-0.43007737
113	0xbe8db758	-0.27678943
114	0xbe8730d8	-0.26404452
115	0xbf1c4e1a	-0.61056674
116	0xbe565107	-0.20929347
117	0xbe89be17	-0.2690284
118	0x3e256b5e	0.16154239
119	0xbd74931c	-0.059710607
120	0xbdc0d814	-0.09416214
121	0x3f0b73e0	0.54473686
122	0xbe2d14b8	-0.16902435
123	0xbec8cd6d	-0.39219227
124	0xbe5717ce	-0.21005175
125	0xbe3718f2	-0.1788061
126	0x3d09e153	0.03366215
127	0xbd095e62	-0.033537276

layer4.weight f4 [64, 128]
0	0xbe77c1b5	-0.24194987
1	0xb9597f58	-0.00020742172
2	0xbc86b448	-0.016443387
3	0xbc0f18d9	-0.0087339515
4	0xbe8440cb	-0.25830683
5	0xbbfb770c	-0.0076741036
6	0xbceba333	-0.028764343
7	0xbc1a7fb8	-0.009429865
8	0xbc47457f	-0.012162565
9	0xbc54b677	-0.012982956
10	0xbcca980a	-0.024730701
11	0xbe7bb23e	-0.24579713
12	0xbc2c1fa5	-0.0105055915
13	0x3c39a270	0.011330232
14	0x3baeef0b	0.0053385547
15	0xba021d46	-0.00049634685
16	0x3c1bfcc7	0.009520716
17	0xbe7e4b28	-0.24833357
18	0xbc528810	-0.012849823
19	0xbea878bc	-0.32904613
20	0xbca22133	-0.019791221
21	0xb9f780b3	-0.000472074
22	0xbd024d49	-0.031811986
23	0xbc1e810d	-0.009674323
24	0xbc2a00f7	-0.010376207
25	0xbc414a7f	-0.011797546
26	0x3c7b70f2	0.0153467525
27	0xbb7a7f34	-0.0038222792
28	0xbbe1f46e	-0.0068955934
29	0x3c07669e	0.008264212
30	0xbc87f00a	-0.016593952
31	0xbce29bbb	-0.027662149
32	0x3b4e7fbf	0.0031509248
33	0xbd7bfe4e	-0.06152182
34	0xbc2d5324	-0.010578904
35	0x3cc8cf15	0.024512807
36	0x3e79f853	0.24411134
37	0xbea098b2	-0.31366497
38	0xbc2bc243	-0.010483327
39	0xbea0ec06	-0.31430072
40	0xbb755123	-0.0037432394
41	0x3ac8e4a1	0.0015326926
42	0xbc7f0ad2	-0.015566545
43	0xbe83f356	-0.25771588
44	0x3bc55186	0.0060216812
45	0xbbcff67d	-0.0063465224
46	0xbe84a3fe	-0.25906366
47	0xbd1a609c	-0.03768979
48	0xbbf829b0	-0.007573329
49	0x3a989676	0.001164152
50	0xbc13da4e	-0.009024216
51	0xbb44fdd9	-0.0030058532
52	0xbe84ce34	-0.2593857
53	0xbe8133a0	-0.252347
54	0x3c05be79	0.008163088
55	0xbd7fd8e8	-0.062462717
56	0xbc384938	-0.011247925
57	0x3c30cdd5	0.010791262
58	0x3c261abd	0.010138211
59	0x389dcaac	7.524094e-05
60	0xbc55f377	-0.013058535
61	0x3ce30c81	0.027715923
62	0xbc3e9a49	-0.011633464
63	0xbbc9fbbf	-0.0061640437
64	0x3b05447f	0.0020335016
65	0xbb31b872	-0.0027117995
66	0xbc96cc0b	-0.018407842
67	0xbe81563e	-0.2526111
68	0xbc89c164	-0.016815849
69	0xbbad1857	-0.0052824426
70	0x3c145925	0.009054457
71	0xbc4b4dc5	-0.012408678
72	0xbb4c67ac	-0.0031189723
73	0x3bbf868d	0.005844897
74	0x3b402728	0.0029320214
75	0x3bf79051	0.0075550457
76	0x3ba8a641	0.005146772
77	0xbc905c4b	-0.017622134
78	0xbe8554f4	-0.26041377
79	0xba909de1	-0.001103338
80	0x3935c983	0.00017336574
81	0xbd962203	-0.07330706
82	0xbcb6d62b	-0.02231892
83	0xbcd4a30f	-0.025956659
84	0xbe81e9f3	-0.25373802
85	0x3c7367f5	0.014856328
86	0xbce0d5af	-0.027445642
87	0x3c2624d8	0.01014062
88	0xbe769dff	-0.24083708
89	0x3c9936f0	0.018702954
90	0x3bf11489	0.0073571843
91	0xbc9c4f8c	-0.0190809
92	0xbc156a00	-0.009119511
93	0x3c0c59a5	0.008566295
94	0xbb806cec	-0.0039192345
95	0xba8f5488	-0.0010935226
96	0xbe78b179	-0.2428645
97	0xbe8fa41a	-0.28054887
98	0xbd063057	-0.032760944
99	0xbc6c84a7	-0.014435924
100	0x3c75775c	0.014982071
101	0xbca249d1	-0.019810589
102	0x3c22c8de	0.009935586
103	0xbc9c2213	-0.019059217
104	0xbc891a67	-0.016736222
105	0x3cdb0c45	0.026739249
106	0xbb912b09	-0.004430179
107	0x3abe87cc	0.001453632
108	0x3a4da97f	0.0007845386
109	0xbc36fb76	-0.011168351
110	0xbd0f5df5	-0.035001714
111	0xbbae7575	-0.0053240606
112	0x3c0ea1d8	0.008705579
113	0xbc5c9ad1	-0.0134646455
114	0xbc557930	-0.013029382
115	0xbc401dde	-0.011725871
116	0xbc0263cb	-0.007958363
117	0x3cbed8a9	0.023296671
118	0xbe8eb998	-0.27875972
119	0xbb2b0f40	-0.002610162
120	0x3b23474f	0.002491433
121	0xbe8b2b33	-0.27181396
122	0xbce5237b	-0.02797102
123	0xbc29bd40	-0.010360062
124	0xbccc38fb	-0.024929514
125	0xbbe754db	-0.007059676
126	0xbe740f2a	-0.2383391
127	0xbcbf7299	-0.023370074
128	0x3f08e7f7	0.5347895
129	0xba841b70	-0.0010078978
130	0xbc7b6d5d	-0.015345898
131	0xbe20f109	-0.15716948
132	0xbda574e8	-0.08078939
133	0x3d5a77fa	0.053337075
134	0xbc95d49b	-0.018289855
135	0x3e198463	0.14991908
136	0xbd8ba938	-0.06819385
137	0xbdd250ef	-0.10269343
138	0x3c99b9ba	0.01876532
139	0xbe80aeb7	-0.25133297
140	0xbe87663d	-0.2644519
141	0xbc8e23a6	-0.017350983
142	0x3dbd4eb2	0.092435256
143	0x3f2ca53f	0.67439646
144	0xbd648822	-0.05579389
145	0xbf5e09f3	-0.8673393
146	0xbc46eaff	-0.012140988
147	0xbf3b29fd	-0.73110944
148	0x3e29efcd	0.16595383
149	0x3de7143e	0.11283158
150	0xbe1bccfd	-0.15214916
151	0xbd9defee	-0.077117786
152	0xbd977232	-0.07394828
153	0x3d2a9c25	0.041652817
154	0xbdd9d614	-0.10636535
155	0xbe4fb5d0	-0.202842
156	0x3d1426ef	0.036169942
157	0xbd819e78	-0.06329054
158	0xbda454be	-0.08023976
159	0xbd52a11e	-0.051423185
160	0xbd473c96	-0.048641764
161	0xbf39bad7	-0.7255072
162	0x3e745263	0.23859553
163	0x3abab07c	0.001424327
164	0x3e0717a5	0.13192613
165	0xbf360336	-0.7109865
166	0xbd140691	-0.036139075
167	0xbe83b0ce	-0.2572083
168	0xbc9a3802	-0.018825535
169	0x3dbf49d1	0.09340251
170	0xbc321d83	-0.010871294
171	0xbf1f2486	-0.62165105
172	0x3d3121ff	0.04324531
173	0x3d1575d5	0.036489327
174	0x3f0fa915	0.56117374
175	0x3d2e07c2	0.042487867
176	0xbda8d582	-0.082438484
177	0xbbf1b366	-0.0073761223
178	0xbdd11663	-0.10209348
179	0xbd8bbfe2	-0.06823708
180	0xbe95d4a3	-0.2926379
181	0xbebfb021	-0.37439063
182	0x3e207431	0.15669324
183	0x3d712c35	0.05888005
184	0x3c44b1a3	0.0120052425
185	0xbdefb75d	-0.11704896
186	0xbe2c1e1b	-0.1680836
187	0xbdf9f26e	-0.12204443
188	0xbb118390	-0.0022203662
189	0xbdb4dc71	-0.08831108
190	0x3dc11e5e	0.0942962
191	0xbd11f4e8	-0.03563395
192	0xbacf7af7	-0.0015829493
193	0xbd5fa8b7	-0.05460426
194	0xbc916a4f	-0.017750887
195	0x3de41017	0.111358814
196	0x3d1a2b32	0.03763885
197	0xbe1c0d3b	-0.15239422
198	0x3d264e10	0.04060179
199	0xbd6df379	-0.05809352
200	0x3e41da0c	0.18930835
201	0xbcc29941	-0.023754718
202	0x3da150db	0.0787675
203	0x3d304c7a	0.043041684
204	0x3c6a065d	0.014283744
205	0x3d44da60	0.04805982
206	0x3d0eff70	0.034911573
207	0x3c8eadee	0.01741692
208	0x3e4ccb3f	0.19999407
209	0x3e68b0c2	0.22723678
210	0xbe10c98e	-0.14139387
211	0xbd8db64b	-0.06919535
212	0x3f236370	0.63823605
213	0x3d6666b0	0.056250274
214	0x3c8c9383	0.017160183
215	0xbd8f9c4c	-0.07012233
216	0x3ed2d1e0	0.41175747
217	0xbe2d430c	-0.16920108
218	0xbd17a6b1	-0.037024204
219	0x3d8d68bc	0.06904742
220	0xbd49dc99	-0.049282644
221	0x3d74ede9	0.0597972
222	0x3ddf55fa	0.109050706
223	0x3d9e21ad	0.07721267
224	0xbd4af1bc	-0.049546942
225	0xbcc689f9	-0.024235712
226	0x3dbd1f0c	0.09234437
227	0xbd01e2ad	-0.031710315
228	0xbbcfb436	-0.0063386215
229	0xbcd69b51	-0.026197108
230	0x3d9cca44	0.076557666
231	0x3f5fbad4	0.8739445
232	0x3d96141b	0.073280536
233	0x3d9a5c36	0.07537119
234	0x3d4b3535	0.04961129
235	0xbd9143df	-0.070930235
236	0x3c0bee02	0.008540632
237	0xbd8c3565	-0.06846122
238	0x3d9804bd	0.07422779
239	0x3e2e66b7	0.1703137
240	0xbd26396c	-0.040582106
241	0xbe2f915c	-0.17145294
242	0xbd6636f6	-0.05620476
243	0x3c6b90ff	0.0143778315
244	0x3c672617	0.014108202
245	0xbd02e79d	-0.031959165
246	0xbe8321d1	-0.25611737
247	0xbd10d33a	-0.03535769
248	0xbe383fa8	-0.17993033
249	0xbf1eaf18	-0.6198592
250	0xbd0f0d31	-0.03492469
251	0x3e50a8bc	0.20376867
252	0xbc54a499	-0.012978696
253	0xbd69cf12	-0.057082243
254	0x3eddec06	0.43344134
255	0xbc0b05c3	-0.00848526

layer4.bias f4 [64]
0	0xbe9c5ea5	-0.30540958
1	0x3f4895a3	0.7835333
2	0xbc62fb50	-0.013853863
3	0xbe1dbe92	-0.15404728
4	0xbd70dc01	-0.058803562
5	0xbcd60c5e	-0.026128944
6	0xbd928026	-0.071533486
7	0xbdaf6f1b	-0.085661136
8	0x3f8b7f83	1.0898288
9	0xbcd017f8	-0.025402054
10	0x3d1154c8	0.035481244
11	0xbd54d290	-0.05195862
12	0xbce535e8	-0.027979806
13	0xbbccd846	-0.0062513677
14	0xbc5f7aa4	-0.01364008
15	0x3e504f9d	0.2034287
16	0xbdab372e	-0.08360134
17	0xbe36414d	-0.17798348
18	0xbe4983d6	-0.19679198
19	0xbb5815c3	-0.0032971955
20	0xbeb68547	-0.35648558
21	0xbdfd77aa	-0.1237634
22	0x3e3f7372	0.18696383
23	0xbcdeed2a	-0.027212698
24	0x3f661820	0.8988056
25	0xbd24716a	-0.040147223
26	0x3e259021	0.16168262
27	0xbc6830a1	-0.01417175
28	0xbd9aab2f	-0.07552182
29	0xbe1b6136	-0.15173802
30	0xbe1a0910	-0.1504252
31	0xbc6a5235	-0.014301826
32	0xbd031577	-0.032002892
33	0xbb865ea0	-0.0041006356
34	0xb8b68893	-8.703875e-05
35	0xbc77ca70	-0.015123948
36	0xbd2e58a6	-0.04256501
37	0xbe143e64	-0.14476925
38	0xbf3e7dbb	-0.744106
39	0xbdc2e059	-0.09515447
40	0x3f272644	0.65292764
41	0xbcd610be	-0.02613103
42	0xbde0d7cb	-0.10978659
43	0xbe1d96dd	-0.15389581
44	0xbbf2e164	-0.0074121226
45	0x3b019fa5	0.0019778993
46	0xbd7aee78	-0.061262578
47	0x3e16a566	0.14711532
48	0x3f37ceab	0.71799725
49	0x3e6121dd	0.21985574
50	0xbc499255	-0.012302955
51	0xbdb48747	-0.088148646
52	0xbda84c9d	-0.08217738
53	0xbc629ad4	-0.013830859
54	0xbe26c797	-0.16287075
55	0x3e3f0232	0.18653181
56	0x3e9002ee	0.28127235
57	0xbe95677f	-0.29180524
58	0x3c813002	0.015769962
59	0x3f279e72	0.65476143
60	0xbc40613b	-0.011741932
61	0xbd99d348	-0.07511002
62	0xbdb594e1	-0.08866287
63	0xbda8ee3e	-0.08248566
