lunar_good.pth (torch, 84907 bytes, 14 tensors)

network_arch.0.weight f4 [64, 8]
000000 42 56 91 be cc c6 96 be 7e 3d 95 3e 44 ab 6d bd
       -0.28386122 -0.29448545 0.29148477 -0.05802466
000010 e2 e7 3c 3e 55 f2 19 3d 80 34 9c 3d c4 29 ab 3e
       0.18447831 0.03758462 0.07627201 0.33430302
000020 21 74 d9 3c 62 59 61 3e 17 e2 88 3b 89 b2 15 3d
       0.026544632 0.22006753 0.0041773426 0.036547218
000030 a2 a9 b3 3e 3f e2 4f 3e bb 45 71 bd 09 31 1b be
       0.35090357 0.2030115 -0.05890439 -0.15155424
000040 3e da 8b 3e 8a 15 e0 3d 20 dd 61 be 1d 44 9b be
       0.27314943 0.10941608 -0.22057009 -0.30325404
000050 a8 15 28 be 06 47 e7 bc 04 10 7b 3e e9 82 92 be
       -0.16414511 -0.028232109 0.24517828 -0.28615502
000060 ab b0 ac bc 9c 23 89 be 6a 47 93 be 55 31 b4 3e
       -0.021080336 -0.2678498 -0.28765422 0.35193887
000070 63 7b 3a bd d6 b9 9a be 96 b7 de bd c2 5b 61 be
       -0.045527827 -0.30219907 -0.1087486 -0.22007659
000080 f2 81 02 3e 7a 41 30 be de 80 89 be 29 d3 9d 3e
       0.12744883 -0.17212477 -0.2685613 0.30825165
000090 4c 12 97 3d 47 aa 79 be 43 57 5d 3e 67 6d 70 bd
       0.07376537 -0.24381362 0.21615319 -0.058698084
0000a0 ff 62 bd 3d 67 47 95 be cd b9 55 be c0 00 8b be
       0.09247398 -0.29156038 -0.20871659 -0.2714901
0000b0 3b 1b 8e bb 81 97 27 be 46 c6 4d be 69 de 50 3e
       -0.004336742 -0.16366388 -0.20095167 0.20397343
0000c0 36 b6 b2 3e 56 32 7f be 39 b4 84 be 9a 23 9f 3b
       0.3490464 -0.24921545 -0.2591875 0.004856539
0000d0 e2 be 2f be 99 ff 69 be e6 56 9b 3e 80 9b 93 3d
       -0.1716266 -0.22851409 0.30339736 0.07207394
0000e0 3c 33 b0 be 4e 7e 33 be f8 80 cc bd e4 3f ee bd
       -0.3441409 -0.1752865 -0.09985536 -0.1163328
0000f0 25 50 d3 3b d4 2a 82 3e 4d a3 65 3e 96 b1 0a be
       0.006448763 0.254233 0.22425576 -0.13544306
000100 38 6a d7 bd 17 cd 96 be b6 3b 8a 3e 9a bd 8b 3e
       -0.105183065 -0.29453346 0.2699868 0.27293092
000110 71 40 60 3e cd bd a9 be 01 a7 6d 3e bd c7 08 3e
       0.21899582 -0.3315262 0.23208238 0.13357444
000120 b4 e6 33 3e b2 42 16 3d 97 ab 97 be fb c4 2b be
       0.17568475 0.0366847 -0.296231 -0.16774361
000130 c1 bb a6 3e 7a 73 b3 3e fb 11 19 3e f9 b5 de bd
       0.3256512 0.3504904 0.14948265 -0.10874552
000140 be 1f 3b be e0 da a0 be 2d 34 9e 3e 34 58 69 3d
       -0.18273827 -0.31416988 0.30899182 0.056968883
000150 3e a4 3a 3e 49 35 a2 be 57 51 33 be 61 cf 68 be
       0.18226716 -0.31681278 -0.17511497 -0.22735359
000160 5b 9f 91 3e 51 4f 8e 3e 7a 13 b2 3e d0 98 67 3e
       0.2844189 0.2779489 0.34780484 0.22616887
000170 0d 2a 78 be 97 55 e6 3d 75 a2 46 3e 78 2a 1e 3e
       -0.24234791 0.11246794 0.1939791 0.15445888
000180 94 3e 57 3e f2 79 6d bd 8c bb 89 bd dd 49 19 be
       0.21019965 -0.057977624 -0.06725225 -0.14969583
000190 8c 52 00 be 8e 95 ac 3d 20 bf af bd 93 2e 49 be
       -0.12531489 0.08426963 -0.08581376 -0.19646673
0001a0 e2 a3 bb 3d 2b 12 86 3e f1 4c 24 be 5f e0 9b be
       0.091621175 0.26185736 -0.16044976 -0.3044462
0001b0 8a 3a a1 3e 1a 9a 90 3d f5 b9 d9 3c 2c 06 84 3e
       0.31489974 0.070606425 0.026577929 0.2578596
0001c0 d6 de 72 bc 8e a4 c6 3d 35 12 9f 3e fa 50 87 3e
       -0.014823636 0.09699355 0.31068578 0.26428968
0001d0 37 b1 a5 3d 69 24 dc 3c ba cd 87 be ee d0 28 3e
       0.08090442 0.02687283 -0.26524144 0.1648595
0001e0 37 dd 90 be 98 58 8d be 30 e9 ad be 66 4c 05 3e
       -0.28293774 -0.27606654 -0.3396697 0.13017425
0001f0 72 38 6a 3d c6 cb 64 3e bc 51 b2 be 1d c6 61 be
       0.057182737 0.22343358 -0.34827983 -0.2204823
000200 a5 70 47 3b bc 32 31 3e 7e 79 2e be ff d4 a9 3e
       0.0030432132 0.1730451 -0.17038533 0.33170316
000210 c7 b6 26 3e d7 18 93 3d 24 95 2f 3d 85 9e 68 be
       0.16280662 0.07182472 0.04286684 -0.2271672
000220 60 77 0e be f4 95 a9 be b2 90 d6 bd d8 6f 22 3e
       -0.13912725 -0.33122218 -0.10476817 0.15862978
000230 63 2e 8a 3d f8 7d 5e 3e 76 d3 a8 be b1 4e 8b 3e
       0.06747129 0.21727741 -0.32973832 0.27208474
000240 f8 43 87 be 5b 8b 20 be 2d 3d 61 3e 4c a4 58 be
       -0.26419044 -0.1567816 0.21995993 -0.21156424
000250 96 28 a5 be ba 58 7b be f0 8e 02 be f6 48 44 be
       -0.32257527 -0.24545565 -0.12749839 -0.19168457
000260 0f f9 b9 bd 3d 37 ba 3d 7e 91 38 bd 6e 18 06 be
       -0.09080707 0.09092567 -0.045060627 -0.13095257
000270 24 31 4f 3e c3 05 08 be 22 cb 1b 3e 55 cb 36 3e
       0.2023359 -0.13283448 0.15214208 0.17851003
000280 17 76 a0 3e 50 07 a3 3e 3f 52 f8 bd 6c 2a 94 3e
       0.31340095 0.31841516 -0.12125062 0.28938615
000290 79 f1 e8 bd 78 4e 9b be 0f 5e 9b 3e 78 22 ac 3e
       -0.11374182 -0.30333304 0.303452 0.33620048
0002a0 30 b2 2d 3d a0 aa 00 3d 16 90 ae 3c ad 89 4e be
       0.04240626 0.03141272 0.02130894 -0.20169707
0002b0 fe 07 b2 bd eb 8a 23 3e c4 eb 00 bd cf f4 8e 3e
       -0.08692931 0.15970962 -0.031474844 0.2792115
0002c0 09 01 16 be 29 7b b1 3e 60 77 0e 3d 9d 18 ad bd
       -0.14648832 0.34664276 0.034781814 -0.0845196
0002d0 e1 f1 2c be 31 3c 5f 3c d1 e6 00 3e ec 0e 53 be
       -0.16889144 0.013625191 0.1258805 -0.20611161
0002e0 42 d4 f5 3d 10 08 b0 be 2e 33 ab 3e fd 56 06 3e
       0.120033756 -0.3438115 0.33437485 0.13119121
0002f0 b2 6a af 3e 5c a8 ac 3c a0 11 ac be 35 44 56 be
       0.3426109 0.021076374 -0.33607197 -0.20924456
000300 ae ca 92 3e 4f e0 02 be 4c 6f ed 3d c7 46 c6 3c
       0.28670257 -0.1278088 0.11593494 0.024203671
000310 f6 4d b2 3e 40 03 7a be 32 a8 71 bd 69 5b 91 be
       0.34825104 -0.24415302 -0.058998294 -0.28390053
000320 50 55 0c 3d f2 07 f2 3d ed 2a 87 3e 93 67 a7 bd
       0.034261048 0.11817922 0.26399937 -0.08174052
000330 e9 14 4f 3e e5 c1 5a be f7 ea 25 be 1b 7f ef 3d
       0.2022282 -0.21363027 -0.16202913 0.11694165
000340 83 7b 8d bd 38 d6 1a be 97 a6 b3 be 0f f1 a2 be
       -0.069083236 -0.1512078 -0.35088035 -0.31824538
000350 a7 4f 84 3d f8 42 97 be 99 e0 ad 3e 81 67 50 3e
       0.06460505 -0.2954328 0.33960417 0.20351984
000360 dd 1e 9b 3e 5f 3d 1c 3e 97 fa 6a 3e 39 7a a2 be
       0.30296984 0.15257786 0.22947155 -0.31733873
000370 73 cd 6b be e9 da 9f be c1 17 28 3e 81 40 85 3e
       -0.23027591 -0.31221703 0.16415311 0.26025775
000380 f4 6a 83 be a8 6f 35 be 57 b8 96 bc ab 96 33 3d
       -0.25667536 -0.17718375 -0.018398447 0.04384486
000390 8c 9f a3 3d b7 41 5f 3e f0 0f de bd b9 5f 5f 3b
       0.079894155 0.21802412 -0.108428836 0.0034084155
0003a0 9c f2 89 3e 43 e1 96 be 69 a5 78 be bb 27 3d bd
       0.2694291 -0.29468736 -0.24281849 -0.046180468
0003b0 c3 99 b3 be c4 d1 05 be 1f de 98 be fc cf 7f 3b
       -0.35078248 -0.130683 -0.29856965 0.003903388
0003c0 fb fa 52 3d f8 8d 94 3c 02 fa fc bd 4a d5 55 be
       0.051508885 0.018134102 -0.12352373 -0.20882145
0003d0 26 85 69 3d 88 00 20 be 3b fa 9e be 49 54 98 be
       0.057011746 -0.15625203 -0.31050286 -0.29751804
0003e0 5a 9a 8c 3e ff e3 42 be 21 16 44 3d 14 2c c7 bd
       0.2746151 -0.19032286 0.047872666 -0.09725204
0003f0 60 c1 fc 3d 36 9c 7b be 0c 81 46 be 07 3e ce bd
       0.12341571 -0.24571308 -0.19385165 -0.100704245

network_arch.0.bias f4 [64]
000000 5b 37 e3 bd a0 63 a4 be 3c 5d 51 3d 74 d7 21 be
       -0.110945426 -0.32107258 0.051114306 -0.15804845
000010 60 43 80 be 2a 12 5d be 80 8e 81 be 8d f4 98 3e
       -0.25051403 -0.2158896 -0.2530403 0.29874077
000020 44 c3 86 be 5a 90 a9 be 11 81 83 be 79 96 fe 3d
       -0.2632085 -0.33117944 -0.25684407 0.12431044
000030 ed 4c 82 3e c2 ae ad 3e 86 85 00 be 88 c2 af 3e
       0.25449315 0.33922392 -0.12550935 0.34328103
000040 12 41 88 3e a5 45 b2 3e 85 86 dc bc 53 cd 57 be
       0.26612145 0.3481876 -0.026919613 -0.21074419
000050 c9 2b c4 bb 32 64 a6 be 8a 5a 91 be ef 49 d3 3d
       -0.005986665 -0.32498318 -0.28389388 0.10316836
000060 70 ac d8 3d f2 46 2e 3d d5 2c 40 be 0e 82 86 3e
       0.10579765 0.042548127 -0.18767102 0.262711
000070 ad 27 cc 3b 14 26 0c 3e 2c b7 ae 3e be d0 5a be
       0.0062303157 0.136864 0.34124124 -0.21368691
000080 60 53 41 bd c2 20 24 be 7b 69 0f 3e 4b 0c 8e 3c
       -0.047198653 -0.16028121 0.14005081 0.017339846
000090 1a d1 b1 3e c2 52 a2 be d4 8b c2 3d d7 14 82 3b
       0.34729844 -0.31703764 0.09499326 0.0039697695
0000a0 67 e6 27 be 8d 15 7b 3e 97 44 82 3d a6 d1 9d be
       -0.16396485 0.2451994 0.06360739 -0.30824012
0000b0 57 ba 23 be c4 d7 b4 3e b9 6a 88 bd 38 6b 41 3e
       -0.15989052 0.35320866 -0.06660981 0.18888557
0000c0 0c 95 7a be c3 03 d1 3d 41 80 d2 bd d7 00 37 3e
       -0.2447092 0.102057956 -0.10278369 0.17871414
0000d0 b5 c0 9f 3e cd 58 85 be b9 dc 75 3d 9b f0 a4 3e
       0.3120171 -0.26044312 0.06002495 0.32214817
0000e0 1b ba 60 3e d7 3d 8c be c1 36 51 3e 68 1e 3d be
       0.21945994 -0.2739093 0.20431043 -0.1846863
0000f0 5a e2 80 be ee 31 11 be f6 a0 81 bc c7 45 49 be
       -0.25172693 -0.14179203 -0.015823822 -0.19655524

network_arch.2.weight f4 [4, 64]
000000 76 0a f2 3d c8 45 ae bd c0 53 49 3b d8 20 85 3d
       0.118184015 -0.085094035 0.0030720085 0.06500405
000010 a0 d2 7c 3c 26 a0 94 3d 6c ed cb 3d c8 ac 83 bd
       0.015431076 0.072571084 0.09957394 -0.0642944
000020 5a 93 ac bd f8 a8 e3 3c 50 f2 54 3d b4 ac ed bd
       -0.084265426 0.027790532 0.0519889 -0.11605206
000030 30 d7 48 bd 4e 56 b2 bd 9a 9e b6 bd c0 b8 89 bd
       -0.049033344 -0.087078676 -0.089169696 -0.067246914
000040 5e 9b 9e 3d d0 41 f4 3c 4c d0 76 bd 2e e5 e5 bd
       0.07744478 0.029816538 -0.06025724 -0.11225353
000050 50 d0 c5 bc 10 97 ef 3d d0 29 9c bd b0 3c 04 bd
       -0.024147183 0.11698735 -0.076251626 -0.03228444
000060 b0 90 43 3d 9c 26 93 3d ac e0 b3 3d 24 ed b7 bd
       0.047745407 0.071850985 0.08783087 -0.08980778
000070 fe 81 84 3d 1c 9f f2 bd 6c 18 a6 3d f2 78 e2 bd
       0.064701065 -0.11846754 0.08110127 -0.11058225
000080 4a b3 ce 3d 48 97 8c bc 4e ce 9d bd 4c 38 b2 bd
       0.100927904 -0.01716198 -0.07705365 -0.08702144
000090 ae 94 f6 bd be 42 9e 3d 00 2e 0d bc 08 92 76 3d
       -0.12040077 0.07727574 -0.008616924 0.06019786
0000a0 bc 6d 36 3d 60 e9 b7 3b 08 63 86 3d 30 6d 93 bd
       0.044538245 0.0056125373 0.065618575 -0.0719856
0000b0 14 36 8e bd 00 40 88 3a 2a 21 cd bd 68 d7 9d 3d
       -0.06943908 0.001039505 -0.10016091 0.07707101
0000c0 e4 a0 f5 bd 88 2a b3 bc dc a0 a3 bd d0 eb 76 bc
       -0.11993578 -0.021870866 -0.07989666 -0.0150708705
0000d0 f0 45 82 3c 70 79 18 bd a8 4f a7 3c 94 a9 88 bd
       0.01590249 -0.037225187 0.020423725 -0.066729695
0000e0 3c f3 ab 3d 58 c9 18 bd 6a 60 e0 bd f0 e2 b6 bd
       0.08396003 -0.03730139 -0.109558895 -0.08930004
0000f0 5c eb b4 3d 80 f3 b1 3b 12 61 c0 bd e0 fe ab 3d
       0.08833954 0.005430639 -0.09393515 0.08398223
000100 60 0c f3 3b 20 7c af 3c 50 53 1d bd a8 21 bc bc
       0.0074172467 0.021421492 -0.03840953 -0.022965267
000110 30 8d a5 3c 30 9b cd bc a2 a3 b9 bd 60 b4 d1 bb
       0.020208925 -0.025098413 -0.090644136 -0.006399676
000120 a2 a9 c4 3d 78 30 89 3c e8 14 f0 3d f4 7e f1 bd
       0.096026674 0.016746745 0.117227376 -0.117917925
000130 38 47 4d 3d b0 89 b8 3c 04 5d c2 3d 68 9a a8 3c
       0.050116748 0.022526592 0.094903976 0.02058144
000140 9c 36 df bd 00 9e ca 3d 6a 2c f4 3d 8c cf 59 bd
       -0.10899088 0.09893417 0.11922534 -0.053176448
000150 6a 8a cc 3d c6 20 96 bd d8 02 d3 bd f4 cf 47 3d
       0.09987338 -0.0733047 -0.10303277 0.048782304
000160 74 e7 91 3d 70 27 a4 3d 28 42 c0 3c 28 8c 4f bd
       0.07124224 0.080153346 0.023469046 -0.050670773
000170 40 18 7c bc ca 6f aa 3d 12 35 90 bd 02 12 d1 3d
       -0.015386641 0.08322103 -0.07041372 0.10208513
000180 88 0e c6 bc 86 32 cf 3d 38 4a 40 bd 60 91 dd 3d
       -0.02417685 0.101170585 -0.04694578 0.10818744
000190 3a cf c7 3d a0 8b 91 bc 94 ca 3c 3d 36 e5 fb 3d
       0.09756322 -0.017766774 0.04609163 0.12299578
0001a0 6e 57 ea 3d 48 5f cd 3c e8 69 37 3d 68 61 66 bd
       0.11442457 0.025069848 0.044778734 -0.056245238
0001b0 a0 1c cf 3c 9e 38 e1 bd ba d7 e2 bd d0 7c 37 bd
       0.025282204 -0.10997127 -0.11076303 -0.044796765
0001c0 70 c2 37 bd e2 a5 a1 bd b0 be 2f 3d aa f3 ef 3d
       -0.044863164 -0.07892968 0.042906463 0.11716397
0001d0 6e 0a e7 bd 48 54 f9 bd a0 08 9a bd 2c f9 82 bd
       -0.11281286 -0.121742785 -0.07521176 -0.06395182
0001e0 20 c7 f8 bd d0 bf 65 3c 58 44 92 3d 80 b7 54 3b
       -0.12147355 0.014022782 0.07141942 0.0032458007
0001f0 f0 e3 d2 bd 6c 38 09 bd 78 93 34 bd fc 77 2b 3d
       -0.10297382 -0.033501074 -0.04408595 0.041862473
000200 40 cb 2c bb 5e 5f 88 3d 58 e2 35 3d ac 65 09 bd
       -0.0026366264 0.06658815 0.04440531 -0.033544227
000210 d8 ac d3 bd 08 ff 40 3d 70 35 52 bd d0 58 57 bc
       -0.10335702 0.047118217 -0.051320493 -0.013143733
000220 f0 18 8f 3d 10 ad 30 bd 02 6c cd 3d 54 b8 98 bd
       0.06987178 -0.043133795 0.100303665 -0.07457033
000230 98 ef ff bc 06 e8 82 3d 88 37 4e bd a4 0d 45 bd
       -0.031242177 0.06391911 -0.050345927 -0.04810871
000240 10 e2 e2 bd c0 da df bc 3c aa 3a bd 48 e1 ac bd
       -0.11078274 -0.027325988 -0.045572504 -0.084414065
000250 48 a1 fb bc 2a 72 eb 3d f0 64 20 bd 42 50 a0 bd
       -0.030716553 0.114963844 -0.03915876 -0.07827808
000260 e0 e6 3c 3d b8 48 1a 3d 5e 61 e4 bd de 9b 8a bd
       0.046118617 0.037667006 -0.11151384 -0.067680106
000270 2a 70 82 3d 4c f2 25 bd 40 0f 92 bc 00 ab f0 bb
       0.0636905 -0.040514275 -0.017829537 -0.0073446035
000280 40 67 94 3c 86 30 eb 3d e6 c2 bb bd 70 a0 be bc
       0.01811564 0.114838645 -0.09168033 -0.023269862
000290 b0 a2 b1 bd 50 aa f2 3c c6 9d f5 bd a4 46 54 3d
       -0.08673608 0.029622227 -0.119929835 0.05182518
0002a0 22 2d b2 3d 10 a6 db bd fc 3f 34 bd 62 ed 91 bd
       0.08700015 -0.10725033 -0.044006333 -0.07125355
0002b0 c0 5d 75 bc 5a 88 cc 3d 1c f0 87 bd 32 6b 84 bd
       -0.014975965 0.099869445 -0.06637594 -0.064657584
0002c0 54 52 c0 bd 80 da 2a bd 2e ba ba 3d 00 2c f5 39
       -0.09390703 -0.041712284 0.09117542 0.00046762824
0002d0 f8 c2 78 3d e0 fe ee 3c 40 41 ff 3c 40 a5 98 bd
       0.06073281 0.029174268 0.031159043 -0.07453394
0002e0 a6 7e cf bd 5c e2 72 3d 30 b1 36 3d de 14 ec 3d
       -0.10131578 0.059297904 0.044602573 0.115274176
0002f0 88 4e bb bc 30 5b 19 3c 50 08 ba 3c 02 0c be bd
       -0.022864595 0.00936012 0.022709042 -0.09279634
000300 32 54 91 3d 6a a0 f2 bd de 09 97 3d d6 ca ec bd
       0.07096137 -0.11847003 0.07374929 -0.115621254
000310 f0 65 0c bd 4c 9b 3f 3d 90 fa 98 3c 40 51 23 3c
       -0.034276903 0.046778962 0.018674165 0.009968102
000320 00 c3 2e 3c 02 7e eb bd 50 20 59 3c 94 6c fc 3d
       0.010666609 -0.114986435 0.013252333 0.12325397
000330 30 2a be bc c0 04 8d bc f8 e3 15 3d 28 0f 83 3c
       -0.023213476 -0.017214179 0.03659436 0.015998438
000340 74 64 b5 3d a0 6c 2a 3c 2c 78 d9 3d b8 95 c4 3c
       0.088570505 0.010401875 0.10618624 0.023997173
000350 34 56 17 3d d4 80 9b bd f0 f8 81 bd d0 3c c5 bd
       0.036947444 -0.075929314 -0.06346309 -0.0963074
000360 2c 5e 23 3d 06 a9 f9 3d c0 95 65 bb 60 ad 9a bd
       0.03988473 0.12190442 -0.0035031885 -0.075526
000370 c8 3d d5 bd f0 e1 f9 3c dc e3 41 3d 50 2c b6 3c
       -0.104121745 0.030503243 0.047336444 0.022237927
000380 80 25 3d 3b c2 eb ba 3d 3c 63 76 3d 80 c9 bf 3b
       0.0028861463 0.091269985 0.06015323 0.005852878
000390 f2 08 87 bd 40 6b 78 3d 3c a5 3e 3d 00 8f 1f 3a
       -0.06593503 0.060649157 0.0465443 0.00060866773
0003a0 e8 20 d6 bc 62 36 fd bd 28 eb 9e bd e2 18 af bd
       -0.026138738 -0.12363888 -0.07759696 -0.08549668
0003b0 f0 5d 64 3d 80 81 9b bc 78 46 b2 3c a6 12 96 bd
       0.05575365 -0.018982649 0.021762118 -0.07327776
0003c0 c0 32 3a 3b 50 d4 18 bc 80 8f d2 bc 00 76 69 3c
       0.0028411597 -0.009327963 -0.025703192 0.014249325
0003d0 e0 04 c0 bb 40 d6 ff 3c 30 01 c8 bd 20 80 f2 3d
       -0.005859956 0.031230092 -0.097658515 0.11840844
0003e0 ec 29 a9 bd 0e b6 9c 3d 1c fd 9c bd 76 b9 89 bd
       -0.08259949 0.07651912 -0.07665464 -0.06724827
0003f0 58 13 d6 bd 40 2a bd bc 80 2c 6a 3c 64 8e 48 bd
       -0.10452908 -0.023091435 0.014292836 -0.04896392

network_arch.2.bias f4 [4]
000000 0c 64 ae bd d0 22 98 bd d8 1b 91 bd 8c 20 f7 bd
       -0.08515176 -0.07428515 -0.07085389 -0.12066755

layer1.weight f4 [32, 8]
000000 5f 5a 08 be 9d 2b b4 3e a7 f9 04 bf 28 c4 0e be
       -0.13315724 0.35189524 -0.5194344 -0.13942015
000010 7c 0f b1 bc e9 17 2d be bf 21 4f bd b1 66 f8 bc
       -0.021613829 -0.16903652 -0.050569292 -0.030322405
000020 92 a7 a6 bd 1d 28 ac bc 9b 43 d5 bd c5 3c 1d bf
       -0.0813743 -0.021015221 -0.10413285 -0.6142085
000030 93 f7 13 3e e3 e8 84 3c ca 13 ff 3c 8e 4c 75 bd
       0.14449911 0.01622433 0.031137366 -0.05988746
000040 3b f0 91 bd 4a 2f c6 3c 71 ac 0a 3e 17 13 b7 bb
       -0.071258985 0.024192471 0.13542344 -0.0055869925
000050 7b d2 72 3d 85 4c dc bd ca b4 ba be a6 f0 69 bc
       0.05928276 -0.107567824 -0.36466056 -0.014278566
000060 9a 02 a6 bd 21 fb 2d 3e af c8 be be c0 bd 0c 3d
       -0.08105965 0.1699033 -0.37262484 0.034360647
000070 ee 38 e3 be 59 c8 8b 3e 96 2a 8b 3c a8 3c 1f be
       -0.4437937 0.2730129 0.01698808 -0.15550482
000080 bf 34 56 3e e2 77 fc 3d 87 16 ae bd f6 5a 92 be
       0.20918559 0.12327553 -0.085003905 -0.28585023
000090 28 55 0e 3f 22 96 1a 3e e0 ac 90 be 92 ca b0 be
       0.5559869 0.15096334 -0.28256893 -0.3452955
0000a0 38 37 9a 3d c7 55 8c 3e 9b 0f 24 3e 1c 18 fd 3e
       0.075300634 0.27409193 0.16021578 0.49432456
0000b0 35 c5 13 bf f8 d3 14 be f9 9b c1 3d 05 27 a5 3d
       -0.5772279 -0.14533985 0.094535775 0.08064083
0000c0 5c b7 6c bd a7 9e fe be 4f d9 31 be 0a fd 2b 3f
       -0.057792053 -0.49730417 -0.17368053 0.6718298
0000d0 a3 93 6f bd 10 c4 68 3d 60 a6 c7 3d 7b c6 00 3e
       -0.058490407 0.056827605 0.097485304 0.12575714
0000e0 38 d1 18 3e 19 9e d8 3e d8 1a 4b bd 73 5c 13 3d
       0.1492356 0.4230812 -0.049586147 0.03597684
0000f0 0e 59 46 3e 50 c3 8b be 47 6a ec bd a1 36 7d 3e
       0.19369909 -0.2729745 -0.11543708 0.2472787
000100 74 f5 af bd 16 74 d0 bd cf 00 13 3e 36 f0 85 3e
       -0.08591738 -0.10178392 0.14355777 0.2615983
000110 8a 60 2a 3f 4c 05 81 be e9 21 02 bc 4d 5c 07 be
       0.66553557 -0.25199354 -0.007942655 -0.13218804
000120 18 cc 6c be bb 9c ba be e2 4a 29 be d8 88 16 bf
       -0.2312473 -0.364477 -0.16532472 -0.58802557
000130 b0 4e 45 3e 7f c5 25 3d a7 69 c0 3d e0 91 a8 3d
       0.19268298 0.04047155 0.093951516 0.082309484
000140 37 e0 86 bc 58 a1 06 3e bd 26 fa bd 39 23 9f 3d
       -0.016464336 0.13147485 -0.1221442 0.0777039
000150 33 77 b3 3e 8c 11 e9 3e 5f 0e 39 be c5 96 ef be
       0.3505188 0.455212 -0.18071888 -0.46794716
000160 09 06 3b bd 3c 4f af 3e 3c a0 8a 3e ed 2d b6 be
       -0.045660052 0.3424014 0.27075374 -0.35581914
000170 45 14 00 3d 2e 1d 3d 3d 36 42 07 3e cf a8 2a be
       0.03126933 0.046170406 0.13208851 -0.16665958
000180 6d e9 81 bd 40 70 98 3d a7 1d 8d 3e eb 7a 32 3e
       -0.063433506 0.07443285 0.27561685 0.17429702
000190 a7 fc 73 be b6 95 41 be 36 90 02 bd c9 94 7b be
       -0.23826848 -0.18904766 -0.03187581 -0.24568476
0001a0 a8 c2 13 3d 63 3a ca bd 6c 72 d9 bc 9d ea 06 bf
       0.03607431 -0.09874418 -0.026543818 -0.5270174
0001b0 32 f6 2f 3e 69 09 2e 3e 9e 7b ca bd 14 3e 81 be
       0.1718376 0.16995777 -0.09886859 -0.25242674
0001c0 00 b7 90 3c 07 fd 52 be 0c 42 8b bd a6 83 05 be
       0.017665386 -0.20604335 -0.06799707 -0.13038501
0001d0 2b 2c 2b 3e 87 be 18 3f 43 c9 cd 3d 62 00 a6 be
       0.16716067 0.5966572 0.10048153 -0.32422167
0001e0 e8 19 03 3e 95 d2 33 3e 5e 15 10 be 55 34 24 be
       0.12802851 0.175608 -0.14070651 -0.16035588
0001f0 0e 50 96 3c 70 71 cc bd 58 52 c9 be 72 da ea bd
       0.01834872 -0.09982574 -0.39320636 -0.114674464
000200 62 ba 90 bd 1b d4 1a 3d ad 4a 05 3e cb ad 02 3f
       -0.070668 0.037799936 0.13016768 0.5104644
000210 88 3e d8 3e 52 11 50 3e d0 d4 41 3e 16 33 48 bd
       0.42235208 0.20319107 0.18928838 -0.048876844
000220 a1 fa 98 be 11 e0 83 3e 67 b5 ac be e6 3b 71 3e
       -0.29878715 0.25756887 -0.3373215 0.23558006
000230 8f 47 ea 3e 23 fc 39 3e 85 86 3b be 0d 8a 4e be
       0.4575772 0.18162589 -0.18313034 -0.2016985
000240 7c fb c0 3d 23 ed 96 be f1 c2 09 3e 65 c7 98 be
       0.09422967 -0.29477796 0.1345327 -0.29839626
000250 4b 5f ae bd d1 b5 bc be 14 7e 4b be 97 4f 71 3e
       -0.085142694 -0.36857465 -0.19872314 0.23565517
000260 9f 5a 10 3e fc 43 a7 bd 45 ce f7 be f5 c5 ee 3d
       0.14097069 -0.08167264 -0.4839956 0.11658851
000270 10 34 c1 be 82 2c 7d 3e 55 c7 ba bd bf ec 29 bd
       -0.37735033 0.2472401 -0.09120051 -0.041485544
000280 77 6e 05 be d2 6e db 3e 9f 9e 0c 3e ac 9e 3e bd
       -0.1303042 0.42857987 0.13732384 -0.04653804
000290 27 59 8a be f1 62 e0 bc 1c 27 15 3e e7 1b b9 be
       -0.27021143 -0.027390929 0.145657 -0.361541
0002a0 1c 2d 81 bb 7a a1 11 3d ee 4a 95 bd 22 59 fe bd
       -0.003942145 0.035554387 -0.07289682 -0.124193445
0002b0 11 e4 5e be 4e ed 02 bf 67 3c ca be 68 6a fd 3c
       -0.21766688 -0.5114335 -0.39499208 0.030934528
0002c0 48 79 02 be 29 c3 15 bc e2 8a b3 3e 90 c8 13 bf
       -0.12741578 -0.009140768 0.35066897 -0.5772791
0002d0 a9 49 1f 3d 60 46 21 3d e7 2d d9 bd 04 72 ba 3d
       0.038888607 0.039373755 -0.10604458 0.09103778
0002e0 64 cd 2e 3e 76 c7 57 3e 24 df 7a ba b3 2b 52 bc
       0.17070538 0.21072182 -0.00095699937 -0.0128278015
0002f0 e3 70 ca be 82 fb 49 be a7 26 23 be 26 93 9b be
       -0.3953925 -0.19724849 -0.15932713 -0.30385703
000300 61 16 b5 bd 9c 83 45 3e 05 7f ee be b1 df 14 3f
       -0.08842159 0.19288486 -0.46581283 0.58153826
000310 a8 f4 fc 3e d0 38 de 3d 78 71 bb 3d f5 8d ba 3d
       0.49405408 0.1085068 0.09152502 0.091091074
000320 1c ee 62 bd 96 cb 18 be d4 4a 09 3e 42 7d b6 3e
       -0.05540286 -0.14921412 0.13407451 0.3564244
000330 db 4e 95 be 8c 60 cc bd 9f 49 ed 3d 7e 03 9c be
       -0.29161724 -0.09979352 0.11586308 -0.30471414
000340 f5 d6 e0 3e 92 dd b3 be 47 4c b8 3e 4f 62 a9 be
       0.43914 -0.35129982 0.35995695 -0.33082816
000350 29 bb 31 be 9b b4 80 3c b0 9c c3 3d 8f 7b 01 3e
       -0.17356552 0.01571112 0.0955137 0.1264479
000360 b5 92 82 3e 9a 59 c4 bd 2d 08 08 3d 6d 12 46 3e
       0.25502554 -0.09587403 0.033210922 0.19342966
000370 b7 2d 73 be ee cc 8b 3e d3 54 35 bd 75 80 02 bf
       -0.23747908 0.27304786 -0.044270348 -0.5097726
000380 40 a4 1c 3e 39 1c 07 3f cb 34 89 be 47 12 26 be
       0.15297031 0.5277744 -0.2679809 -0.1621791
000390 4e 37 0a 3e ba 18 24 3e 78 cc 80 be 7d 5c 40 bd
       0.1349766 0.16025057 -0.25155997 -0.046963204
0003a0 9f f2 df 3c d9 06 d9 3e 8e 10 49 be 8b 1f a9 3e
       0.02733737 0.42388037 -0.19635221 0.33031878
0003b0 13 95 00 3f 99 c9 93 3d 9e f6 be bd 84 f6 6b bd
       0.5022747 0.07216186 -0.09324382 -0.057608142
0003c0 70 ee 39 be da 5a 20 bf e1 f9 c7 be f4 6b a3 be
       -0.18157363 -0.6263863 -0.3905783 -0.319183
0003d0 5a 4e 12 3e ed 5c 0d be bb 27 42 bc be 29 04 3d
       0.14287701 -0.1380498 -0.011850293 0.03226637
0003e0 6c da 07 bd 5f 0b 0e 3e c3 97 36 3d 6b d7 7b bd
       -0.033167288 0.13871525 0.044578325 -0.061484735
0003f0 29 d5 88 be b3 a9 a5 bd b4 84 d1 3c 42 a0 8f be
       -0.26725128 -0.08089008 0.025575973 -0.28051955

layer1.bias f4 [32]
000000 39 96 29 bd 00 7d 05 bc 01 d3 95 3e cd 08 30 be
       -0.04140303 -0.008147478 0.29262546 -0.17190857
000010 36 e7 3b be 09 55 4c 3e 28 12 9d 3e 5a 2b 23 be
       -0.18349919 0.19954313 0.30677915 -0.15934506
000020 44 33 5a 3e bb d2 e1 bd 1a 16 0a bd bf f8 61 be
       0.21308619 -0.11026522 -0.033712484 -0.22067545
000030 73 f6 36 3e 90 a9 97 be 00 a5 f8 bc 88 c1 1f 3e
       0.1786745 -0.29621553 -0.030352116 0.1560117
000040 17 09 4d bd d0 ef a6 bd f6 43 fc bd 9e b6 fe 3d
       -0.050057497 -0.08151209 -0.1231765 0.12437175
000050 90 b6 4b 3e 22 13 9d bd 41 f4 c2 bc 19 52 7a be
       0.19893861 -0.07669665 -0.02379811 -0.2444538
000060 22 7b 79 3d 8f 1c 92 be fd f7 6a bd ab f1 ac bd
       0.060908444 -0.28537413 -0.057365406 -0.08444532
000070 d4 b7 36 be 69 c8 82 3e 7e 5a 1e be 37 f6 9f be
       -0.17843562 0.25543526 -0.15464208 -0.31242535

layer2.weight f4 [64, 32]
000000 17 d3 22 3e ba 9c 2a 3e f0 6d 98 3d d7 f7 30 3e
       0.15900837 0.16661349 0.07442844 0.17282043
000010 d0 c0 a8 bd 93 61 d6 3d ad 24 b0 be ad e5 47 3e
       -0.08239901 0.104678296 -0.3440298 0.19521208
000020 c6 fb 65 3e 11 2c 8a 3e d8 08 08 bd 92 a6 b2 3d
       0.22459325 0.26986745 -0.03321156 0.08723177
000030 65 09 0a bd ea 05 fc bd 31 ad 5f 3e 34 69 e7 bd
       -0.033700366 -0.123058155 0.21843411 -0.11299363
000040 a0 32 cb be b6 64 74 bc a7 7a 6a 3e 6a 8c 1b bb
       -0.3968706 -0.0149165895 0.2289835 -0.0023734816
000050 79 f2 4b be 6d 8b 1e 3e 6d 35 5e 3e 13 38 da 3e
       -0.19916715 0.15482874 0.21700068 0.42620906
000060 01 a4 0d 3c 6b 35 a0 3e f6 2e d6 3d f7 99 9a be
       0.008645059 0.31290755 0.10458176 -0.3019559
000070 aa 06 ed be a5 e8 df be 14 14 4f 3e 71 fe a3 3e
       -0.46294147 -0.4373218 0.20222503 0.3203006
000080 f4 1d 80 bd d2 78 91 3d 5f af 80 3e ef 67 07 3d
       -0.06255713 0.07103123 0.25133798 0.033058103
000090 98 a7 b0 bd c9 89 99 bd 1a ab 05 be 34 28 81 3d
       -0.08625716 -0.074969836 -0.13053551 0.06306496
0000a0 4e 10 85 3d a0 ac 8f be b5 94 0b be 96 1d be 3d
       0.064972505 -0.2806139 -0.13630946 0.09282987
0000b0 1b ab 8b 3e 25 4e c7 be 18 61 45 3d d0 e1 4d 3e
       0.2727898 -0.38926807 0.0481883 0.20105672
0000c0 7f 11 1f 3e f3 e9 a2 bd 14 08 5b 3d c3 46 d8 3d
       0.15534018 -0.079547785 0.0534745 0.10560372
0000d0 c7 e7 a0 3e 6c 28 38 be 99 77 38 3c e5 09 89 bd
       0.31426832 -0.1798417 0.011258983 -0.0669134
0000e0 1e 3b 46 be 75 ce ac be 37 b3 62 be 4d a9 4d 3e
       -0.19358489 -0.33751264 -0.22138678 0.20084114
0000f0 c3 45 7c 3e 69 a6 40 3e 2c da 98 3c 22 02 c6 be
       0.24635987 0.1881348 0.01865872 -0.38673502
000100 20 77 70 be f5 3f 2c 3e 78 e9 d9 3e 72 7d c8 3d
       -0.23482943 0.16821273 0.42560935 0.09789552
000110 d7 cb c1 bd 37 67 38 be a0 a0 fd bd 52 6b dc bc
       -0.094627075 -0.18008123 -0.123841524 -0.026906643
000120 cc ee eb 3d 40 00 07 be fa 9b f9 bd a1 cd 02 3e
       0.11520156 -0.13183689 -0.12187953 0.12773754
000130 27 41 35 3e 4b 83 02 bf d1 13 6e 3e cd af 44 bc
       0.17700635 -0.5098159 0.23249747 -0.012004805
000140 57 c4 36 3e 63 12 62 be 94 1c 22 3e 10 36 6a 3e
       0.17848335 -0.22077326 0.15831214 0.22872186
000150 08 e9 95 3e 29 6c c1 be 56 b2 a5 3d 13 68 52 be
       0.2927935 -0.37777832 0.080906555 -0.20547514
000160 5c bc b9 be ac d7 ee bd 43 f1 4f be 0f 57 e3 3d
       -0.3627652 -0.1166223 -0.20306878 0.111005895
000170 d9 1d 0d 3d f4 77 8a 3e 84 35 b5 bd d0 65 d0 be
       0.034452293 0.27044642 -0.08848098 -0.40702677
000180 02 10 47 be 1c 2f df bd 01 b2 4d be 4a d8 a8 be
       -0.194397 -0.10897657 -0.20087434 -0.32977515
000190 38 27 68 be 35 b7 9e 3c ce 8a 0f be 70 27 8e be
       -0.22671211 0.01937447 -0.14017794 -0.27764463
0001a0 dd d0 29 bd ec 50 5e 3d 91 aa 3c bd 23 6e b5 3d
       -0.041458953 0.054276392 -0.046061102 0.088588975
0001b0 af d0 53 3d f3 48 a1 be 89 9d 44 3d c2 89 aa be
       0.051712688 -0.31500968 0.0480018 -0.33308226
0001c0 3e 5e 3f be 36 8e 76 bd f6 bd cb 3c db b2 0c bf
       -0.18688294 -0.060194217 0.024870854 -0.5496041
0001d0 a4 ff 25 3e 9b b8 27 be b5 20 99 bb c7 9a c5 bd
       0.162108 -0.16379015 -0.0046730884 -0.09648662
0001e0 a9 d4 04 be 3e af 03 3d d4 9e 90 bd d2 d1 e1 3c
       -0.12971748 0.032149546 -0.07061544 0.02756587
0001f0 ab 21 f8 bd e5 c0 9e be 88 f2 0c be fa 8e 43 be
       -0.12115797 -0.31006542 -0.13764393 -0.1909751
000200 eb 5e 5c be e9 42 e2 3c 13 d0 92 3e 9a 3e f5 bd
       -0.21520583 0.027619796 0.28674373 -0.11974831
000210 a2 1f 79 be 74 06 2e be c6 99 1c 3b 9a 83 d7 3d
       -0.24328473 -0.16994649 0.0023895367 0.10523148
000220 15 82 e1 3d 54 74 74 bd 79 34 87 3d c7 fd 30 3e
       0.11011139 -0.05968125 0.06601805 0.17284308
000230 73 41 77 bd 16 44 0e bf b5 2c b4 bc 6b 8e 73 bd
       -0.06036515 -0.5557264 -0.021993974 -0.059461992
000240 3d 9b 39 bc 7f b9 06 3e 61 cb a0 3b 08 5d 90 3d
       -0.011328516 0.13156699 0.004907057 0.07048994
000250 02 2e 96 3c bc 5b 44 bf 6c f8 f5 3d c7 c2 22 bf
       0.018332485 -0.76702476 0.12010273 -0.63578457
000260 86 fd 0e 3e a5 8a 6e 3e e5 07 c4 bd 5a 9d 99 be
       0.13963899 0.23295076 -0.09571818 -0.30002862
000270 89 9b 25 3d 8a 27 49 3e 2f 32 7c 3c cc 64 2b bf
       0.040431533 0.19643989 0.015392824 -0.6695068
000280 07 e5 c2 3b 4d f2 86 3d b0 92 99 3e de a7 9b 3d
       0.0059477123 0.06589184 0.29994726 0.076003775
000290 9c 40 5b 3e 24 41 f1 bd ac 0f 47 3d c0 a8 7a 3e
       0.21411365 -0.11780003 0.04859893 0.24478436
0002a0 e9 fc 8b 3e 04 51 ac be 03 62 34 3d 8c 2b ab bd
       0.27341393 -0.3365556 0.044038784 -0.08357915
0002b0 31 43 19 3e a1 30 3f be e0 01 d7 3d d4 d1 4e 3e
       0.14967038 -0.18670894 0.104984045 0.2019723
0002c0 dc aa 4b 3e 3a 16 a5 be ca 4e 33 be 0c 4e c1 3e
       0.19889396 -0.3224352 -0.17510524 0.37754858
0002d0 16 60 52 3d 70 18 28 3d fc e3 1a be 74 0d e1 bd
       0.051361166 0.04103893 -0.15126032 -0.10988894
0002e0 f6 2f 8f be c9 48 9a be dc 24 ab be 1c 79 90 3d
       -0.2796628 -0.30133656 -0.3342656 0.0705435
0002f0 81 0d 24 3e 13 b1 09 3e be 23 48 be b0 a3 df bd
       0.16020776 0.13446455 -0.19544885 -0.10919893
000300 f5 48 86 bd ef 77 3a 3c d4 8a 51 bc a5 50 f3 bd
       -0.06556884 0.011381133 -0.012789447 -0.11880616
000310 ba c3 eb bd a3 ac 07 bd a6 fd 83 bd 67 97 7b bd
       -0.11511941 -0.033123624 -0.06444864 -0.061423685
000320 28 d9 24 be 66 aa 2a bd 12 82 76 bd e6 d7 f4 bc
       -0.16098464 -0.04166641 -0.06018264 -0.029888105
000330 1d 59 07 bb 22 0f 7c 3d 47 66 f2 bd bc 9e d3 3c
       -0.002065248 0.06153787 -0.11835914 0.025832526
000340 43 e4 bf 3c 4b 0a 6f bd cc b8 43 bd 00 b4 fa bd
       0.023424273 -0.058359426 -0.047783658 -0.122413635
000350 0e 4e 2f bd 29 c6 35 3d bc eb 1d 3d 5c d9 a2 3c
       -0.042799048 0.044378433 0.038554892 0.019879036
000360 9c da d9 bd d8 0a d6 3c f5 5e 04 be 5c ad 92 bd
       -0.106373996 0.026128218 -0.12926848 -0.07161972
000370 16 2f c3 bd 44 b7 65 bd 55 e6 1e 3c e2 f9 24 bd
       -0.09530465 -0.05608298 0.00969847 -0.04027737
000380 88 b8 2e bd 37 34 46 3e ff d9 14 3e 8c 41 a2 3e
       -0.04265645 0.19355856 0.14536284 0.31690633
000390 e1 6e 17 bd 4a 61 d9 3d 9b 03 e5 be 7b 1e 39 3e
       -0.036970977 0.106142595 -0.44729313 0.18078034
0003a0 bc 69 bc 3d 32 f0 b8 3e 67 f5 a0 bc 60 8c 8c 3d
       0.09199855 0.36120754 -0.019648267 0.06862712
0003b0 d7 4f e9 bd 47 a3 b9 bd c0 3b 8a 3e c0 9d 1d 3d
       -0.11392181 -0.09064346 0.2699871 0.03848052
0003c0 91 54 01 bf a9 cc fb be 3a fa 3b 3e 89 51 6f 3c
       -0.50519663 -0.4917958 0.18357173 0.014606842
0003d0 19 c8 8c be 3d a0 e6 3d 6d 69 f3 3d 26 ea 4b 3e
       -0.27496412 0.11261032 0.11885343 0.1991354
0003e0 27 c9 aa be 8a 02 a9 3e ac ce 3c 3e 97 c0 bd 3d
       -0.33356592 0.3300975 0.18438214 0.09265249
0003f0 1e b3 c3 be 5b 58 c0 be 46 cb 2a 3e d4 59 0c 3e
       -0.38222593 -0.3756741 0.16679105 0.13706142

layer2.bias f4 [64]
000000 79 f1 82 bd 50 02 63 3e 03 8c 36 3e e0 59 75 bd
       -0.063937135 0.22168851 0.17826848 -0.059900165
000010 c4 ee 88 3d ab 42 51 3e fa e9 f1 bd 98 d9 e5 3d
       0.06686166 0.20435588 -0.118122056 0.11223143
000020 9d fe 75 bd 88 e7 34 bd 3b 1b 82 bd 63 03 36 3e
       -0.06005727 -0.044166118 -0.0635285 0.1777473
000030 70 f0 cc bc ea 0e c7 3d 7e b5 c2 3c 42 d3 6d 3d
       -0.025016993 0.097196415 0.023768183 0.0580628
000040 49 17 a3 3d 58 09 66 3e 3e f1 44 be b6 32 b8 3d
       0.07963426 0.22464502 -0.19232652 0.08994047
000050 80 49 2c 3e 5d 54 93 3d 03 7d d5 3d b7 b9 8c bd
       0.16824913 0.071938254 0.10424235 -0.0687136
000060 e8 ae 75 bd 92 5b 05 bd d8 5f 59 be bc a3 1f 3e
       -0.059981257 -0.03255803 -0.21227968 0.15589803
000070 76 c9 55 3e a0 ed 43 bd 52 a8 db 3c 65 59 8a bd
       0.20877632 -0.04783404 0.02681366 -0.06755332
000080 24 d8 75 3d 45 fc cb 3d 1d ff 69 3d b2 5e 18 3e
       0.06002058 0.09960226 0.05712806 0.14879873
000090 58 98 4d 3d 78 37 01 be 47 9d f1 bd d5 e8 e0 bc
       0.050194114 -0.12618816 -0.117975764 -0.027454773
0000a0 b8 a9 36 3d d6 75 7b bd 17 34 d5 3d 50 0d 7c bd
       0.04459545 -0.061391674 0.10410326 -0.061536133
0000b0 86 b9 04 bd c2 bf 0b 3d 99 55 8b bc e8 c3 11 3e
       -0.03240349 0.03411842 -0.01700859 0.14234889
0000c0 4e cb 5d bd 4c 40 21 3c 98 eb 07 3e bd 34 3b 3e
       -0.054148965 0.00984199 0.13273466 0.18281837
0000d0 49 9c 29 3e 22 98 d5 3c df 3f b9 3e e9 00 cc 3e
       0.16563524 0.02607352 0.36181542 0.39844444
0000e0 2a bd 86 3e eb 06 aa 3d 8a 4d 29 3e 46 c3 97 3e
       0.26316196 0.08302101 0.16533485 0.2964117
0000f0 4c af 8f 3d b9 cf 66 bd 6d 90 be 3c db 06 fd 3c
       0.07015857 -0.056350444 0.023262227 0.030887058

layer3.weight f4 [128, 64]
000000 7d 38 91 3d 78 b5 e1 bc 69 02 9f 3c ef ac 22 3e
       0.070908524 -0.027552351 0.019410329 0.15886281
000010 86 17 2d 3d 32 77 93 be 1f f0 b6 bc 67 d9 ad bc
       0.04225876 -0.28801876 -0.022331296 -0.02122183
000020 6f 39 d2 3c b5 00 40 3b 96 07 0a bf e9 8d 42 3a
       0.025662152 0.0029297296 -0.53917825 0.0007421659
000030 4b 2e bc 3e b3 61 4f 3e 82 69 e6 3d e9 7b 17 3e
       0.3675407 0.20252113 0.11250593 0.14793362
000040 d8 e0 1f bd f9 67 b5 3d 51 97 24 bd 19 ac 2c bd
       -0.039032787 0.08857722 -0.04018337 -0.042156313
000050 fc 23 1d bf 38 70 5e 3e fa 40 f2 3d de d8 0e bd
       -0.6138303 0.21722496 0.118287995 -0.03487479
000060 08 27 f6 3c 28 7b 3f 3c f0 ef c0 3e 90 44 86 bd
       0.030047908 0.011687078 0.37683058 -0.06556046
000070 87 d4 0e 3c 7e 50 36 3e 90 8e 2d bc 2f 1e 5b 3d
       0.008717663 0.17804143 -0.010593072 0.053495582
000080 69 b0 22 3e 0c 9c 16 3e 56 43 69 3e 09 c0 09 3e
       0.15887608 0.14707965 0.22779593 0.13452162
000090 b3 e7 a8 3d 18 b1 e1 3c 90 53 2e 3e 30 75 5f 3c
       0.08247318 0.027550265 0.17024064 0.0136387795
0000a0 60 53 8c 3d 6e 18 f3 bc 3a 1c f3 3d 4b d9 8f bd
       0.0685184 -0.029674735 0.11870618 -0.07023867
0000b0 b6 d4 d0 3d e6 40 4d bd 93 6d 54 be 06 e9 97 3c
       0.101968214 -0.05011072 -0.20744924 0.018543731
0000c0 40 12 c7 bc 1e 77 35 3d 3e f6 61 be 6b b3 8e 3e
       -0.024300694 0.044303052 -0.2206659 0.2787126
0000d0 76 6f 89 3d 86 81 c1 3d 9f db 5c bf b8 e0 1f bf
       0.067107126 0.09448533 -0.86272615 -0.6245227
0000e0 f5 5a a9 3d 5a c8 cf bb 54 93 21 3d cb ff 16 bf
       0.08269302 -0.0063410224 0.039447144 -0.5898406
0000f0 dd a1 86 3d c7 38 c1 ba 8b f6 8b 3e e5 5e 0d 3e
       0.06573842 -0.0014741652 0.27336535 0.1380573
000100 af 21 35 3e 4e 5f 13 be 93 1b a1 bd 59 77 55 3d
       0.1768863 -0.14391825 -0.078665875 0.052115772
000110 87 4f 1b 3d 96 47 c7 be 12 cf 37 3c 06 82 c4 3d
       0.03791764 -0.38921803 0.011218803 0.095951125
000120 49 c1 01 bd 91 f1 39 3d 0b 95 1e bf 21 44 43 bd
       -0.03167847 0.04539639 -0.6194617 -0.047672395
000130 6f b7 e8 3e c2 d2 68 3c 3e 69 86 3e 92 15 0e 3b
       0.4545245 0.014210405 0.26252168 0.0021680337
000140 b1 bf bc bd d3 24 65 3d d7 49 68 bb 11 c3 77 3d
       -0.0921625 0.05594332 -0.0035444403 0.060488764
000150 fb 60 07 bf cb 93 d6 3c f1 8c 33 3e 39 6f 50 3c
       -0.52882355 0.02619352 0.17534234 0.01272183
000160 13 69 f8 bc ee e7 85 bc 58 c1 8a 3e 3b d8 9b bd
       -0.03032354 -0.016345944 0.27100635 -0.07609602
000170 f5 c1 54 3c 46 1e 2c 3e 0a 7c 34 3d 69 e1 47 3d
       0.012985696 0.16808423 0.044063605 0.048798952
000180 cc 55 69 3e 57 34 60 3e 48 e5 97 3e 33 a9 c4 3d
       0.22786635 0.21894966 0.29667115 0.09602585
000190 c9 fa 7c bd 4b d0 18 3d 36 e2 67 3e 2b 53 3a 3e
       -0.061762605 0.03730802 0.22644886 0.18195789
0001a0 5b b7 67 bd 19 16 18 3d 49 16 ca 3d b0 28 18 3d
       -0.056571346 0.03713045 0.09867532 0.037148178
0001b0 d0 71 68 3e 41 7b 01 3c d0 f3 81 be 41 e4 82 3d
       0.22699666 0.007902921 -0.25381327 0.06391192
0001c0 cb 89 6d bd 85 9a d4 3d b4 a2 62 be 32 8c 17 3e
       -0.057992738 0.10381035 -0.22132379 0.14799574
0001d0 a8 fd c9 3d 12 41 34 3d 0f 53 3d bf 1d 96 2d bf
       0.09862834 0.04400737 -0.7395486 -0.6780718
0001e0 55 58 69 3e 60 f9 77 3d 2a 69 94 3d 1c f5 17 bf
       0.22787602 0.060540557 0.07246621 -0.5935838
0001f0 b9 cf 1e 3d c2 0c 42 ba 7e e2 14 3d 3e c2 72 3e
       0.03877232 -0.0007402414 0.036348812 0.2370691
000200 bc 8d 7f be 78 cc 29 3e 02 90 7d 3e aa d4 ee 3d
       -0.24956411 0.16581905 0.24761966 0.11661656
000210 3a 6f d9 3d 49 37 62 3e 3a 9d 8f bc 15 3b 03 3e
       0.10616918 0.22091402 -0.017531026 0.12815507
000220 04 b2 9b bc 43 f0 77 bc c6 d1 2d 3f 6f e8 96 3e
       -0.019005783 -0.015132966 0.67898214 0.29474208
000230 52 74 91 be d3 f6 96 bb e7 74 aa be 71 88 5a 3f
       -0.28409058 -0.0046070605 -0.33292314 0.85364443
000240 ab 51 1b 3e 67 42 55 3e 26 8f bd 3c 15 c6 11 3f
       0.15167873 0.20826112 0.023139548 0.56942874
000250 c2 df ca 3c a8 ad 94 3e 17 3a 89 be aa 15 de 3c
       0.0247649 0.2903874 -0.26802132 0.02710994
000260 5d ba 26 bd aa a6 c8 3b de e9 1e 3f 2c 69 48 3e
       -0.040705074 0.0061233835 0.62075603 0.1957137
000270 7d 9f d9 3e d5 a5 64 be d7 15 2f be 31 db 20 bd
       0.42504492 -0.22328885 -0.17098175 -0.039271537
000280 fc b2 0f be e1 8c 0c bd 0a 57 b2 be e1 f0 18 3e
       -0.14033121 -0.03431404 -0.3483203 0.14935638
000290 29 2f a1 3e 33 a9 73 bd 59 ad 97 be 9e 24 ea bd
       0.31481293 -0.059487533 -0.2962444 -0.114327654
0002a0 00 75 52 3e 61 93 33 bd 49 58 52 3e 53 cc c6 3d
       0.20552444 -0.043841723 0.2054149 0.097069405
0002b0 7b 07 8e 3e f0 bf b5 3e c2 d4 90 3e a5 43 09 bf
       0.27740082 0.35498 0.2828732 -0.5361884
0002c0 65 2a 9a 3d 53 d5 c6 3e 77 ce 54 3e 2d 7a ac 3e
       0.07527617 0.38834628 0.20781885 0.33686963
0002d0 8b b3 26 3e 6e 67 e3 3c 54 e6 89 3e 44 73 7a 3e
       0.16279428 0.02775928 0.2693354 0.24458033
0002e0 4f 1a 85 3e 96 02 16 3f 88 3a fb 3e 36 a3 8c 3e
       0.25996634 0.58597696 0.49068093 0.2746827
0002f0 8c 1c 54 be 47 41 80 bc 0a e9 69 3e 9d 67 a3 bd
       -0.20714015 -0.015656127 0.22842804 -0.07978747
000300 bb 21 33 3c 0b ac 58 bd 56 42 5e bc f8 db e7 bb
       0.010933335 -0.052898448 -0.01356562 -0.007075783
000310 cb c9 77 bd ad 6b f3 bc 66 42 11 bd f7 da 55 bc
       -0.06049518 -0.02971443 -0.035463713 -0.013052694
000320 1e 74 26 bb 1f 38 06 3d 7f 55 8d 3c a0 89 38 3c
       -0.00253988 0.032768365 0.017252682 0.011263281
000330 ff 1a 66 3b 60 aa c4 bb 13 a6 30 bd 43 b2 a9 3c
       0.0035111306 -0.0060017556 -0.04312713 0.020714885
000340 0f 8e bf bc 53 44 8c bc eb eb 46 bd d5 50 21 bd
       -0.023383169 -0.017122423 -0.048564833 -0.039383728
000350 41 19 00 bd b4 c5 8b 3c 16 08 55 3b 55 7b ae bc
       -0.031274084 0.017062046 0.003250604 -0.021299044
000360 66 55 11 3d 45 8d 2b 3d 9e 93 33 bd a8 77 ca 3c
       0.035481833 0.041882772 -0.04384195 0.02471526
000370 43 ad 3f bd 0b d1 0f bd 96 c8 d9 bc 12 79 54 bc
       -0.046796095 -0.03511147 -0.026584905 -0.012968319
000380 05 b5 3a bd 89 b4 28 bd 4f 51 61 bc 3a ac 2b bc
       -0.04558279 -0.041187797 -0.013752296 -0.010478074
000390 94 77 23 bd 81 7d 20 bd 41 3b e1 3b 47 4a 17 3b
       -0.03990896 -0.03918219 0.0068735187 0.0023085044
0003a0 e3 0c 28 bd 9e 81 0b 3d ec a1 47 bd 42 d8 fd 3b
       -0.041027915 0.03405916 -0.048738405 0.007746727
0003b0 47 d4 e2 bc 73 86 0c bd a7 bc c2 bc 2e a9 3a bd
       -0.027689112 -0.03430791 -0.023771597 -0.0455715
0003c0 97 cf 32 bd 14 84 c5 3c 46 e4 5a bc b7 19 23 bc
       -0.043655004 0.024110831 -0.013360089 -0.009954861
0003d0 65 eb 61 bd 18 41 57 bd 99 a2 84 3c bd 04 52 3b
       -0.05515613 -0.052552313 0.016190814 0.0032046281
0003e0 ff 9e b3 bc 2e 71 01 bd 50 94 e7 ba 83 f3 2c bd
       -0.021926401 -0.031602077 -0.0017668102 -0.04222442
0003f0 79 fb c9 bc 69 5b 31 bd 24 11 94 bc b6 ab e9 ba
       -0.024656044 -0.043300066 -0.01807458 -0.0017827663

layer3.bias f4 [128]
000000 5f 3c c1 3c 87 e8 a1 3d a8 ed dd 3d 0c 80 27 bd
       0.023588357 0.07905679 0.10836345 -0.0408936
000010 6f ec 86 3b d3 4d 59 3e 7f 12 de 3d a7 61 33 bd
       0.0041175405 0.21221094 0.108433716 -0.0437943
000020 e1 ae 86 3c bb eb 0f 3e 64 ef 38 3d 2a aa 88 3e
       0.01644081 0.14054768 0.045150176 0.26692325
000030 b3 2a b0 3d d9 9b 28 bd 86 e7 95 3d 23 cf 8c 3e
       0.08601894 -0.041164253 0.0731955 0.27501783
000040 da 97 c9 3d 2e 51 13 3d e1 fa c3 3d ef 27 d1 3d
       0.098434165 0.03596609 0.09569336 0.10212695
000050 7c a2 47 3e 3a e8 02 3e c1 e5 14 3d af 48 79 bd
       0.19495577 0.127839 0.036351923 -0.060860332
000060 79 09 70 3d fe df d7 3c 45 5b e6 3d 27 31 3a 3e
       0.058602784 0.026351925 0.11247877 0.18182813
000070 d0 d1 13 bd dd 48 a8 bc cb fc 03 3e d8 03 79 bd
       -0.036088765 -0.020542556 0.12889402 -0.06079468
000080 21 7c 12 3e 00 bc 00 3d 15 e2 5c bd 75 b8 cd 3d
       0.14305164 0.03142929 -0.053926546 0.10044948
000090 fe 0d 5f bd 90 22 02 3d 85 0b 2d 3d 96 15 27 3e
       -0.054456703 0.031771243 0.042247314 0.16316828
0000a0 f9 97 94 3c 48 69 41 3e c8 6c c9 3d ec b8 11 3e
       0.018138872 0.18887818 0.098352015 0.14230698
0000b0 31 9e d9 ba 86 82 26 bd 6b 48 da 3d a8 e7 62 3e
       -0.0016602931 -0.04065182 0.10658344 0.22158682
0000c0 62 23 d1 bc 4e 6f db 3d 08 19 72 bd f8 a8 f0 bc
       -0.025529567 0.10714589 -0.059105903 -0.029377446
0000d0 29 34 79 3d d6 50 93 bd 74 f3 9b 3c 31 90 db bc
       0.06084076 -0.071931526 0.019036986 -0.026802154
0000e0 67 d9 02 bd 48 68 92 ba 59 91 e0 bc a4 e5 8e bd
       -0.031945612 -0.0011169994 -0.027413057 -0.06977394
0000f0 f6 6d df bc 4c 8e 2e 3d 85 1a ae bd 92 2f 67 bd
       -0.027274113 0.042616174 -0.08501152 -0.05644185
000100 97 fc 7e 3d 1f e0 62 3e 02 2d 8f 3e bc 50 9a bd
       0.062252607 0.22155808 0.27964026 -0.0753493
000110 26 75 92 3d 55 81 bf 3d 64 72 c2 3d 82 b1 af 3d
       0.071512505 0.0935084 0.094944745 0.08578779
000120 52 69 2f bc 07 88 2b 3d 55 07 d1 3d 15 7d f7 3d
       -0.010706263 0.041877773 0.102064766 0.120844044
000130 3c 82 51 3d 93 49 ad 3d 77 b3 1d 3e 60 c0 a4 3d
       0.05114959 0.08461299 0.15400492 0.08044505
000140 00 d3 ed bc b9 77 db bb be 16 95 3e e7 9f 79 3d
       -0.029031277 -0.0066976217 0.29118913 0.06094351
000150 0b ab 43 3e 10 c6 0b 3d 05 31 a5 bd a2 7d 58 3e
       0.19108216 0.034124434 -0.0806599 0.21141675
000160 44 bd 2e bd 5a f6 db 3d 03 73 06 bd ee db 0a 3e
       -0.042660967 0.10740347 -0.032824527 0.13560459
000170 e6 06 32 bd 8f be 2f bd b4 45 cf 3b a4 73 44 bc
       -0.04346361 -0.04290634 0.006325448 -0.0119904615
000180 fa 80 05 3e ec c7 8a bc c8 6d ad bd 3d b3 32 3c
       0.13037482 -0.016941033 -0.08468205 0.010906992
000190 11 9f 85 3c a1 6a 0e 3e bf 13 54 3d d5 ac 92 3e
       0.0163112 0.13907863 0.051776644 0.28647485
0001a0 15 4b 2d bc 28 dd a2 3e 3f f3 31 3e 63 af ed 3d
       -0.010576983 0.31809354 0.17377947 0.11605718
0001b0 ff f7 33 bd 25 4d d3 3d 72 4a 05 3e 7b 95 c6 bb
       -0.04393768 0.103174485 0.1301668 -0.0060603
0001c0 77 66 75 bd 48 e0 44 bd b5 97 3a bd 7d 0e 9a 3d
       -0.05991217 -0.048065454 -0.045554835 0.07522295
0001d0 31 62 81 3e 2b 12 c4 3c 44 8c 9d 3a cd 97 3c bc
       0.25270227 0.023934444 0.0012019952 -0.0115108015
0001e0 53 84 97 bd 2d 13 de 3b 57 cf 20 bd 54 a9 ca 3c
       -0.07398286 0.0067771883 -0.039260235 0.024738945
0001f0 f3 81 94 bc 22 f1 65 3e 70 c4 3c bd e9 59 42 3e
       -0.01812837 0.22455266 -0.046085775 0.1897961

layer4.weight f4 [64, 128]
000000 1f e6 2b 3e bf 09 62 3e 50 a2 f3 bd c0 0b d3 3b
       0.16787003 0.2207403 -0.11896193 0.0064406097
000010 9e b5 46 3e 88 0b 37 3e 7f 8f 4a 3e 45 4e 90 bc
       0.19405219 0.17875493 0.19781302 -0.017615447
000020 0e 6c 42 3e de 34 2f 3e 65 33 1b 3e d7 61 28 bf
       0.18986532 0.17110011 0.15156324 -0.6577429
000030 8b 77 34 3e 9c 66 dc 3c 57 5f 44 3e 4c 2b d6 be
       0.17623727 0.026904397 0.19176994 -0.41829908
000040 75 89 ea 3d e9 db f7 3d 02 66 1c 3e 38 fe 6e 3e
       0.11451999 0.121024914 0.15273288 0.23339164
000050 59 28 56 3e 60 72 f8 3d f0 e6 11 3e 82 a6 32 bc
       0.20913829 0.1213119 0.14248252 -0.010903956
000060 8e 75 22 3e fd 25 ae 3d 1a 4a 66 3e be da 94 bd
       0.15865156 0.085033394 0.22489205 -0.07268284
000070 c6 b6 06 bd d2 29 c8 3c 12 72 6c 3e c7 a1 bd bc
       -0.03288915 0.024434004 0.2309039 -0.02314843
000080 86 a0 dd 3d 4b cc 27 3e da c4 c3 3c 3e 5e 3d 3e
       0.10821633 0.16386525 0.023897577 0.18492982
000090 91 24 8e 3c cc 2b c2 3d f4 46 2d 3e 7a 50 4d 3e
       0.01735142 0.0948101 0.16921598 0.2005023
0000a0 97 e8 39 3e 70 85 60 3e bd 3b 3b 3e f1 6c e9 3d
       0.18155132 0.21925902 0.18284507 0.11397732
0000b0 7d e6 05 3d ed 41 8a 3c cc 76 71 3e 25 44 01 3e
       0.032690514 0.016877139 0.23580474 0.12623651
0000c0 14 49 ff 3c e0 3a f5 3d b8 f9 92 3b 35 31 24 3c
       0.031162776 0.1197412 0.004485335 0.0100214975
0000d0 81 11 21 3e 78 b7 09 ba 45 40 59 3e 40 5d dc 3c
       0.15729333 -0.0005253474 0.21215923 0.026899934
0000e0 7c 17 17 3c 8d 05 c8 3c 1b 91 04 bc c4 d9 ed bc
       0.009221908 0.02441671 -0.008091236 -0.029034503
0000f0 07 96 33 3b f3 c7 14 3e 21 f2 d3 bc b1 79 f9 ba
       0.0027402656 0.145294 -0.025872292 -0.0019033459
000100 12 8a 62 3e 0c bd 08 3e bf fd f5 be 4f 74 8a bc
       0.22122982 0.13353366 -0.48045155 -0.016901163
000110 55 95 50 3e bd 7b 40 3e de 97 59 3e c9 38 30 3e
       0.20369466 0.18797202 0.21249339 0.17209162
000120 96 65 c2 bc 3c 8a 3b 3e ef 0a 4b 3e 83 2d 5f 3e
       -0.02373008 0.18314451 0.1982839 0.21794705
000130 71 c2 1e 3e 80 af 56 3e 84 bd 4b 3e 76 24 49 3e
       0.15503861 0.20965385 0.19896513 0.19642815
000140 5b a7 63 bd b3 35 29 3e 7e 10 a4 bd 3b 6c 0e 3e
       -0.055579524 0.16524391 -0.08010958 0.13908474
000150 a0 8a 2c 3e 3f 10 4e 3e 9f 26 f1 3c 56 b8 39 3e
       0.16849756 0.20123385 0.029437361 0.18136725
000160 df 9d 96 3b 9b 00 bf 3d 8e 97 c8 bc 1b 5a 83 3e
       0.0045964564 0.09326287 -0.02448633 0.25654683
000170 24 e7 54 3d c6 c8 b1 3b d6 9b d7 bb f4 3f 9d 3c
       0.051978245 0.0054255454 -0.0065798564 0.019195534
000180 ce 38 44 3e b5 c6 9b bc 83 58 aa 3b 03 5c 10 3e
       0.19162294 -0.01901565 0.0051985397 0.140976
000190 bd 6a 23 3e 80 95 7d 3e de 56 1b 3e e2 e2 14 be
       0.15958686 0.24764061 0.15169856 -0.14539674
0001a0 aa 4d 2a 3e 5d e5 0e 3e d4 a7 fe 3d 30 07 38 3e
       0.16631189 0.13954683 0.124343544 0.17971492
0001b0 ff 17 5b 3a 84 4f 37 3e ea 69 2a 3e d5 42 55 3c
       0.00083577627 0.17901427 0.16641966 0.013016422
0001c0 23 2c ba bc de 3a 0a 3c ae 43 44 3b ac 1f 50 3e
       -0.022726124 0.008436887 0.0029947567 0.20324582
0001d0 d4 f0 69 3e ae 76 2d 3e 82 40 52 3e d6 a0 30 bd
       0.22845775 0.16939804 0.2053242 -0.043122135
0001e0 ab 1d 86 3d a6 c4 67 3e d9 c2 2e 3d 34 7f 10 3e
       0.065486275 0.22633609 0.04266629 0.14111024
0001f0 fb 61 db bc f5 03 2d 3e 3d 91 80 3c 1c c9 31 3e
       -0.02678012 0.1689604 0.015694255 0.17361873
000200 0b ca a1 bc eb 35 c7 bc 86 5e bd bd 77 ae be bc
       -0.019749662 -0.024317702 -0.092465445 -0.02327655
000210 a5 7f f2 bb 6b 89 a4 3c 87 2a a8 bc c8 a5 d5 bc
       -0.0074004703 0.020085057 -0.020528091 -0.026080027
000220 7e 88 01 bd 91 05 44 bc 6c b8 07 bd 33 2b cb bd
       -0.03162431 -0.011964218 -0.033134863 -0.09920349
000230 0c d8 12 bc 3f 0d 14 3b d6 94 e1 bc 62 04 0d bd
       -0.008962642 0.0022590903 -0.02753679 -0.034428008
000240 0c b1 d8 ba b3 dd 59 bc f1 64 71 bc 50 ee f4 bb
       -0.0016532256 -0.013297486 -0.014733539 -0.007474698
000250 48 72 94 bc b9 c8 1b 3d f4 05 e5 bb ae 3a 8a 3c
       -0.0181209 0.03803322 -0.006989235 0.016873684
000260 67 ca 4f 3c 85 28 94 bd 1d e2 6a bd 4d ba f0 bd
       0.012682534 -0.07234291 -0.057344545 -0.11754284
000270 b5 d0 51 3d 7d 74 85 3c 92 50 f5 3c b6 e1 f0 3c
       0.05122443 0.016290898 0.029945645 0.029404502
000280 a1 da 20 bd fb ce a0 3c 3e de 4a 3b ce b4 fb 3a
       -0.039271 0.019629946 0.003095522 0.0019203664
000290 da b8 3e bd b2 b0 95 bc 7d 9e d3 3c fa 06 93 bc
       -0.046563007 -0.018272731 0.025832409 -0.017947663
0002a0 e7 2b 6b bc 37 1b 4b bc a0 51 ba 3b 6a a3 16 bd
       -0.014353729 -0.012396625 0.005686 -0.036776938
0002b0 24 15 ee 3c ce c9 ff bc f7 e9 a2 bc a1 5f 0a 3d
       0.029062815 -0.031224158 -0.019886954 0.033782605
0002c0 85 99 95 3c 62 98 de bb a4 ce 97 bc c8 6d 01 bd
       0.01826168 -0.006793068 -0.018531151 -0.031598836
0002d0 94 a2 1a 3c 12 a2 fd 3c 0e 86 be bb 55 bc f9 bc
       0.009438176 0.03096107 -0.0058143204 -0.030485312
0002e0 12 a9 4c 3b 79 77 71 3c 3b 2d d5 bc 2d b0 84 3c
       0.0031228703 0.014737957 -0.026022544 0.016197288
0002f0 77 d9 10 3c 38 a0 28 bd 90 d3 c9 3a 0d d0 c6 bb
       0.00884091 -0.04116842 0.0015398134 -0.006067282
000300 23 86 40 3c 7d c3 6c bb d5 36 34 be cf b5 7e bc
       0.011750731 -0.0036127262 -0.17599042 -0.015546276
000310 dd a4 89 3b 25 67 d5 bc 38 96 45 3c ee 61 05 bb
       0.0042005614 -0.02605016 0.012059741 -0.002035256
000320 71 89 88 bc 56 d3 12 bc f7 40 04 bc ea 5a eb 3b
       -0.0166671 -0.008961519 -0.008072129 0.0071824687
000330 fa 43 2b 3c 02 57 87 bb 6c fa de bc c5 39 1a 3c
       0.010453219 -0.004130245 -0.02721902 0.009413187
000340 cd 33 c2 bb 9d ae bc bc 6a a6 d0 bd 7e 8e 9f bc
       -0.0059265853 -0.02303248 -0.10187991 -0.019477125
000350 0c fe 09 be c4 c1 3d bb 11 bf 48 3b 2f 1d b2 39
       -0.13475817 -0.0028954605 0.0030631463 0.0003397255
000360 c6 fe 3d bc bf 8c eb 3c 5e d4 ec bc c0 d6 a4 3c
       -0.011596387 0.028753636 -0.028909858 0.020121932
000370 bf 1a 19 be 44 8f b4 bb 46 80 c4 bb 93 91 aa 3c
       -0.14951609 -0.0055102427 -0.0059967367 0.020821368
000380 ec 88 f6 3b 82 05 19 ba 4a 9d 7b bc ec 17 b6 b9
       0.0075236466 -0.00058373075 -0.015357325 -0.00034731568
000390 e2 42 5a bc 91 0c 95 3c c8 1e 34 3c eb 77 3d be
       -0.01332161 0.018194469 0.010993667 -0.18502776
0003a0 f6 f0 33 3c cb c4 04 bb a3 21 42 bc 10 74 bb bc
       0.0109827425 -0.00202589 -0.01184884 -0.022882491
0003b0 81 c2 16 3d 8f e0 78 3c 81 25 f3 3b 3d 19 00 bd
       0.036806587 0.015190258 0.0074202423 -0.03127407
0003c0 a7 c7 eb 3b 59 70 36 3d 12 fa b0 bc 4b aa 9b 3b
       0.0071954313 0.044540737 -0.021603618 0.004750525
0003d0 28 e8 29 bd 65 86 07 bd cc 30 2d bd 99 56 b6 bc
       -0.041481167 -0.033087153 -0.042282864 -0.02225809
0003e0 e7 99 01 bd 36 75 96 bc c9 ee 82 3b 99 4b 2e bd
       -0.031640913 -0.018366437 0.0039957506 -0.042552564
0003f0 b1 c9 30 bd a5 93 d8 3c 88 0b 0c 3b cd 99 05 bc
       -0.043161098 0.02643759 0.0021369178 -0.008154345
