lunar_4.pth (torch, 84411 bytes, 14 tensors)

network_arch.0.weight f4 [64, 8]
0.25341386 0.1070613 0.20722628 0.30494985 0.32306528 -0.081218496 0.32401097 -0.16601399
-0.06637113 -0.33659396 0.13975161 -0.051664576 0.06396677 -0.29505047 0.25990334 -0.09731113
-0.082673736 0.17815228 0.2778941 -0.35159376 0.019745251 0.33747378 0.12639801 -0.25834715
-0.16010736 -0.31085247 0.30722624 -0.31989533 0.28932288 0.23025645 0.20271331 0.09305337
-0.009250854 0.03481983 -0.110347025 0.22651596 0.119593576 -0.34065446 0.16573991 0.06229085
-0.29479212 0.03693619 0.35354614 -0.012097241 0.34195778 0.32342994 0.06999727 -0.306294
-0.24572721 -0.2552586 0.14621298 -0.015853578 0.32668763 0.043294083 -0.031124605 0.21812335
0.34635884 0.21091788 0.11710008 0.1663266 0.14012967 0.12039036 -0.12527312 0.13806982
0.12467358 0.22751121 0.07831255 0.18940705 0.19699849 0.27562082 -0.11316585 -0.031136785
0.056221113 0.31303626 0.2306772 0.16620348 -0.29262552 -0.28749347 0.02662075 -0.045087054
-0.2623785 0.3324711 -0.3306416 -0.2531024 -0.3510629 -0.3361661 0.20657068 0.2587692
-0.10314282 0.007205383 0.15553856 0.26987833 0.14047216 -0.12480895 -0.23926693 0.29568514
0.042902835 0.12357005 -0.07789863 -0.21880414 -0.18435027 -0.2742322 0.12136699 0.12183465
0.16531718 0.2222128 -0.23799478 0.009023598 -0.14959332 -0.26683426 -0.1758313 -0.21198305
-0.040154736 0.33681065 -0.23833562 0.31646153 -0.2161802 -0.23502971 -0.24607496 0.1314411
-0.21800563 -0.3368923 -0.025957359 0.14683937 -0.048969157 0.32976705 -0.24938273 -0.27796546
0.3367397 -0.27202722 -0.09459831 0.115970634 -0.32897174 0.122870535 0.090645395 -0.04838492
-0.33648083 0.09735239 -0.09052464 0.16194922 0.08353109 0.3246523 -0.25170106 0.027516454
0.15454207 -0.08446498 0.14962709 0.15511991 -0.09404585 0.3283395 -0.19573507 0.051947463
0.24076286 0.31227496 0.32213157 0.12854889 -0.22386555 0.033980265 0.04429937 -0.108999714
0.17860767 0.18226261 -0.2808162 -0.24303862 0.04728299 0.10019435 0.011373369 -0.003948949
-0.15378234 -0.20172413 -0.10377692 0.31584924 -0.3375179 -0.04069906 0.027529815 -0.013151544
0.17744704 -0.29771796 0.044538554 -0.27581888 -0.20141587 0.17768349 -0.3392391 0.1795046
0.20659874 -0.1981811 0.08444576 -0.31431034 0.16246472 0.24136193 0.16610292 0.05776921
-0.26588622 -0.28851497 -0.29451582 0.012070183 -0.3457392 -0.037459485 -0.35313872 -0.04592173
-0.19794844 -0.34402144 -0.08105686 -0.34693933 -0.304206 0.1025311 0.11003935 -0.29267615
0.32083234 0.14064513 0.065855585 -0.3458931 -0.0011257845 0.31664953 -0.1533076 -0.341977
0.13690762 -0.030846562 0.19065864 -0.005427966 -0.15354358 -0.27051267 0.1709936 -0.3381433
-0.20388374 -0.22577982 -0.051560767 0.09663429 0.18439402 -0.26814136 -0.16615623 -0.22775576
0.29584694 0.25405943 0.06012033 -0.1569315 -0.0036870905 0.31502965 -0.09880861 0.31911847
0.05247856 -0.31505397 -0.13294157 -0.26876083 -0.10542178 0.16029863 0.14852268 0.21326213
-0.30880776 -0.12943381 -0.081860304 0.29101387 -0.3235303 0.3358606 0.16475414 0.16336776
00000000: 76bf 813e f442 db3d 2033 543e 6322 9c3e
00000010: d068 a53e e255 a6bd c4e4 a53e 92ff 29be
00000020: 96ed 87bd 0b56 acbe 0c1b 0f3e 3c9e 53bd
00000030: 0301 833d db10 97be 0d12 853e 0f4b c7bd
00000040: d950 a9bd 8d6d 363e 2348 8e3e 1904 b4be
00000050: cbc0 a13c 5dc9 ac3e 7b6e 013e 1446 84be
00000060: 2ff3 23be 0e28 9fbe c24c 9d3e 52c9 a3be
00000070: 2122 943e 59c8 6b3e 1494 4f3e c492 be3d
00000080: e590 17bc 3d9f 0e3d 9ffd e1bd cdf3 673e
00000090: 7aed f43d 436a aebe b9b7 293e b124 7f3d
000000a0: feee 96be 674a 173d 0004 b53e 8233 46bc
000000b0: 1715 af3e 9c98 a53e bb5a 8f3d 91d2 9cbe
000000c0: ea9f 7bbe 41b1 82be dbb8 153e 5ddf 81bc
000000d0: 9a43 a73e 2355 313d 07f9 febc ba5b 5f3e
000000e0: f255 b13e dbfa 573e 2bd2 ef3d 8551 2a3e
000000f0: 277e 0f3e 398f f63d 9947 00be 2d62 0d3e
00000100: dd54 ff3d b3f8 683e 5562 a03d ecf3 413e
00000110: f9b9 493e 2c1e 8d3e 7fc3 e7bd 9212 ffbc
00000120: 1c48 663d 4a46 a03e a536 6c3e 3f31 2a3e
00000130: 03d3 95be 5832 93be c213 da3c 34ad 38bd
00000140: 7a56 86be a739 aa3e db49 a9be a396 81be
00000150: 84be b3be f71d acbe 4487 533e 667d 843e
00000160: 8b3c d3bd 221b ec3b 8045 1f3e 7e2d 8a3e
00000170: efd7 0f3e d69b ffbd 6402 75be 0b64 973e
00000180: e2ba 2f3d 4b12 fd3d 5189 9fbd 310e 60be
00000190: 51c6 3cbe 2a68 8cbe 428f f83d 7284 f93d
000001a0: e848 293e c18b 633e e7b4 73be b7d7 133c
000001b0: fe2e 19be 809e 88be 1f0d 34be 1612 59be
000001c0: 4b79 24bd 7272 ac3e 410e 74be 3f07 a23e
000001d0: 585e 5dbe a1ab 70be 13fb 7bbe 7f98 063e
000001e0: de3c 5fbe 267d acbe 87a4 d4bc 0f5d 163e
000001f0: e293 48bd 3ad7 a83e 305e 7fbe 7d51 8ebe
00000200: 2569 ac3e 2747 8bbe c2bc c1bd 0382 ed3d
00000210: fc6e a8be 8ca3 fb3d 4ba4 b93d 442f 46bd
00000220: 3747 acbe b160 c73d fc64 b9bd 04d6 253e
00000230: 5912 ab3d d438 a63e f6de 80be 306a e13c
00000240: 4740 1e3e fafb acbd d837 193e c1d7 1e3e
00000250: 1c9b c0bd 1d1c a83e c66e 48be ddc6 543d
00000260: 8a8a 763e 81e2 9f3e 6eee a43e 52a2 033e
00000270: 033d 65be e42e 0b3d 4273 353d 3e3b dfbd
00000280: eee4 363e 0da3 3a3e 24c7 8fbe 1edf 78be
00000290: cfab 413d b232 cd3d 5e57 3a3c 2f66 81bb
000002a0: 1e79 1dbe c590 4ebe fe88 d4bd feb6 a13e
000002b0: 25cf acbe 0fb4 26bd 3586 e13c 9379 57bc
000002c0: adb4 353e 7d6e 98be 0f6e 363d 2238 8dbe
000002d0: f63f 4ebe a9f2 353e bfb0 adbe 0ed0 373e
000002e0: 9f8e 533e fcef 4abe e6f1 ac3d 49ed a0be
000002f0: 275d 263e 9527 773e e216 2a3e 689f 6c3d
00000300: 3d22 88be 3cb8 93be c7ca 96be 04c2 453c
00000310: ba04 b1be 1e6f 19bd 99ce b4be 6d18 3cbd
00000320: ffb2 4abe 9423 b0be 2401 a6bd 08a2 b1be
00000330: e4c0 9bbe d3fb d13d 505c e13d a6d9 95be
00000340: 2344 a43e 4705 103e 4bdf 863d e718 b1be
00000350: 0f8f 93ba e31f a23e abfc 1cbe 9c17 afbe
00000360: 8331 0c3e eeb1 fcbc 053c 433e 14dd b1bb
00000370: 873a 1dbe a380 8abe f218 2f3e 1e21 adbe
00000380: e6c6 50be d332 67be 6231 53bd 33e8 c53d
00000390: c9d1 3c3e d349 89be dc24 2abe ce38 69be
000003a0: 4079 973e 1414 823e bc40 763d a7b2 20be
000003b0: 1da3 71bb 914b a13e 2b5c cabd 7f63 a33e
000003c0: c2f3 563d c14e a1be d621 08be 059b 89be
000003d0: 60e7 d7bd 5325 243e 5416 183e 6361 5a3e
000003e0: 0d1c 9ebe 4c8a 04be 60a6 a7bd c5ff 943e
000003f0: c3a5 a5be ecf5 ab3e 4fb5 283e e149 273e

network_arch.0.bias f4 [64]
-0.086456716 -0.1890099 0.21940427 0.01079406 -0.2582146 -0.3223693 -0.29000774 0.09702242
-0.29306108 0.32514465 0.28811395 -0.30955562 -0.1949929 0.27013078 0.20834671 -0.17173429
0.14197916 0.11427009 0.055663344 -0.16052218 0.33672014 0.29103604 0.33822095 -0.34091523
-0.3285457 -0.08964622 0.2260647 0.26260874 -0.0061399527 0.06617439 0.032745697 0.16509347
0.02325444 -0.31548828 -0.15909052 0.09231997 -0.20484948 0.060878634 0.29628497 -0.24543417
-0.068172105 -0.070744246 0.06758757 -0.042244714 -0.081364155 -0.26264465 0.33419472 0.13931249
0.2389516 -0.12791063 0.24010469 0.25046265 0.17826267 -0.32776073 -0.23317958 -0.1529478
0.011483035 0.11249626 -0.010607645 0.009714848 -0.25092968 0.15915342 -0.13223182 -0.18989524
00000000: 3810 b1bd d08b 41be 83ab 603e 92d9 303c
00000010: b434 84be 970d a5be e57b 94be b1b3 c63d
00000020: 1a0c 96be 5c79 a63e ac83 933e 137e 9ebe
00000030: 38ac 47be 954e 8a3e d758 553e 1ddb 2fbe
00000040: fc62 113e 7006 ea3d 3fff 633d ed5f 24be
00000050: 9566 ac3e ad02 953e 4c2b ad3e 718c aebe
00000060: 2437 a8be 7098 b7bd 817d 673e a774 863e
00000070: a831 c9bb 7086 873d 5a20 063d 430e 293e
00000080: 1880 be3c ae87 a1be a0e8 22be 4112 bd3d
00000090: 10c4 51be e05b 793d aab2 973e 1853 7bbe
000000a0: d19d 8bbd 5ce2 90bd 5a6b 8a3d cb08 2dbd
000000b0: 40a2 a6bd 5c79 86be 921b ab3e efa7 0e3e
000000c0: baaf 743e 01fb 02be 01de 753e a43c 803e
000000d0: 7d8a 363e 41d0 a7be a1c6 6ebe 599e 1cbe
000000e0: 5723 3c3c 7064 e63d b0cb 2dbc 072b 1f3c
000000f0: db79 80be 1df9 223e c767 07be e673 42be

network_arch.2.weight f4 [4, 64]
0.03257385 0.073514655 0.021171331 -0.07088557 -0.00451082 -0.05723445 0.013812095 -0.06977177
0.11004093 -0.10376692 -0.0022734106 0.051836163 0.020960331 -0.03758906 -0.04451038 0.118871644
0.12275569 -0.111377135 0.11939046 0.044572636 0.08371368 0.032937557 -0.11683144 -0.0024480522
0.069141015 -0.08962485 0.08659522 0.021879211 0.05741808 -0.09306896 0.035329968 0.119547844
-0.1109779 -0.113071874 -0.02986762 -0.0043894947 -0.031848058 0.054932952 -0.005582303 -0.060151294
-0.025134727 0.062985435 -0.01762183 0.048361033 -0.007700205 0.038404778 0.10470387 0.08159363
0.0889017 0.08136645 -0.08008282 -0.049176306 -0.084995076 0.018777505 0.012084693 0.024627015
0.09853698 -0.08821975 0.07389632 -0.0007459223 -0.09660709 -0.044809 -0.071294576 0.11373341
0.073267 0.11801125 -0.11250569 -0.0034047365 0.08336097 0.035443142 -0.07287127 0.11327705
0.08980259 0.03951469 0.066323295 -0.09003925 -0.058056504 0.057870835 -0.105273336 0.035462245
0.07106936 0.017778277 0.053643987 -0.11734258 -0.033974648 -0.012379438 -0.024810106 -0.124205485
0.0748083 -0.051281914 0.07085174 0.113520116 0.06686796 0.061562672 -0.03445734 -0.08689262
0.0902098 -0.03170933 0.006662011 0.11992708 -0.017202973 0.11834845 0.005120933 -0.07143751
-0.007849485 -0.041879743 -0.019776136 0.082950324 0.09812428 0.051156417 0.04953061 0.10495399
-0.066536695 -0.03591332 -0.018982798 -0.06746583 -0.055274144 0.08518714 0.012950659 -0.08645092
-0.10335526 -0.09253962 0.098355204 -0.036746576 0.023443952 -0.03546381 -0.12147188 -0.09904626
-0.102277264 0.12301794 -0.09679648 -0.05460407 0.11483659 -0.122118115 0.0546588 0.07748258
0.09819126 -0.010212868 0.08481301 0.10033959 -0.033875316 -0.02537027 -0.022246882 -0.0839217
0.042881787 -0.11741018 -0.07557823 -0.0397916 -0.060420617 -0.043613747 -0.0373749 0.116899535
-0.028389007 -0.03584422 -0.05300194 -0.062036768 0.051523656 0.05948399 0.10076551 -0.089847416
-0.00074103475 0.015675247 -0.06786743 0.034590006 0.08457866 -0.10085319 0.123678 0.09321925
0.113998204 -0.085119784 0.020401224 -0.091103286 0.015134305 0.07612181 -0.08448996 0.006047711
-0.123425275 0.06590606 0.08674951 0.0058699995 -0.10656251 0.085517064 0.02050823 -0.049917817
-0.040811732 0.05215703 -0.038209602 0.07475425 -0.08134481 -0.114184156 -0.094511524 0.03627467
-0.06925017 -0.005374193 0.08831471 0.033997864 -0.025081888 0.10874711 -0.09198016 -0.05628632
-0.0011596233 -0.06981182 0.031141102 -0.00082555413 -0.118733674 0.079430655 0.09360872 -0.061922833
0.049304917 -0.09421824 -0.00044494867 0.105110794 0.016730174 0.11622286 0.047670096 -0.09889814
-0.024365082 -0.06444885 0.100509495 0.09103732 -0.01723972 0.08238478 0.058438882 -0.045579776
-0.042663053 -0.014396936 0.092723355 -0.07891387 -0.016168699 -0.12144646 0.11111182 0.05385621
0.118842795 0.017260835 -0.09666422 -0.08692853 0.037844867 0.06988259 0.113530576 -0.025323361
0.006628692 -0.06356387 0.02545935 0.113031715 0.106506094 0.0064964145 -0.06399281 -0.05970703
0.013720289 -0.041031927 0.08776477 -0.013330847 0.0058054477 -0.09239833 0.044831634 -0.09992425
00000000: 286c 053d da8e 963d 806f ad3c 742c 91bd
00000010: 80cf 93bb ac6e 6abd 204c 623c 80e4 8ebd
00000020: 245d e13d c083 d4bd 80fd 14bb 2852 543d
00000030: 00b5 ab3c fcf6 19bd 8450 36bd fa72 f33d
00000040: 5667 fb3d b219 e4bd fc82 f43d cc91 363d
00000050: 1472 ab3d 88e9 063d 5245 efbd 806f 20bb
00000060: ce99 8d3d 3c8d b7bd d658 b13d 083c b33c
00000070: 382f 6b3d f09a bebd 28b6 103d 80d5 f43d
00000080: 6248 e3bd 3a92 e7bd f0ac f4bc c0d5 8fbb
00000090: 1c73 02bd 6001 613d c0eb b6bb 3461 76bd
000000a0: 58e7 cdbc 82fe 803d a85b 90bc 3816 463d
000000b0: 0052 fcbb 544e 1d3d fc6e d63d 901a a73d
000000c0: 1812 b63d 74a3 a63d 7602 a4bd 186d 49bd
000000d0: e611 aebd 48d3 993c e0fe 453c 98be c93c
000000e0: c2cd c93d 8eac b4bd f456 973d 008a 43ba
000000f0: f0d9 c5bd a489 37bd e402 92bd 10ed e83d
00000100: 020d 963d e2af f13d 6269 e6bd 0022 5fbb
00000110: 28b9 aa3d d42c 113d 883d 95bd ccfd e73d
00000120: 6cea b73d 28da 213d 82d4 873d 8066 b8bd
00000130: a8cc 6dbd f809 6d3d 8c99 d7bd dc40 113d
00000140: d08c 913d c0a3 913c ccb9 5b3d 4e51 f0bd
00000150: 0029 0bbd 20d3 4abc 903e cbbc 725f febd
00000160: 1835 993d fc0c 52bd b81a 913d 3c7d e83d
00000170: 12f2 883d 2429 7c3d 2423 0dbd c2f4 b1bd
00000180: eabf b83d a4e1 01bd 004d da3b 549c f53d
00000190: 40ed 8cbc ac60 f23d 80cd a73b d44d 92bd
000001a0: 209b 00bc 188a 2bbd 9001 a2bc dce1 a93d
000001b0: 62f5 c83d 6489 513d 9ce0 4a3d 1ef2 d63d
000001c0: 6444 88bd d819 13bd d081 9bbc 862b 8abd
000001d0: 2467 62bd 9876 ae3d 002f 543c 2e0d b1bd
000001e0: ecab d3bd 6a85 bdbd 746e c93d 9483 16bd
000001f0: 880d c03c 8042 11bd 40c6 f8bd c4d8 cabd
00000200: be76 d1bd d4f0 fb3d 3c3d c6bd 84a8 5fbd
00000210: 722f eb3d 1019 fabd e8e1 5f3d 30af 9e3d
00000220: 8018 c93d e053 27bc 72b2 ad3d d87e cd3d
00000230: d8c0 0abd 50d5 cfbc 183f b6bc 24df abbd
00000240: d0a4 2f3d c074 f0bd c2c8 9abd 84fc 22bd
00000250: 9c7b 77bd 54a4 32bd 6c16 19bd 0669 ef3d
00000260: 1090 e8bc 64d1 12bd 9018 59bd 441a 7ebd
00000270: 780a 533d 7ca5 733d 265e ce3d ec01 b8bd
00000280: 0042 42ba 6069 803c 14fe 8abd 40ae 0d3d
00000290: 9437 ad3d 1e8c cebd e44a fd3d bce9 be3d
000002a0: e477 e93d 4853 aebd 7820 a73c 5c94 babd
000002b0: e0f5 773c c0e5 9b3d 1209 adbd e02b c63b
000002c0: 64c6 fcbd c2f9 863d baa9 b13d 2059 c03b
000002d0: 723d dabd 9223 af3d e000 a83c a076 4cbd
000002e0: 342a 27bd 9ca2 553d ac81 1cbd c218 993d
000002f0: 1c98 a6bd 62d9 e9bd 428f c1bd c094 143d
00000300: 08d3 8dbd 001a b0bb 58de b43d 5841 0b3d
00000310: 8878 cdbc ceb6 de3d 1860 bcbd 7c8c 66bd
00000320: 80fe 97ba 80f9 8ebd a01b ff3c 006a 58ba
00000330: a42a f3bd 8aac a23d eeb5 bf3d cca2 7dbd
00000340: f4f3 493d 7ef5 c0bd 0048 e9b9 5444 d73d
00000350: b80d 893c 4006 ee3d b841 433d 1c8b cabd
00000360: 4899 c7bc c2fd 83bd ecd7 cd3d c671 ba3d
00000370: 503a 8dbc 5ab9 a83d 9c5d 6f3d dcb1 3abd
00000380: 74bf 2ebd 20e1 6bbc bee5 bd3d 989d a1bd
00000390: 3874 84bc ecb8 f8bd 988e e33d 5498 5c3d
000003a0: da63 f33d 9866 8d3c e4f7 c5bd 9607 b2bd
000003b0: 3803 1b3d 9a1e 8f3d b882 e83d f072 cfbc
000003c0: 8035 d93b c62d 82bd 2090 d03c 2c7d e73d
000003d0: de1f da3d e0df d43b aa0e 83bd 5c8f 74bd
000003e0: 10cb 603c 1811 28bd 04be b33d a069 5abc
000003f0: a03b be3b 563b bdbd 60a1 373d 16a5 ccbd

network_arch.2.bias f4 [4]
0.057211295 0.027154803 -0.03633122 -0.026737481
00000000: 6456 6a3d c073 de3c 0cd0 14bd 9008 dbbc

layer1.weight f4 [32, 8]
-0.07430721 -0.09560866 0.49946618 0.9054295 -0.38226596 -0.029681597 -0.017744426 -0.050887544
0.2839445 0.04745062 -0.75709045 -0.0074351663 0.008399463 0.1132038 -0.06568329 -0.38109282
-0.356727 0.1476315 -0.13513692 0.3495293 -0.14079687 -0.18300574 0.12771848 -0.5860563
-0.35627145 -0.067112915 -0.27346444 0.002118108 0.1240477 -0.2876895 -0.8389468 -0.1970788
-0.09285494 0.22248551 0.0942012 -0.25891566 -0.17243184 -0.1240543 -0.95313805 -0.017882308
-0.10010625 0.36813098 0.34745824 -0.11333221 -0.17993869 -0.6324697 -0.09477898 -0.4222261
-0.16440839 0.08372236 -0.49792153 0.19515383 0.7048056 0.5863647 0.03612149 -0.44639936
0.41061562 -0.14910994 0.16649565 -1.020307 0.27008682 0.024733959 -0.023047328 0.04207778
-0.92267734 0.013909958 -0.45134112 0.05309799 0.8595413 0.50589067 0.14891444 -0.18615156
-0.36789098 -0.24629061 -0.40710753 -0.9602593 -0.07582786 -0.005397897 0.1457975 0.070935495
-0.59572035 0.09101086 -0.73785317 0.0536185 0.091786474 -0.17830007 -0.049471613 0.17338021
0.14899804 -0.02880692 -0.1404624 0.0836129 0.10650271 0.8523571 0.64372313 -0.27686363
0.815927 0.093611926 0.6411964 -0.0042530196 -0.8065275 -0.43884555 -0.21662693 0.09433603
-0.4893467 0.07807048 -0.44157106 -0.0012445268 0.7949387 0.683495 -0.13356638 -0.4014877
-0.35596853 0.051543724 0.30406773 -0.22789572 0.25529087 0.20425807 0.37512577 -1.3027854
-0.037563853 -0.071820565 -0.034846626 0.0046424693 -0.031139558 0.027124908 -0.05223947 -0.023844723
-0.11801352 -0.14129339 0.4691453 1.3230593 -0.054558158 -0.06740344 0.532834 0.17115286
-0.19796862 -0.053997178 0.09953707 -0.16499425 -0.43808547 0.28815025 -0.16669185 -0.0524693
-0.14327146 0.039889093 -0.20308442 0.9237322 -0.94487023 -0.03755183 0.09867309 0.32426724
0.09605878 -0.17917901 0.029460778 -0.56320316 0.18178752 0.26485625 0.49389315 0.31423283
0.48923817 -0.011945302 0.24957967 0.10206859 -0.22958592 0.70206296 0.003402036 -0.21956581
-0.041297827 0.12610836 -0.7094981 -0.57917106 -0.5241764 0.5245336 0.020716224 0.029621392
-0.27735177 -0.029940162 -0.16636972 -0.2806941 0.6680813 1.0625149 0.10947222 -0.7270819
0.06856312 0.03186814 -0.41751722 0.68131834 -0.8502414 0.009709851 0.33041903 -0.8358942
-0.05962146 0.4297252 0.02340758 -0.25216264 0.42314935 0.5141661 -0.6153459 -0.012516873
-0.14200647 -0.5039407 0.09695531 0.326939 -0.47234023 -0.05276007 -0.18509275 -0.29019836
-0.06222803 0.26364237 0.3245603 -0.59560376 0.32406196 0.08157446 0.020830596 -0.47801912
-0.04098828 0.35357562 0.11002581 -0.046132527 -0.059264828 -0.23098657 -0.42448846 -0.6394574
-0.119347215 -0.20933115 -0.4306777 1.1881196 0.10304272 0.25101385 0.14714769 0.30082983
-0.08607372 0.40209562 0.29886985 -0.27493292 -0.012341011 0.59848523 -0.54213446 -0.42994598
0.47837272 0.058064755 -0.2375659 0.67682725 0.49610445 0.20046394 -0.03979511 0.3969907
0.14687283 -0.1588916 0.2173728 -0.09606643 -0.31924987 -0.98759025 -0.4266501 0.2883039
00000000: 612e 98bd 79ce c3bd 08ba ff3e 3aca 673f
00000010: 5db8 c3be d226 f3bc c25c 91bc 756f 50bd
00000020: 2c61 913e 955b 423d aed0 41bf b2a2 f3bb
00000030: e79d 093c 65d7 e73d f684 86bd 991e c3be
00000040: eca4 b6be b62c 173e 5561 0abe 81f5 b23e
00000050: 0e2d 10be db65 3bbe a2c8 023e c907 16bf
00000060: 3669 b6be 7f72 89bd 8803 8cbe f5cf 0a3b
00000070: b80c fe3d 0a4c 93be 38c5 56bf 06cf 49be
00000080: bb2a bebd 3ed3 633e 8fec c03d 9890 84be
00000090: f991 30be 2e10 febd db00 74bf eb7d 92bc
000000a0: 8104 cdbd aa7b bc3e 0ce6 b13e b81a e8bd
000000b0: d941 38be 89e9 21bf 7b1b c2bd 052e d8be
000000c0: ac5a 28be a176 ab3d 92ef febe 68d6 473e
000000d0: 246e 343f ff1b 163f 21f4 133d 758e e4be
000000e0: 363c d23e 47b0 18be d67d 2a3e 6b99 82bf
000000f0: d248 8a3e df9e ca3c c0cd bcbc c059 2c3d
00000100: 9534 6cbf 98e6 633c 2f16 e7be 477d 593d
00000110: e60a 5c3f 0d82 013f 077d 183e 849e 3ebe
00000120: 355c bcbe 9b33 7cbe 6670 d0be 8ed3 75bf
00000130: a34b 9bbd d8e0 b0bb f14b 153e a146 913d
00000140: 2181 18bf e763 ba3d f2e3 3cbf 129f 5b3d
00000150: 8cfa bb3d 4b94 36be bfa2 4abd 958a 313e
00000160: f192 183e 7dfc ebbc 60d5 0fbe 3d3d ab3d
00000170: 181e da3d 1334 5a3f 0acb 243f 12c1 8dbe
00000180: 98e0 503f 9cb7 bf3d 7325 243f ea5c 8bbb
00000190: 9678 4ebf 5db0 e0be 73d3 5dbe 4033 c13d
000001a0: a78b fabe 6ae3 9f3d 9a15 e2be 641f a3ba
000001b0: 1a81 4b3f 87f9 2e3f a0c5 08be cc8f cdbe
000001c0: 8241 b6be 831f 533d c4ae 9b3e 7f5d 69be
000001d0: 7cb5 823e 0729 513e 7c10 c03e acc1 a6bf
000001e0: 8edc 19bd a916 93bd 56bb 0ebd db1f 983b
000001f0: 6318 ffbc 0e35 de3c 0ef9 55bd 0256 c3bc
00000200: 13b1 f1bd 37af 10be d033 f03e 025a a93f
00000210: 6078 5fbd d10a 8abd cf67 083f b242 2f3e
00000220: 49b8 4abe 252c 5dbd 17da cb3d 41f4 28be
00000230: bd4c e0be 6e88 933e 45b1 2abe 0cea 56bd
00000240: c1b5 12be bf62 233d 5df5 4fbe b779 6c3f
00000250: 04e3 71bf f3cf 19bd 1e15 ca3d 5b06 a63e
00000260: 77ba c43d b47a 37be bb57 f13c 152e 10bf
00000270: 8226 3a3e 3d9b 873e 90df fc3e 20e3 a03e
00000280: 6d7d fa3e 3ab6 43bc d091 7f3e 5609 d13d
00000290: 9218 6bbe 66ba 333f b1f4 5e3b dcd5 60be
000002a0: e927 29bd 8d22 013e aba1 35bf 8e44 14bf
000002b0: 6d30 06bf d647 063f 12b5 a93c 90a8 f23c
000002c0: 0d01 8ebe 1245 f5bc d35c 2abe 23b7 8fbe
000002d0: 6007 2b3f 7d00 883f f932 e03d 0a22 3abf
000002e0: d26a 8c3d 2b88 023d d1c4 d5be e16a 2e3f
000002f0: 6ca9 59bf 1116 1f3c af2c a93e 2afd 55bf
00000300: a235 74bd f104 dc3e 41c1 bf3c 761b 81be
00000310: 08a7 d83e 64a0 033f 4f87 1dbf 9213 4dbc
00000320: 256a 11be 4202 01bf 8190 c63d 8c64 a73e
00000330: 94d6 f1be f11a 58bd f488 3dbe e194 94be
00000340: d2e2 7ebd 22fc 863e c52c a63e 7d79 18bf
00000350: 73eb a53e 8310 a73d eda4 aa3c ecbe f4be
00000360: 54e3 27bd dd07 b53e 3655 e13d 76f5 3cbd
00000370: adbf 72bd be87 6cbe 8d56 d9be 7bb3 23bf
00000380: 506c f4bd e85a 56be ca81 dcbe 4e14 983f
00000390: 1008 d33d e384 803e e2ad 163e 5e06 9a3e
000003a0: 6b47 b0bd 7adf cd3e 7805 993e 02c4 8cbe
000003b0: f431 4abc 5436 193f 53c9 0abf e121 dcbe
000003c0: 45ed f43e 4fd5 6d3d 7a44 73be 8d44 2d3f
000003d0: 6701 fe3e 6b46 4d3e 3200 23bd 5d42 cb3e
000003e0: d565 163e 7bb4 22be fa96 5e3e 7abe c4bd
000003f0: b874 a3be b7d2 7cbf e271 dabe 929c 933e

layer1.bias f4 [32]
-0.021539753 0.18683785 -0.3995994 -0.2414541 0.06983858 0.10817158 0.024236342 -0.035921037
-0.1680208 -0.12062653 -0.5403536 0.11256355 -0.092864975 -0.07501042 0.39345744 -0.1940375
0.26413915 0.011287974 -0.057942495 0.319775 -0.12010302 0.018593475 -0.13362837 -0.033394046
0.020932142 0.9648034 0.20452446 0.027130181 0.6918736 0.13359077 -0.33987257 0.015422836
00000000: 2374 b0bc 6c52 3f3e 4b98 ccbe be3f 77be
00000010: 8807 8f3d 1089 dd3d 4b8b c63c f021 13bd
00000020: a50d 2cbe 0b0b f7bd 9d54 0abf b887 e63d
00000030: fe2f bebd 109f 99bd 4173 c93e c4b1 46be
00000040: 3f3d 873e 32f1 383c 1c55 6dbd 8cb9 a33e
00000050: 92f8 f5bd 5851 983c e0d5 08be 32c8 08bd
00000060: e279 ab3c 5bfd 763f dc6e 513e 1d40 de3c
00000070: a11e 313f 05cc 083e c703 aebe 10b0 7c3c

layer2.weight f4 [64, 32]
-0.023955412 -0.01730596 -0.031564947 -0.0078083924 -0.01581536 -0.0101173315 -0.01768615 -0.022803105
-0.018253244 -0.03038649 -0.0093061095 0.0116307875 -0.020504609 0.015911503 -0.010302514 0.0013175369
-0.033673774 -0.014300116 0.0024355247 -0.038088076 0.0014915332 0.011134493 0.005822727 -0.053418268
-0.014791392 -0.0649319 -0.024565235 -0.001069181 -0.04534053 -0.026639301 -0.016707191 -0.033825792
0.00230149 0.008587923 0.029769884 -0.022585468 0.030599076 -0.008002025 -0.008309274 -0.022308502
-0.0018708023 -0.02697378 0.0056158677 0.022455454 0.0071540237 -0.024562413 -0.041428804 0.0067591295
-0.039303258 0.027094787 -0.05952707 -0.020901157 0.023616683 -0.0033630896 -0.027026279 -0.110646516
-0.04330864 -0.028110202 -0.02067885 -0.02208814 -0.044995207 -0.021301921 0.014589162 -0.07034192
0.23340552 0.33383512 -0.047322016 -0.1551139 0.11221054 0.098254934 0.47915483 -0.0040513044
0.40706918 -0.29733905 -0.25186947 0.11143231 0.73066306 0.9934389 0.089317925 0.024015484
0.6537958 -0.5099307 0.13992809 -0.73639065 0.15081684 -0.49467435 0.66414016 -0.11352073
0.092939004 0.274974 0.22302379 0.048487727 0.25427774 -0.016267214 0.85797745 -0.14816634
-0.024630982 -0.008983046 -0.019940855 -0.017966738 -0.016827498 -0.024897626 -0.03653479 -0.04254294
0.02879466 -0.0074623926 -0.03268897 -0.015786625 0.027859239 -0.01290804 -0.0151658105 -0.006535549
-0.020722732 0.020365091 -0.029109992 0.017285855 0.0041898843 0.004961574 0.012387767 -0.052902292
-0.03759933 -0.05508291 -0.03633246 -0.006687915 -0.08342784 -0.009142645 0.0030253585 -0.025691243
-0.021235144 0.0018116147 -0.017763106 -0.0027309062 -0.015558189 -0.09135113 -8.731146e-05 -0.096647754
-0.00582727 0.005298533 -0.019545984 0.0014457784 -0.083857775 -0.0061009657 -0.013867924 -0.002694187
-0.10532326 -0.011829875 -0.0025707143 0.003799169 -0.011411433 -0.011512487 0.0024363801 -0.00040525378
-0.014499673 -0.09022668 0.0038938813 -0.11048065 -0.09681862 0.006469003 -0.004780623 -0.0954814
-0.040164437 -0.54297006 -0.08772024 -0.28932428 0.1291692 -0.34832025 0.34102878 -0.17442264
0.2199318 -0.035676282 -0.62682897 0.18426567 0.49634257 0.25971356 0.109986484 0.009233691
-0.20103881 -0.31273624 -0.2904769 -0.157066 -0.11959761 -0.14482374 0.34987107 -0.07742031
0.07505503 -0.026139075 0.1356233 -0.16047253 -0.57624185 -0.036150564 0.3425716 -0.18572551
-0.0630029 0.22247304 -0.3235215 -0.16822413 0.10130773 0.122307114 -0.6773255 -0.09839278
-0.3464302 -0.037358887 -0.2228046 -0.9895694 -0.03595919 -0.93118525 0.17586032 0.0049712304
0.11443898 0.29422864 -0.30172098 -0.32908323 -0.9402015 0.41911164 -1.0008603 0.21644299
0.20767598 0.42308685 0.3454071 0.13409568 -0.123435974 0.30314732 -0.08096443 -0.06870368
-0.22784099 -0.4548778 0.05301077 -0.005417086 0.36765358 0.48360577 -0.12695508 0.008817036
0.23509856 0.3222359 0.13947023 -0.19758219 0.8140808 -0.1976142 -0.5325781 -0.07193747
0.34437096 0.3284383 -0.1322141 -0.06068895 0.02005451 -0.6582209 -0.09456156 -0.565333
-0.088900924 -0.046026126 -0.17064513 0.32705945 -0.3945904 0.12601931 0.1436482 0.64530873
00000000: 243e c4bc 3bc5 8dbc 3f4a 01bd 8bdd ffbb
00000010: 378f 81bc 2ac3 25bc 8be2 90bc 94cd babc
00000020: d487 95bc 17ed f8bc a778 18bc 0f8f 3e3c
00000030: 48f9 a7bc d758 823c e0cb 28bc 34b1 ac3a
00000040: 83ed 09bd 094b 6abc 539d 1f3b 3e02 1cbd
00000050: 8d7f c33a 736d 363c 93cc be3b 1dcd 5abd
00000060: 9857 72bc 04fb 84bd 083d c9bc c323 8cba
00000070: feb6 39bd aa3a dabc 85dd 88bc ea8c 0abd
00000080: 98d4 163b 5cb4 0c3c f9df f33c 2905 b9bc
00000090: eaaa fa3c ed1a 03bc 9f23 08bc 52c0 b6bc
000000a0: b535 f5ba 1ef8 dcbc 5005 b83b 80f4 b73c
000000b0: 4d6c ea3b 1d37 c9bc 40b1 29bd b07b dd3b
000000c0: 74fc 20bd e3f5 dd3c a8d2 73bd e738 abbc
000000d0: c677 c13c 4867 5cbb 3766 ddbc a49a e2bd
000000e0: 6764 31bd 5e47 e6bc b166 a9bc 30f2 b4bc
000000f0: e54c 38bd 5e81 aebc 6107 6f3c 6d0f 90bd
00000100: db01 6f3e 70ec aa3e bbd4 41bd 2ed6 1ebe
00000110: a4ce e53d e239 c93d c853 f53e cec0 84bb
00000120: 5f6b d03e d33c 98be 09f5 80be 9f36 e43d
00000130: bc0c 3b3f 0352 7e3f 51ec b63d 1fbc c43c
00000140: 295f 273f d18a 02bf 4f49 0f3e 1984 3cbf
00000150: bb6f 1a3e f545 fdbe 1705 2a3f 8e7d e8bd
00000160: ce56 be3d 64c9 8c3e 5960 643e 119b 463d
00000170: b130 823e d242 85bc 69a4 5b3f ebb8 17be
00000180: eac6 c9bc a02d 13bc 015b a3bc fb2e 93bc
00000190: d2d9 89bc 1bf6 cbbc 81a5 15bd 8141 2ebd
000001a0: c7e2 eb3c 1687 f4bb dfe4 05bd f452 81bc
000001b0: 0f39 e43c 3e7c 53bc 057a 78bc 2928 d6bb
000001c0: b8c2 a9bc b1d4 a63c 1478 eebc 119b 8d3c
000001d0: 4c4b 893b b394 a23b 10f6 4a3c 13b0 58bd
000001e0: c101 1abd 9e9e 61bd 58d1 14bd 4c26 dbbb
000001f0: 37dc aabd 08cb 15bc 1845 463b 7176 d2bc
00000200: 53f5 adbc b473 ed3a ef83 91bc 01f9 32bb
00000210: c6e7 7ebc 4d16 bbbd fc1a b7b8 42ef c5bd
00000220: aff2 bebb 519f ad3b e61e a0bc 4680 bd3a
00000230: a0bd abbd 9cea c7bb 4a36 63bc f590 30bb
00000240: b9b3 d7bd 18d2 41bc 6e79 28bb 7bfb 783b
00000250: 05f7 3abc df9e 3cbc adab 1f3b 3e78 d4b9
00000260: 0990 6dbc c4c8 b8bd 7d30 7f3b ae43 e2bd
00000270: d748 c6bd eef9 d33b c6a6 9cbb c18b c3bd
00000280: 7783 24bd 1600 0bbf aba6 b3bd 5022 94be
00000290: ee44 043e 0857 b2be 539b ae3e d99b 32be
000002a0: cd35 613e 4b21 12bd dd77 20bf 24b0 3c3e
000002b0: 9d20 fe3e 2df9 843e 9840 e13d e848 173c
000002c0: 1edd 4dbe f71e a0be 63b9 94be e9d5 20be
000002d0: 97ef f4bd ad4c 14be 4d22 b33e 8a8e 9ebd
000002e0: 74b6 993d 9d21 d6bc d6e0 0a3e e952 24be
000002f0: 9684 13bf 9d12 14bd 8b65 af3e d42e 3ebe
00000300: aa07 81bd f9cf 633e 9ca4 a5be f242 2cbe
00000310: 6d7a cf3d 277c fa3d 3465 2dbf 2782 c9bd
00000320: 4d5f b1be a205 19bd e426 64be 6c54 7dbf
00000330: f249 13bd 2862 6ebf ba14 343e b4e5 a23b
00000340: fc5e ea3d 23a5 963e 2c7b 9abe 997d a8be
00000350: 0cb1 70bf cd95 d63e 311c 80bf 3ba3 5d3e
00000360: 03a9 543e d79e d83e 33d9 b03e 6150 093e
00000370: 00cc fcbd 2036 9b3e aed0 a5bd 84b4 8cbd
00000380: 264f 69be bee5 e8be d221 593d d081 b1bb
00000390: 173d bc3e 2d9b f73e 8300 02be 5475 103c
000003a0: adbd 703e 1bfc a43e 49d1 0e3e fc52 4abe
000003b0: 9967 503f 605b 4abe 0a57 08bf f453 93bd
000003c0: 6451 b03e 1129 a83e 2263 07be fa94 78bd
000003d0: 5b49 a43c 2a81 28bf 7ea9 c1bd aab9 10bf
000003e0: b011 b6bd e485 3cbd 99bd 2ebe 5674 a73e
000003f0: c107 cabe 350b 013e 8418 133e f432 253f

layer2.bias f4 [64]
-0.031151118 -0.036883194 0.12962043 -0.037499446 -0.114745654 -0.018278599 0.55163 0.09592694
-0.070638955 -0.09445819 -0.045646477 0.17902933 0.35901892 -0.013226025 0.4649046 -0.11259229
-0.021923093 0.6063189 0.44999352 -0.12934531 0.5998184 -0.041895993 -0.033488158 -0.124983095
-0.029481735 -0.02243554 -0.10547026 -0.010604731 0.40473518 0.3376891 -0.0034900163 0.32438365
-0.04533901 0.26372737 -0.007273188 -0.009661973 0.3001162 -0.1670119 -0.123459585 0.041432355
0.50918114 -0.01020603 -0.10879981 -0.022473512 0.6633168 0.47034994 0.75224125 0.36041346
-0.04413139 0.47470805 -0.18321097 -0.11163179 -0.056748576 -0.057323158 0.30616754 0.81766593
0.65408534 0.6089887 -0.19853684 0.744371 -0.07127332 0.54772615 -0.014351785 0.35142908
00000000: a130 ffbc d512 17bd 38bb 043e 0599 19bd
00000010: c5ff eabd 00bd 95bc a037 0d3f 5875 c43d
00000020: 28ab 90bd 4c73 c1bd cdf7 3abd 7753 373e
00000030: 54d1 b73e f8b1 58bc fa07 ee3e c996 e6bd
00000040: 0f98 b3bc b737 1b3f 8d65 e63e 1973 04be
00000050: b38d 193f 229b 2bbd e12a 09bd 23f7 ffbd
00000060: ae83 f1bc bdca b7bc cb00 d8bd 77bf 2dbc
00000070: 7339 cf3e 96e5 ac3e c2b8 64bb 9d15 a63e
00000080: 66b5 39bd 4607 873e ec53 eebb 414d 1ebc
00000090: d5a8 993e 2b05 2bbe 61d8 fcbd f9b4 293d
000000a0: b259 023f 3137 27bc 6fd2 debd 5f1a b8bc
000000b0: 21cf 293f b5d1 f03e e292 403f 1d88 b83e
000000c0: 1ec3 34bd ef0c f33e a89b 3bbe 359f e4bd
000000d0: 3271 68bd b0cb 6abd fec1 9c3e 8e52 513f
000000e0: 2372 273f afe6 1b3f 3e4d 4bbe 198f 3e3f
000000f0: bff7 91bd c837 0c3f c023 6bbc 83ee b33e

layer3.weight f4 [128, 64]
0.002039211 0.0029683532 -0.0015754834 -0.00043670912 0.008800856 -0.0201824 -0.017929424 -0.00081028586
-0.0009485345 -0.01018205 0.0007090642 0.0046542767 0.0029186357 -0.0050623277 -0.01526071 -0.0035070695
-0.003946154 -0.0035848636 -0.008891251 -0.0015688951 -0.0052364087 -0.00070208416 -0.012399885 -0.0046141143
-0.0007133769 -0.0019300004 -0.0066253566 -0.0072632744 -0.008357576 -0.006091467 0.008032094 -0.0013121396
-0.005654274 0.0023533192 -0.010712346 0.0070692943 -0.008530916 -0.012453375 0.00068374124 -0.0030991898
-0.0073681977 0.0032823116 0.005994414 -0.0010794906 0.0026207361 0.00096436846 -0.0036868448 -0.011875422
0.0046942043 -0.0038130428 -0.015848963 -0.0130047165 -0.0008095497 -0.0051619606 0.009599871 -0.003004166
0.0010855413 -0.010023433 0.0062478315 0.00046031797 0.0011233161 0.0048771687 -0.0121656265 -0.0060395505
0.0037457505 -0.010030049 -0.0627033 -0.014776468 -0.012672313 -0.1279453 -0.023328377 -0.029005
-0.08867247 -0.0369005 0.03500521 -0.10006403 -0.21602109 0.059485495 -0.17516221 -0.0118697975
-0.1898087 -0.1664574 -0.042724337 -0.0009118599 -0.21304618 0.032197516 0.020939635 0.0298341
-0.0149062965 0.0036868933 0.04507799 0.011766022 -0.08195407 -0.11504253 -0.00067412574 -0.025569353
-0.0052697025 -0.012245133 0.002240819 -0.009898078 -0.04393799 -0.16106057 -0.011937958 -0.045018192
-0.014704135 0.00990037 -0.0060728565 0.0035368435 -0.027690688 -0.24406269 -0.044261556 0.050086327
-0.013372301 -0.006780995 -0.15033427 0.03130774 0.015563897 -0.00783243 -0.038992375 -0.2662629
-0.12612762 -0.05237041 0.043079272 -0.29408035 -0.021158464 -0.08578465 0.0081899185 -0.14270511
0.00078411534 -0.014691942 -0.25520325 -0.024939805 0.0860826 0.052130446 0.4022098 -0.013356266
-0.043897457 0.011264975 -0.0012756247 -0.21847288 0.40950075 0.2156084 0.53232026 -0.05549935
-0.2046905 0.3266641 0.28665006 0.109248325 -0.11531842 -0.025870094 0.00038279706 0.27356562
0.002375226 0.0024157339 0.16461465 -0.010068418 0.7681942 -0.027425272 0.0012311784 0.4847108
-0.007123817 0.17247881 0.050185125 -0.0031276892 -0.45580983 -0.37186888 -0.58991635 -0.12011065
0.35975212 0.010506469 -0.0025082056 -0.021820039 0.42031887 0.32948455 0.25618488 0.012308424
-0.00025682087 0.14708088 -0.4795578 0.06733115 0.09809111 -0.0077229147 0.21840419 0.489204
0.43345448 0.35574365 0.09745392 -0.11043372 0.064595975 -0.17834291 -0.012955017 0.30813825
-0.0048745903 0.0038015593 -0.037287157 -0.008553898 -0.004108925 0.003995224 -0.028044319 -0.03591615
0.0027271858 -0.0040318593 0.0056746243 -0.008204694 -0.020324001 -0.0016311975 -0.004684094 0.0002435146
-0.009702564 0.002141998 -0.031052453 -0.029933797 -0.030801646 -0.0043332283 -0.0041484446 0.00677024
0.004935671 -0.012565994 -0.00912109 -0.0033204227 -0.0069161924 -0.024282416 0.0024840245 -0.008449572
-0.003951099 -0.010037198 0.0017303779 -0.009366118 -0.02408559 -0.031178018 -0.003030339 0.0055729
-0.032114245 -0.0076018767 -0.0018232614 -0.003297644 -0.03404686 0.003959219 -0.016287051 -0.0023976727
-0.008238083 -0.0044255354 -0.0014515626 -0.013046094 -0.012237079 -0.014502799 -0.010230281 -0.025469225
-0.020843454 -0.0365551 -0.02574318 -0.011887829 -0.009654183 -0.027794998 -0.0083920965 -0.0030721938
00000000: 49a4 053b b488 423b 7380 ceba 1bf6 e4b9
00000010: 7731 103c 8f55 a5bc bae0 92bc 5d69 54ba
00000020: 13a7 78ba 9dd2 26bc 7ee0 393a e782 983b
00000030: 9546 3f3b e2e1 a5bb 0f08 7abc ddd6 65bb
00000040: bd4e 81bb 08f0 6abb 9cac 11bc 62a3 cdba
00000050: 2e96 abbb 120c 38ba e328 4bbc ff31 97bb
00000060: ea01 3bba 11f8 fcba 8519 d9bb c300 eebb
00000070: 37ee 08bc ee9a c7bb 0b99 033c 19fc abba
00000080: 7d47 b9bb 253a 1a3b d682 2fbc 8aa5 e73b
00000090: 41c5 0bbc 3e09 4cbc 193d 333a c71b 4bbb
000000a0: ec70 f1bb 0d1c 573b ca6c c43b b27d 8dba
000000b0: a8c0 2b3b accd 7c3a fe9e 71bb 2191 42bc
000000c0: d7d1 993b 3ee4 79bb afd5 81bc bc11 55bc
000000d0: f637 54ba aa25 a9bb c748 1d3c 8be1 44bb
000000e0: b948 8e3a 5339 24bc 9cba cc3b d556 f139
000000f0: 3c3c 933a a8d0 9f3b 5652 47bc 6ce7 c5bb
00000100: 447b 753b 1355 24bc 966a 80bd 0019 72bc
00000110: 889f 4fbc 1804 03be 271b bfbc e59b edbc
00000120: e999 b5bd fb24 17bd a061 0f3d 5fee ccbd
00000130: a234 5dbe 10a7 733d b95d 33be 8a79 42bc
00000140: 365d 42be cf73 2abe b7ff 2ebd e209 6fba
00000150: c728 5abe 8be1 033d 9989 ab3c a466 f43c
00000160: 8a39 74bc ce9f 713b b3a3 383d 46c6 403c
00000170: 89d7 a7bd 6b9b ebbd d0b7 30ba d276 d1bc
00000180: 78ad acbb cf9f 48bc b4da 123b 8c2b 22bc
00000190: 52f8 33bd 10ed 24be 6d97 43bc ff64 38bd
000001a0: 9de9 70bc 2935 223c d0fe c6bb 63ca 673b
000001b0: 95d7 e2bc 92eb 79be 9b4b 35bd 5227 4d3d
000001c0: 7f17 5bbc 1c33 debb 3af1 19be 8b3c 003d
000001d0: b7ff 7e3c 9853 00bc 78b6 1fbd 9c53 88be
000001e0: 9927 01be 5b82 56bd e473 303d b391 96be
000001f0: 8454 adbc ddaf afbd 022f 063c 4a21 12be
00000200: 178d 4d3a 79b6 70bc 00aa 82be 904e ccbc
00000210: 134c b03d bc86 553d 71ee cd3e 3dd4 5abc
00000220: d2cd 33bd bb90 383c dd32 a7ba 5bb7 5fbe
00000230: 15aa d13e 73c8 5c3e 2446 083f 4953 63bd
00000240: 639a 51be 8440 a73e ccc3 923e 96bd df3d
00000250: 102c ecbd 85ed d3bc 27b2 c839 cb10 8c3e
00000260: aea9 1b3b 4a51 1e3b be90 283e 02f6 24bc
00000270: 60a8 443f f7aa e0bc 7e5f a13a 042c f83e
00000280: e96e e9bb 499e 303e eb8e 4d3d ebf9 4cbb
00000290: e85f e9be 9965 bebe c204 17bf 93fc f5bd
000002a0: 6e31 b83e 5323 2c3c b560 24bb f0bf b2bc
000002b0: 0934 d73e 33b2 a83e aa2a 833e 46a9 493c
000002c0: eaa5 86b9 5f9c 163e 9a88 f5be eae4 893d
000002d0: fee3 c83d 8110 fdbb 59a5 5f3e f278 fa3e
000002e0: bfed dd3e 0824 b63e ec95 c73d 132b e2bd
000002f0: e54a 843d 869f 36be 4841 54bc 4cc4 9d3e
00000300: 07bb 9fbb 9523 793b 6bba 18bd a625 0cbc
00000310: 29a4 86bb 5eea 823b 33bd e5bc d01c 13bd
00000320: 96ba 323b b01d 84bb 33f2 b93b fb6c 06bc
00000330: 857e a6bc e8cd d5ba 077d 99bb f457 7f39
00000340: 81f7 1ebc c360 0c3b b761 febc b937 f5bc
00000350: bc53 fcbc c1fd 8dbb adef 87bb e4d8 dd3b
00000360: 69bb a13b 99e1 4dbc a070 15bc 739b 59bb
00000370: 3aa1 e2bb ebeb c6bc 04cb 223b 1370 0abc
00000380: 3878 81bb 0f73 24bc d9cd e23a 5974 19bc
00000390: 254f c5bc 0b69 ffbc a798 46bb e09c b63b
000003a0: 3a8a 03bd 2a19 f9bb 80fa eeba 491d 58bb
000003b0: b874 0bbd 56bc 813b 6c6c 85bc 4622 1dbb
000003c0: 06f9 06bc 1504 91bb 5c42 beba 49bf 55bc
000003d0: 087e 48bc 269d 6dbc e99c 27bc d6a4 d0bc
000003e0: e4bf aabc cdba 15bd 5de3 d2bc 2bc5 42bc
000003f0: 942c 1ebc 56b2 e3bc 017f 09bc dc56 49bb

layer3.bias f4 [128]
-0.014461978 -0.21636991 0.7459568 -0.021834927 -0.028701056 -0.025291521 -0.02093047 0.013721587
-0.16746707 -0.03987021 -0.08589499 -0.017853754 0.35380375 0.12465657 -0.01069216 -0.0023164467
-0.052681983 -0.025444118 -0.04728186 -0.033457488 0.2643143 -0.017133735 -0.026131188 -0.07666183
-0.02748019 -0.03970901 -0.013983645 0.63833755 0.04780306 -0.026911262 0.6770814 -0.037381005
1.1847453 -0.008759707 -0.052813448 -0.035206422 1.1187662 0.60036904 -0.02734444 0.6442034
-0.0011710975 0.8835636 -0.021774141 -0.303462 0.7247979 -0.061436433 0.5674248 -0.101828784
-0.023947194 -0.047462896 0.15851977 -0.016542444 -0.025917672 0.2143172 -0.048913393 0.7132775
-0.010983133 -0.018350841 0.66558754 -0.011219582 -0.016276555 -0.05135568 0.43398592 0.22506884
-0.03809253 -0.066739805 0.79196566 -0.017558452 -0.14162634 -0.047518704 -0.018228764 -0.14668454
-0.0278439 -0.026219977 -0.0071440134 0.44145298 -0.020374024 -0.046997335 -0.016966833 0.62050277
0.4969244 -0.08667303 -0.051995873 -0.011709348 -0.040119078 -0.034113903 0.47222888 -0.00912896
-0.021021727 0.40718877 0.5603259 -0.0044598193 0.21594813 -0.014322684 -0.022164058 0.6597236
-0.026368147 -0.007760459 -0.016666373 -0.15488568 -0.0090312455 0.0011800278 -0.017571606 -0.05137249
-0.027630841 1.0359131 0.64148384 -0.013581103 -0.018892843 -0.078583114 -0.050950713 -0.025781577
0.4946795 0.7723521 -0.018674796 -0.07955044 -0.0064554745 -0.032216463 -0.021196699 0.055841282
-0.029814903 0.78649974 -0.018584635 -0.018003931 -0.027416874 -0.017051341 -0.017547686 -0.012465321
00000000: eff1 6cbc 1390 5dbe 06f7 3e3f 29df b2bc
00000010: 7a1e ebbc 2a30 cfbc 6176 abbc 82d0 603c
00000020: 7d7c 2bbe f24e 23bd b6e9 afbd 0942 92bc
00000030: c425 b53e f24b ff3d 2b2e 2fbc 87cf 17bb
00000040: 10c9 57bd 2f70 d0bc a0aa 41bd b80a 09bd
00000050: 3454 873e 0c5c 8cbc 1311 d6bc e100 9dbd
00000060: 231e e1bc eaa5 22bd a81b 65bc 176a 233f
00000070: 24cd 433d 0275 dcbc 3555 2d3f d31c 19bd
00000080: bca5 973f e084 0fbc ea52 58bd 9c34 10bd
00000090: bb33 8f3f c9b1 193f 7201 e0bc 84ea 243f
000000a0: 837f 99ba 3931 623f af5f b2bc 5f5f 9bbe
000000b0: 5b8c 393f c5a4 7bbd c042 113f 9c8b d0bd
000000c0: e82c c4bc 7468 42bd 0253 223e 0584 87bc
000000d0: 4c51 d4bc f875 5b3e 6959 48bd 5b99 363f
000000e0: 99f2 33bc 8154 96bc f263 2a3f 56d2 37bc
000000f0: 6956 85bc 555a 52bd 6733 de3e 7278 663e
00000100: ea06 1cbd e1ae 88bd 43be 4a3f bed6 8fbc
00000110: 7f06 11be f9a2 42bd 7d54 95bc 7934 16be
00000120: e418 e4bc 47cb d6bc 5418 eabb 2006 e23e
00000130: 6de7 a6bc 4780 40bd 07fe 8abc 45d9 1e3f
00000140: e06c fe3e a181 b1bd a0f9 54bd 91d8 3fbc
00000150: e753 24bd 05bb 0bbd fcc7 f13e a291 15bc
00000160: c235 acbc 0c7b d03e 8571 0f3f ad23 92bb
00000170: 8221 5d3e b1a9 6abc 6691 b5bc a5e3 283f
00000180: 0302 d8bc 734b febb eb87 88bc 5a9a 1ebe
00000190: caf7 13bc 2aab 9a3a 54f2 8fbc f66b 52bd
000001a0: 135a e2bc cd98 843f 4938 243f 4683 5ebc
000001b0: 2ac5 9abc 2ff0 a0bd b2b1 50bd e333 d3bc
000001c0: a246 fd3e deb8 453f e3fb 98bc 57eb a2bd
000001d0: 7288 d3bb 69f5 03bd b3a4 adbc d4b9 643d
000001e0: 623e f4bc 0c58 493f ce3e 98bc fb7c 93bc
000001f0: 5a99 e0bc 41af 8bbc 2ac0 8fbc 593b 4cbc

layer4.weight f4 [64, 128]
0.0017857034 -0.010064282 -0.016575957 0.005648857 -0.004686494 -0.0129522 0.004765863 -0.012203685
-0.004289015 -0.010456464 -0.005677807 -0.006079799 -0.006448699 -0.009481875 0.0033091323 0.0021176015
0.00080860953 0.0018734051 0.00677766 -0.01460831 -0.014534302 -0.003382665 -0.008478516 -0.008474708
0.0063050436 -0.003979678 -0.003616628 -0.006310328 -0.0052954042 -0.006869293 -0.0018790032 -0.0035325552
-0.011354538 0.00265291 -0.00056962494 -0.006907247 -0.014660421 -0.012826394 -0.013596444 -0.004430428
-0.0074945493 -0.00854727 -0.011504488 -0.004932969 -0.0015279363 -0.0023055852 -0.00929449 -0.013012588
-0.011695333 -0.0010560806 -0.012316832 -0.004036057 -0.013186944 0.0010988206 -0.014170735 -0.008917987
-0.004554287 -0.0044912677 -0.0035536916 -0.015504489 0.0011455533 -0.011253749 -0.0025999073 -0.009230207
0.0017486089 -0.0051232497 -0.005822634 -0.0015015624 -0.011763305 0.00048556764 0.001959633 -0.013803754
-0.001596172 0.0051370054 -0.0043699113 -0.013706913 -0.008837803 -0.008347635 0.0035967443 -0.0058327555
-0.008967961 -0.009553208 -0.004595606 -0.014229739 -0.0031113904 -0.009450614 0.0002973729 0.005518677
-0.0055150017 -0.010967944 -0.015518479 0.004299322 -0.014643665 0.0005566167 0.0032165726 -0.0056801094
-0.0030082548 -0.009514674 -0.0028140864 -0.0070250463 -0.0019035543 0.006049003 -0.0020961137 -0.005367652
0.0045701424 -0.014188332 -0.01196003 -0.0007549496 -0.0040793633 -0.010640659 0.0025734396 0.0064553698
-0.0072222794 -0.0057132165 0.0043094354 -0.013515847 0.006464249 0.0027518778 -0.0035432496 -0.008160523
-0.015847322 -0.014601322 -0.010075339 0.0019337519 -0.0051915282 0.006045814 -0.0039378153 -0.01561088
-0.0057915975 -0.009991086 -0.03972367 0.003126783 0.004297809 -0.0016754337 0.0031552638 -0.0034591465
-0.009101759 0.0013938495 -0.0009478335 0.0034291479 -0.007578924 0.003280593 -0.0052743456 -0.005621961
0.00057766424 -0.0007846774 -0.0062239585 -0.004690767 -0.00931063 -0.004692783 -0.0058616963 -0.006859396
-0.0022235727 -0.004171463 0.0008437154 -0.002372673 -0.035101052 -0.002839332 0.002148487 -0.0044870432
0.0013923105 -0.00648446 -0.0019189237 -0.006947038 -0.035664808 -0.0098165115 0.0037770588 -0.034766894
0.0020341503 0.001524236 -0.008888155 -0.0073261023 -0.00897564 0.00060044357 -0.008991911 0.00028340996
0.002295589 0.00639296 -0.0016097662 -0.0025364745 -0.0077190828 -0.026473356 0.0027116104 -0.01816446
0.003602271 -0.0029715565 0.0006638059 0.0012751824 0.0052552777 -0.0051151807 -0.024991559 -0.006329533
0.004572654 -0.00270257 0.0024426857 0.0043335645 -0.006071184 -0.006963368 0.0018020832 -0.0027720896
0.0034952632 0.0038955482 0.0052851522 -0.037796672 -0.0020978043 -9.4005045e-05 0.0047876863 -0.0035372484
0.004318804 -0.0059808423 -0.0062466245 0.0029836474 -0.002878623 -0.0023211886 0.0001232875 0.0027870175
-0.003193071 0.0017882681 -0.0025865862 0.0018890471 0.0013809782 0.0023761687 0.005560956 -0.008613671
-0.0032295538 -0.004191233 -0.0028015207 0.0011718884 0.0037630582 -0.0027005817 0.0024305366 -0.0037966224
-0.006458266 -0.006490259 -0.0069222604 -0.0042492957 -0.0022895578 0.0035176482 -0.0021237726 -0.0063176486
0.0012664733 -0.041777525 -0.00547917 -0.0021789316 0.0047178227 -0.005603428 -0.008791123 -0.0068428423
-0.00843491 -0.0070014917 -0.005380614 -0.0041076327 -0.0006820148 -0.001379918 -0.0009631636 -0.0027589903
00000000: 430e ea3a a9e4 24bc 4dca 87bc 0c1a b93b
00000010: 2991 99bb 7735 54bc f52a 9c3b f7f1 47bc
00000020: de8a 8cbb 9751 2bbc e60c babb 0d39 c7bb
00000030: 9c4f d3bb de59 1bbc 07de 583b 75c7 0a3b
00000040: def8 533a 0b8d f53a 2217 de3b b157 6fbc
00000050: 4821 6ebc b4af 5dbb 79e9 0abc 80d9 0abc
00000060: 8a9a ce3b f567 82bb f304 6dbb dec6 cebb
00000070: 1285 adbb ce17 e1bb e348 f6ba 7182 67bb
00000080: 6208 3abc 72dc 2d3b e252 15ba 3056 e2bb
00000090: 4332 70bc cc25 52bc 9fc3 5ebc 202d 91bb
000000a0: d694 f5bb d909 0cbc 527d 3cbc bea4 a1bb
000000b0: 0945 c8ba 4d19 17bb eb47 18bc c032 55bc
000000c0: c89d 3fbc 2f6c 8aba 8acc 49bc e640 84bb
000000d0: 0d0e 58bc 4d06 903a 5f2c 68bc c01c 12bc
000000e0: 213c 95bb 7c2b 93bb 0de5 68bb 8a06 7ebc
000000f0: 6426 963a a561 38bc 3563 2abb 4b3a 17bc
00000100: 9431 e53a efe0 a7bb cbcb bebb 13d0 c4ba
00000110: e1ba 40bc c993 fe39 306d 003b 2429 62bc
00000120: a536 d1ba 5354 a83b 7931 8fbb f692 60bc
00000130: 6fcc 10bc 85c4 08bc 5bb7 6b3b b320 bfbb
00000140: 5bee 12bc 0f85 1cbc bd96 96bb da23 69bc
00000150: 78e8 4bbb c0d6 1abc b7e8 9b39 05d6 b43b
00000160: 30b7 b4bb e4b2 33bc 3841 7ebc 54e1 8c3b
00000170: fceb 6fbc eae9 113a 22cd 523b 3620 babb
00000180: 2426 45bb 6fe3 1bbc 896c 38bb 5c32 e6bb
00000190: af80 f9ba b736 c63b f45e 09bb 21e3 afbb
000001a0: 22c1 953b 2d76 68bc 00f4 43bc cfe7 45ba
000001b0: 2eac 85bb 2956 2ebc 27a7 283b 9187 d33b
000001c0: dfa8 ecbb ef35 bbbb 2a36 8d3b 9271 5dbc
000001d0: 0dd2 d33b d958 343b dd35 68bb b7b3 05bc
000001e0: 3ed2 81bc 623a 6fbc 0913 25bc f275 fd3a
000001f0: b21d aabb f71b c63b ca08 81bb c7c4 7fbc
00000200: 71c7 bdbb a7b1 23bc 49b5 22bd b7ea 4c3b
00000210: a3d4 8c3b 3a9a dbba 8bc8 4e3b d9b2 62bb
00000220: 8b1f 15bc d4b1 b63a 0878 78ba 8ebb 603b
00000230: 9f58 f8bb 38ff 563b 6bd4 acbb 6d38 b8bb
00000240: 646e 173a cfb2 4dba 59f2 cbbb 01b5 99bb
00000250: 9d8b 18bc ebc5 99bb 7913 c0bb c9c4 e0bb
00000260: 5cb9 11bb c5b0 88bb c82c 5d3a d97e 1bbb
00000270: 1fc6 0fbd 1614 3abb a1cd 0c3b 0c08 93bb
00000280: 307e b63a 987b d4bb 6584 fbba fba3 e3bb
00000290: 4315 12bd 6fd5 20bc 8888 773b bb67 0ebd
000002a0: 614f 053b e0c8 c73a a09f 11bc cd0f f0bb
000002b0: 900e 13bc 1667 1d3a cf52 13bc a496 9439
000002c0: 9871 163b 097c d13b cafe d2ba fb3a 26bb
000002d0: 5cf0 fcbb a7de d8bc 46b5 313b a2cd 94bc
000002e0: 1414 6c3b 72be 42bb 4303 2e3a 0524 a73a
000002f0: 7734 ac3b 3f9d a7bb 19bb ccbc f967 cfbb
00000300: 34d6 953b 9a1d 31bb 7715 203b 9300 8e3b
00000310: c8f0 c6bb f72c e4bb e133 ec3a f2ab 35bb
00000320: c910 653b 744c 7f3b 122f ad3b afd0 1abd
00000330: 517b 09bb 9324 c5b8 06e2 9c3b 2ed1 67bb
00000340: c184 8d3b f1fa c3bb 7cb0 ccbb 4c89 433b
00000350: 48a7 3cbb 151f 18bb bc46 0139 65a6 363b
00000360: d842 51bb 5264 ea3a b783 29bb e799 f73a
00000370: f001 b53a 7fb9 1b3b ae38 b63b 5b20 0dbc
00000380: eca6 53bb 9c56 89bb b899 37bb 0d9a 993a
00000390: a49d 763b 3efc 30bb a349 1f3b c1d0 78bb
000003a0: dd9f d3bb 3dac d4bb 21d4 e2bb ad3d 8bbb
000003b0: 680c 16bb 5888 663b fe2e 0bbb 4704 cfbb
000003c0: cbff a53a e91e 2bbd 9c8a b3bb 68cc 0ebb
000003d0: f797 9a3b f69c b7bb a408 10bc ec39 e0bb
000003e0: 9432 0abc c56c e5bb dd4f b0bb 5299 86bb
000003f0: 3dc9 32ba 5dde b4ba d17c 7cba 2dd0 34bb

layer4.bias f4 [64]
-0.009038387 -0.029265331 -0.028237186 0.71991175 0.35342145 -0.1019794 -0.0961215 0.68519926
-0.011071822 -0.030476881 -0.01695824 0.5006322 -0.075335145 -0.046286862 -0.023642622 -0.006129296
0.80075425 -0.011306668 -0.05248245 -0.013505671 -0.01160528 -0.022396958 1.1577092 -0.012362316
-0.0024078814 -0.020216174 -0.03581262 1.1971116 -0.034773678 0.0013963855 0.76449144 0.791371
-0.039685342 0.19568872 0.008806615 0.9031776 -0.004967297 0.03576554 0.9954329 -0.12881272
0.24186409 0.2675766 -0.030291673 0.515628 -0.067499876 -0.025655493 0.065421134 -0.0064301807
-0.05777015 0.83204 0.8275556 0.040220514 -0.028598815 -0.039164197 -0.010362985 -0.25405186
-0.025617924 -0.026731012 0.08070373 -0.082318924 -0.064375825 -0.015193492 -0.016008109 -0.02566421
00000000: be15 14bc d9bd efbc ac51 e7bc 234c 383f
00000010: a8f3 b43e 93da d0bd 59db c4bd 3869 2f3f
00000020: 9666 35bc a7aa f9bc 02ec 8abc 6f29 003f
00000030: 5049 9abd 4b97 3dbd 2cae c1bc 43d8 c8bb
00000040: 3bfe 4c3f 9a3f 39bc d6f7 56bd e446 5dbc
00000050: 1324 3ebc d379 b7bc d12f 943f 508b 4abc
00000060: 8ccd 1dbb 649c a5bc 41b0 12bd f43a 993f
00000070: d86e 0ebd ec06 b73a b6b5 433f 4a97 4a3f
00000080: 198d 22bd a062 483e 9f49 103c a636 673f
00000090: b5c4 a2bb e37e 123d b1d4 7e3f 7be7 03be
000000a0: 38ab 773e cdff 883e 3e26 f8bc 3200 043f
000000b0: 603d 8abd 782b d2bc 84fb 853d 44b4 d2bb
000000c0: 65a0 6cbd 9300 553f afda 533f 44be 243d
000000d0: 1048 eabc a36a 20bd 82c9 29bc 1613 82be
000000e0: aedc d1bc fffa dabc ff47 a53d d396 a8bd
000000f0: 79d7 83bd 20ee 78bc 7023 83bc c03d d2bc
