lunar_1.pth (torch, 84411 bytes, 14 tensors)

network_arch.0.weight f4 [64, 8]
0	0x3ddf2569	0.10895807
1	0x3ea1e012	0.31616265
2	0x3c71e2c1	0.014763535
3	0x3b8ff174	0.004392797
4	0xbe8ca03b	-0.27465996
5	0x3e95b286	0.29237765
6	0xbe07ac20	-0.13249254
7	0xbb249b52	-0.0025116992
8	0xbdad833b	-0.08472296
9	0x3cd1df90	0.025619298
10	0x3e38ca81	0.18045999
11	0x3d31655c	0.043309554
12	0xbe34557d	-0.17610736
13	0x3e1aaea4	0.15105683
14	0xbe1dfdf4	-0.15428907
15	0x3d6b89c7	0.05750444
16	0xbe1e8657	-0.15480934
17	0x3e9f107a	0.31067258
18	0xbdcf2809	-0.10115058
19	0x3e1a3f8a	0.150633
20	0xbe807736	-0.2509095
21	0xbcb94629	-0.022616463
22	0x3dbbefc4	0.09176591
23	0x3e8f8f1d	0.28038874
24	0xbe35c3ea	-0.17750517
25	0x3e6baaf8	0.23014438
26	0xbe06162d	-0.13094397
27	0xbdc48ec7	-0.09597545
28	0x3dc4f692	0.09617342
29	0x3e253986	0.16135225
30	0x3ea973d1	0.33096173
31	0x3e7dbc14	0.24778777
32	0x3d36837e	0.044558994
33	0xbe3649f7	-0.17801653
34	0x3e2aa2fd	0.16663738
35	0x3e5ee30b	0.21766298
36	0xbe8d605d	-0.27612582
37	0xbe4ed918	-0.20200002
38	0x3e6a2163	0.22864299
39	0x3b81cdc7	0.003961298
40	0x3e4114ee	0.1885564
41	0x3e00ee7f	0.12590979
42	0xbe936805	-0.28790298
43	0x3e2566b1	0.16152455
44	0x3e82cf75	0.25548902
45	0xbcfd225c	-0.030900173
46	0xbe7d54bd	-0.24739356
47	0x3e675330	0.22590327
48	0xbd9f8321	-0.07788683
49	0xbe358b44	-0.17728907
50	0x3ea09dd4	0.31370413
51	0xbe36a65a	-0.17836896
52	0x3dcdfee5	0.10058383
53	0x3ea34e8d	0.31895867
54	0x3e0ba979	0.13638867
55	0xbe1822e1	-0.14857055
56	0xbe207947	-0.15671264
57	0x3eb48ee9	0.35265282
58	0xbea6f17a	-0.32606107
59	0x3e91314b	0.2835792
60	0xbdb701b6	-0.08935873
61	0xbe8437a0	-0.25823689
62	0x3e912192	0.28345925
63	0x3e137b1d	0.14402433
64	0x3d03e459	0.03220019
65	0x3e448cf7	0.19194399
66	0xbe894b80	-0.26815414
67	0x3da7198d	0.0815917
68	0x3e78819d	0.24268194
69	0xbd88076b	-0.0664204
70	0xbca73b84	-0.020414121
71	0x3e1498e0	0.14511442
72	0xbe9e955f	-0.30973336
73	0x3ea2a23f	0.3176441
74	0xbca50070	-0.02014181
75	0x3ea5d12f	0.32386157
76	0x3d24dbd8	0.04024872
77	0x3dc9113e	0.09817742
78	0xbd8b20f8	-0.06793398
79	0xbe920737	-0.2852113
80	0xbd948e5e	-0.07253717
81	0xbe3ef5ac	-0.18648404
82	0xbeb4fa11	-0.35347036
83	0x3e188629	0.14894928
84	0x3df094de	0.11747144
85	0xbdd90265	-0.1059616
86	0x3df89e0a	0.121395186
87	0x3deb1170	0.11477935
88	0xbdc2a149	-0.09503419
89	0xbe8e3a26	-0.2777874
90	0xbe297574	-0.16548711
91	0xbe0b2b66	-0.13590774
92	0x3eb3b93f	0.3510227
93	0xbea63a14	-0.32466185
94	0xbeb36e0c	-0.35044897
95	0x3e1d6513	0.15370588
96	0xbe20b447	-0.1569377
97	0x3e095e99	0.13414992
98	0xbdad62e2	-0.08466126
99	0x3e5ac1d4	0.21363002
100	0xbda5f2f4	-0.0810298
101	0x3e601d05	0.2188607
102	0x3d2ad8ad	0.041710544
103	0x3e4a7624	0.1977163
104	0x3db7cd6d	0.08974729
105	0x3eaec303	0.34133157
106	0xbdcfbdb3	-0.10143604
107	0x3e1562eb	0.14588515
108	0x3e35d348	0.17756379
109	0x3ea2d19b	0.3180054
110	0xbe1c3af4	-0.15256864
111	0x3eb3952d	0.3507475
112	0x3d5e1acf	0.054224785
113	0x3e73ede7	0.23821221
114	0x3e81b5a5	0.25333896
115	0x3def319d	0.11679385
116	0x3dcecf95	0.10098187
117	0x3e9ea087	0.30981848
118	0xbea77a3f	-0.32710454
119	0xbcc84456	-0.024446648
120	0xbd9c4fa3	-0.07632377
121	0x3ddd20fb	0.10797306
122	0x3e94a1ab	0.29029593
123	0x3e734c8d	0.2375967
124	0xbdfe556b	-0.12418636
125	0xbc661467	-0.01404295
126	0xbe6355df	-0.22200726
127	0xbe1b9d97	-0.15196835
128	0xbe928f88	-0.2862513
129	0x3e506146	0.20349607
130	0xbcb82631	-0.022479149
131	0xbe0172f5	-0.12641509
132	0xbe4a2330	-0.19739985
133	0x3e0f1a40	0.13974857
134	0xbc84008b	-0.01611354
135	0xbde938ea	-0.113878086
136	0x3e2ae6a4	0.16689545
137	0x3e8acde9	0.27110222
138	0xbd0c07e2	-0.034187205
139	0x3e38ccf8	0.1804694
140	0xbdeb8ef9	-0.11501879
141	0xbe654a1d	-0.22391553
142	0x3e6dee7f	0.2323551
143	0xbe95e1a5	-0.29273716
144	0x3ea23c46	0.3168661
145	0x3e13bacf	0.1442673
146	0x3dbd9194	0.092562824
147	0x3e4315a9	0.19051231
148	0xbe3f0201	-0.18653108
149	0xbdfb0352	-0.12256493
150	0x3dae9f8e	0.085265264
151	0x3de68e12	0.112575665
152	0xbeb0098a	-0.34382278
153	0x3e8c5f71	0.27416566
154	0x3e576b39	0.21036996
155	0xbdc32118	-0.095277965
156	0x3e8082bd	0.25099745
157	0xbe428fdf	-0.19000195
158	0x3e158731	0.14602353
159	0xbce4074a	-0.027835507
160	0x3e81304d	0.25232163
161	0x3e443bf8	0.19163501
162	0xbe427911	-0.18991496
163	0x3e2d1015	0.16900666
164	0x3e440550	0.19142652
165	0xbe12bee2	-0.14330629
166	0x3ddae006	0.1068726
167	0x3e542faa	0.20721307
168	0xbea43e1b	-0.32078633
169	0x3c8ac412	0.016939197
170	0xbd05dd88	-0.03268197
171	0xbdf3397b	-0.11876198
172	0xbe03f483	-0.12886243
173	0xbea4d9a0	-0.32197285
174	0x3eb299d8	0.34882998
175	0xbe2fc918	-0.17166555
176	0x3c26b705	0.010175471
177	0x3d0199ac	0.031640694
178	0x3ea403ef	0.3203425
179	0xbe1555cb	-0.14583509
180	0xbd62a0df	-0.0553292
181	0x3e992fd8	0.29919314
182	0x3e530bc6	0.2060996
183	0x3d6f9583	0.058492195
184	0x3e95413d	0.29151335
185	0x3ddf3273	0.10898294
186	0x3e7bed2d	0.24602194
187	0xbeab4166	-0.33448333
188	0xbe879452	-0.26480347
189	0xbe3e87d4	-0.18606502
190	0xbd47692d	-0.048684288
191	0xbe939efc	-0.28832233
192	0x3e85ecc6	0.26157206
193	0x3e6b49ee	0.2297742
194	0x3d04479c	0.032294855
195	0x3d64f568	0.0558981
196	0xbe8597b9	-0.26092318
197	0x3e2d0758	0.16897333
198	0x3e7fbdf2	0.24974802
199	0x3e0cf480	0.13765144
200	0x3e0a5d36	0.1351212
201	0xbeabf84c	-0.33587873
202	0xbdc1919f	-0.09451603
203	0x3ea88cd1	0.32919934
204	0xbdd8be18	-0.105831325
205	0x3e4ac39d	0.19801183
206	0xbdc514e8	-0.09623128
207	0x3eac367d	0.3363532
208	0x3e2e108e	0.16998503
209	0x3e89f5d7	0.26945373
210	0x3ca2f66a	0.01989289
211	0xbe1f541b	-0.15559427
212	0xbd24e57b	-0.040257912
213	0x3e632216	0.22180972
214	0xbe892723	-0.2678767
215	0x3e31521c	0.17316478
216	0xbcde5a89	-0.02714278
217	0x3eb00a20	0.34382725
218	0x3e8b3ecf	0.27196357
219	0xbe543808	-0.20724499
220	0xbc861aa7	-0.01637013
221	0xbdd2cf95	-0.102934994
222	0xbe8db405	-0.27676407
223	0xbe915178	-0.28382468
224	0x3e889fc1	0.26684383
225	0xbdfe7482	-0.12424566
226	0x3dd780a0	0.1052258
227	0xbe4957d7	-0.19662414
228	0xbe5bc671	-0.21462418
229	0xbcebe9a3	-0.02879793
230	0x3e01a8b2	0.12662008
231	0xbe205932	-0.15659025
232	0x3da552fe	0.0807247
233	0x3e031bc9	0.12803568
234	0x3cda4e02	0.026648525
235	0x3dbc56f0	0.091962695
236	0xbe114b16	-0.141888
237	0x3e8666a5	0.26250187
238	0x3e10104b	0.14068715
239	0xbe930b3a	-0.28719503
240	0x3e9d56ef	0.30730388
241	0x3ea99388	0.3312037
242	0x3dced597	0.10099333
243	0xbdf39db1	-0.118953116
244	0xbe27a4e2	-0.16371492
245	0xbdf9253b	-0.12165304
246	0xbe8f83f1	-0.2803035
247	0x3d82e80b	0.06391915
248	0xbeb17b4d	-0.34664384
249	0x3d85fd0b	0.06542405
250	0xbdd5fd3e	-0.10448693
251	0x3c839e58	0.016066715
252	0xbe4eb5a1	-0.20186473
253	0xbda1b936	-0.07896654
254	0xbe95ec89	-0.29282025
255	0x3e71f710	0.23629403

network_arch.0.bias f4 [64]
0	0xbe8ce731	-0.27520135
1	0x3d9686ab	0.073499046
2	0x3e9a9c80	0.30197525
3	0x3dbb231a	0.091375545
4	0xbe567094	-0.20941383
5	0xbe811be8	-0.25216603
6	0x3e98938d	0.29800072
7	0xbea357b1	-0.3190284
8	0xbd11b4ad	-0.035572696
9	0x3dff2248	0.124577105
10	0x3d884752	0.06654228
11	0xbe96a066	-0.2941925
12	0xbd5538aa	-0.052055992
13	0x3e52479c	0.2053513
14	0xbeb0bbcd	-0.3451828
15	0xbea0cf82	-0.31408316
16	0xbd2f9546	-0.042866968
17	0xbe936eae	-0.2879538
18	0xbe288af8	-0.16459262
19	0x3d8a710e	0.06759845
20	0xbe1ae7eb	-0.15127532
21	0xbe579842	-0.21054175
22	0xbc0ae5bf	-0.008477627
23	0x3d2db0f3	0.04240508
24	0x3e9e39a4	0.3090335
25	0xbe86fdec	-0.26365602
26	0x3c89e117	0.016830964
27	0xbe94a6ec	-0.290336
28	0x3d84b015	0.064788975
29	0x3e4cb9a9	0.19992699
30	0xbdc1c5ed	-0.094615795
31	0xbeb1e4a9	-0.34744766
32	0xbdb7980a	-0.08964546
33	0x3d31b932	0.043389507
34	0x3ea0a56e	0.31376213
35	0x3e6b2926	0.22964916
36	0x3d99ca67	0.07509308
37	0xbea3e42e	-0.32010025
38	0x3e3edf4c	0.18639868
39	0xbde6b260	-0.11264491
40	0xbdbd4aab	-0.092427574
41	0x3d0c848e	0.0343061
42	0x3e4d879b	0.2007126
43	0x3e11612c	0.14197224
44	0x3e657bae	0.22410461
45	0x3d7280b4	0.059204772
46	0xbd8bbf18	-0.068235576
47	0x3d93613a	0.07196279
48	0x3e1deb8f	0.1542189
49	0x3e1789fa	0.14798728
50	0x3d5390ab	0.051651638
51	0xbdad93ea	-0.08475478
52	0x3e4d0d14	0.2002452
53	0x3eaff486	0.34366244
54	0xbe743a72	-0.2385042
55	0xba85ee31	-0.0010218081
56	0x3e8a601e	0.27026457
57	0x3e59facd	0.21287079
58	0x3e9ebc11	0.31002858
59	0x3e7ccd98	0.24687803
60	0xbe5070cc	-0.20355529
61	0x3e951c50	0.29123163
62	0xbe377f3f	-0.17919634
63	0xbe8bca28	-0.2730267

network_arch.2.weight f4 [4, 64]
0	0xbce9c958	-0.028538391
1	0x3cf70f00	0.03015852
2	0xbb6b5140	-0.0035906583
3	0xbdad4340	-0.084600925
4	0xbcac5940	-0.021038651
5	0xbd1357ec	-0.03597252
6	0xbd684544	-0.05670668
7	0xbcb34278	-0.02188228
8	0x3d66f884	0.056389347
9	0x3dfeccb0	0.12441385
10	0x3d5052d4	0.05086024
11	0xbdf4c8b2	-0.11952342
12	0xbcf9ee40	-0.030509114
13	0xbd4e4458	-0.050358146
14	0x3db9228a	0.09039791
15	0xbc6683f0	-0.014069542
16	0x3c1844d0	0.00929375
17	0xbc6fdc70	-0.014639959
18	0xbd2820ec	-0.04104702
19	0xbd99cd04	-0.07509807
20	0x3bc68f80	0.006059587
21	0xbb8379c0	-0.0040123165
22	0x3d7c3edc	0.061583385
23	0xbda80894	-0.08204761
24	0x3ce38ee0	0.027778089
25	0x3cd3d690	0.025859147
26	0xbda01382	-0.07816221
27	0xbdfdd0f0	-0.12393367
28	0x3b136d00	0.002249539
29	0xbd9db7a0	-0.07701039
30	0x3dded324	0.10880116
31	0xbddb4c12	-0.10707869
32	0x3d592174	0.05301042
33	0xbdb27256	-0.08713214
34	0xbd90afc4	-0.07064775
35	0xbdfd0cc6	-0.12355952
36	0x3dede73c	0.1161637
37	0xbdcc6f0e	-0.099821195
38	0x3dd30606	0.10303883
39	0xbdd93ed6	-0.10607688
40	0x3d140d34	0.036145404
41	0x3decceda	0.11562891
42	0xbd9640c8	-0.07336575
43	0x3d8c9886	0.06865029
44	0xbd05b09c	-0.03263913
45	0x3d92d83a	0.07170148
46	0xbdfd0e02	-0.123561874
47	0xbba3dae0	-0.005000457
48	0x3cd93000	0.026512146
49	0xbdb74034	-0.08947793
50	0x3c78fdd0	0.015197232
51	0xbcaa2120	-0.020767748
52	0xbdfa51ce	-0.12222634
53	0xbd5bc7f0	-0.053657472
54	0xbcff5728	-0.031169489
55	0xbb95c760	-0.0045708865
56	0xbdfba244	-0.12286809
57	0x3c97e560	0.018541992
58	0xbca366d0	-0.019946486
59	0xbdd041a6	-0.101687714
60	0xbd398f5c	-0.045302734
61	0xbddfaf18	-0.10922068
62	0xbd950b10	-0.07277501
63	0x3cd7a1f8	0.02632235
64	0x3d90f26e	0.0707749
65	0x3cf65c00	0.030073166
66	0xbc987be0	-0.018613756
67	0x3d8963c8	0.06708485
68	0xbc30c9b0	-0.010790274
69	0x3cb9d5a0	0.022684872
70	0x3de8b920	0.11363435
71	0xbd83390c	-0.06407365
72	0x3df9008a	0.12158306
73	0x3d030b08	0.031992942
74	0x3dbfcf94	0.09365764
75	0xbcbea610	-0.023272544
76	0xbdb9ef46	-0.09078841
77	0xbddc986e	-0.10771261
78	0x3df5d37e	0.120032296
79	0x3d4bf788	0.04979661
80	0x3dcbbab4	0.0994772
81	0xbd29b330	-0.041430652
82	0xbda97484	-0.08274177
83	0xbdcbb478	-0.09946531
84	0xbd282980	-0.041055202
85	0xbd9432a4	-0.072362214
86	0xbd8d2c9c	-0.06893274
87	0xbd5e1334	-0.054217532
88	0x3d668d64	0.056287184
89	0x3da390a4	0.079865724
90	0x3c9672f8	0.018365368
91	0x3d5b72fc	0.053576455
92	0x3de03476	0.10947506
93	0x3db13cdc	0.08654186
94	0x3da914e8	0.08255941
95	0xbd7358b4	-0.059410766
96	0x3c887ba0	0.016660511
97	0xbdaaccd0	-0.08339846
98	0xbdeac838	-0.1146397
99	0xbc230570	-0.009950027
100	0xbc1a6c20	-0.009425193
101	0x3ded57de	0.11589025
102	0x3bdc4e80	0.006723225
103	0xbddd58c0	-0.10807943
104	0xbdd937d0	-0.106063485
105	0x3d0f71d8	0.03502068
106	0xbd62fd7c	-0.055417523
107	0xbdb43b12	-0.08800329
108	0x3d78a154	0.06070073
109	0xbde3d21e	-0.11124061
110	0x3d6e598c	0.058190867
111	0x3dfcfcb4	0.12352887
112	0xbd6e6a20	-0.058206677
113	0xbbc784a0	-0.006088808
114	0x3da96416	0.08271043
115	0xbd2f19d8	-0.042749256
116	0x3dfde42a	0.123970345
117	0x3dfcdf92	0.1234733
118	0xbd619dac	-0.05508201
119	0xbd19c8e4	-0.0375451
120	0xbc42c5a0	-0.011887938
121	0xbd534ce4	-0.051587
122	0x3da556a2	0.080731645
123	0xbd5f29dc	-0.05448328
124	0x3dc50526	0.096201226
125	0xbdcd02f4	-0.10010329
126	0x3dea9ba2	0.11455466
127	0xbd02cb98	-0.031932443
128	0xbd527000	-0.051376343
129	0x3d289a58	0.04116282
130	0xbd821f2e	-0.06353603
131	0xbdf95a2e	-0.121754035
132	0x3d0372c0	0.032091856
133	0xbdb3f3a4	-0.08786705
134	0xbd3eec28	-0.046611935
135	0x3cf941c8	0.030426875
136	0x3d9a9e68	0.07549745
137	0xbd81ff1e	-0.06347488
138	0xbd1da364	-0.0384859
139	0x3df179b0	0.11790788
140	0x3d6ad230	0.057329357
141	0x3dbc0f2c	0.09182581
142	0xbd3ab828	-0.04558578
143	0xbdd3ba22	-0.103382364
144	0x3d98be06	0.07458119
145	0xbd0c2930	-0.034218967
146	0xbd985970	-0.07438934
147	0xbdc0a912	-0.094072476
148	0x3dcc0c2e	0.099632606
149	0x3d5f6f90	0.054549754
150	0xbac1b580	-0.0014778823
151	0xbcd5c0c0	-0.026092887
152	0xbdce2a00	-0.100666046
153	0x3d15b0cc	0.03654556
154	0xbdcc334c	-0.099707216
155	0x3c8232d0	0.01589337
156	0xbd273938	-0.040826052
157	0x3d809b28	0.06279594
158	0xbbdfb6a0	-0.0068271905
159	0xbc509fb0	-0.012733385
160	0x3d2d9838	0.042381495
161	0xbdc58336	-0.09644167
162	0xbdd76f7a	-0.10519309
163	0x3db05018	0.08609027
164	0x3df70f8c	0.12063512
165	0x3c49d970	0.012319908
166	0x3c508ce0	0.0127289
167	0xbd3f857c	-0.04675816
168	0x3cf1d978	0.029522642
169	0x3c80b890	0.015713006
170	0xbd9b4152	-0.07580818
171	0x3dcd6bee	0.100303516
172	0xbc689310	-0.014195219
173	0xbdf8cc44	-0.121483356
174	0xbcc6f108	-0.024284855
175	0xbc1109f0	-0.008852467
176	0xbd97cc76	-0.07412045
177	0x3de16f68	0.11007577
178	0x3c2e6210	0.010643497
179	0x3dd27f1c	0.102781504
180	0x3cefa820	0.029254973
181	0xbdbf9a80	-0.093556404
182	0x3d019c2c	0.031643078
183	0xbd69017c	-0.05688618
184	0x3daf4e20	0.08559823
185	0xbdda38c0	-0.106553555
186	0x3a972100	0.001153022
187	0xbdc291e6	-0.09500484
188	0x3de1b24e	0.11020337
189	0x3dcc4942	0.0997491
190	0x3d434be0	0.047679782
191	0xbcb42dd8	-0.021994516
192	0xbde50fb4	-0.11184636
193	0xbd513184	-0.051072612
194	0x3d3183c8	0.043338567
195	0xbd44bfe4	-0.048034564
196	0xbd745dec	-0.059659883
197	0x3de60c1c	0.112327784
198	0xbda286a8	-0.0793584
199	0xbca6f818	-0.020381972
200	0x3c052cd0	0.00812836
201	0x3d930c8a	0.07180126
202	0x3c612550	0.013741806
203	0xbd499c58	-0.049221367
204	0x3ba75c60	0.0051074475
205	0x3d4c7f48	0.049926072
206	0xbd495100	-0.049149513
207	0x3d5ca9a4	0.05387272
208	0x3dbfe760	0.09370303
209	0x3d9bae90	0.076016545
210	0xbdaedd5a	-0.08538313
211	0xbddfb682	-0.109234825
212	0xbd9ce28a	-0.076603964
213	0x3dccb2f0	0.09995067
214	0xbde7cb08	-0.11318022
215	0xbd16fa78	-0.03685996
216	0x3c0799d0	0.008276418
217	0x3c555280	0.013020158
218	0xbdd4e980	-0.10396099
219	0x3dd7ef4e	0.105436906
220	0x3d921e6a	0.07134707
221	0x3bca36a0	0.0061710626
222	0x3b21e940	0.0024705678
223	0xbd0ba5ac	-0.034093544
224	0xbc5a7c50	-0.0133353025
225	0xbd3303e0	-0.043704867
226	0x3d6ba28c	0.057528064
227	0x3cb244d8	0.021761343
228	0xbd0432e0	-0.03227508
229	0xbcc07248	-0.023491994
230	0x3c85a548	0.016314164
231	0x3d0aa358	0.033847183
232	0xbcc188f8	-0.023624882
233	0x3da84728	0.08216697
234	0xbd9d99d2	-0.076953545
235	0x3db885a8	0.09009868
236	0xbd86ed98	-0.06588286
237	0x3dc68e42	0.09695102
238	0x3cc0a4e0	0.023516119
239	0x3b143340	0.0022613555
240	0xbdb599d2	-0.088672295
241	0x3c27db20	0.010245115
242	0xbc7a85b0	-0.015290663
243	0xbde4241a	-0.11139698
244	0x3de48fca	0.11160238
245	0xbdd127f0	-0.102126956
246	0xbd31a9a8	-0.043374687
247	0xbdb10172	-0.08642854
248	0xbdeba830	-0.115066886
249	0xbdcef508	-0.1010533
250	0x3d6c3d94	0.057675913
251	0x3d505864	0.050865546
252	0x3d9e1e30	0.077206016
253	0xbdf4364c	-0.11924419
254	0x3de6d19e	0.1127045
255	0xbdf00734	-0.11720124

network_arch.2.bias f4 [4]
0	0x3deeced4	0.11660543
1	0xbccddb70	-0.02512905
2	0x3d83232c	0.06403193
3	0xbd292b78	-0.04130122

layer1.weight f4 [32, 8]
0	0xbf275b09	-0.65373284
1	0xbf233a17	-0.63760513
2	0xbe91a220	-0.28444004
3	0xbcd2b064	-0.025718875
4	0xbe7def30	-0.24798274
5	0xbd858688	-0.065198004
6	0xbea01ccd	-0.31271973
7	0xbca13999	-0.019680785
8	0x3e1be24d	0.15223046
9	0x3daef9d6	0.08543746
10	0x3e7e949b	0.24861376
11	0xbe21c58d	-0.15798016
12	0x3e977e21	0.29588416
13	0x3eba529f	0.3639116
14	0x3e80b084	0.2513467
15	0xbdc88008	-0.09790045
16	0xbd6934af	-0.05693501
17	0x3d0a8d6f	0.033826288
18	0xbe921812	-0.2853399
19	0xbe2f0fdb	-0.17095892
20	0x3e217a20	0.15769243
21	0x3dedb72c	0.11607203
22	0x3e3af138	0.1825608
23	0x3de7b544	0.113138705
24	0xbe728b67	-0.2368599
25	0x3e8010c9	0.25012806
26	0x3da4b5fa	0.08042522
27	0xbe5b9f1e	-0.21447417
28	0x3e173d23	0.14769416
29	0x3f33725d	0.7009638
30	0x3f0c2882	0.5474931
31	0x3d1794cd	0.03700714
32	0xbd83c0ea	-0.0643328
33	0xbe959577	-0.29215595
34	0x3d05d857	0.03267702
35	0x3e093708	0.13399899
36	0xbc974fe4	-0.018470712
37	0x3db5aae7	0.08870488
38	0x3d2cb8ea	0.042168535
39	0x3e847f2e	0.2587828
40	0xbe3fed5d	-0.1874289
41	0xbe7b715e	-0.24554965
42	0xbd759755	-0.059958775
43	0x3dcdc024	0.100464135
44	0x3e64e203	0.22351842
45	0xbe4ab4b5	-0.19795497
46	0x3d77a50a	0.060460128
47	0xbdb48d9b	-0.088160716
48	0xbe9327e1	-0.28741363
49	0xbe006ef7	-0.1254233
50	0x3e5eeba7	0.21769582
51	0x3ef72132	0.48267514
52	0xbdfd50a1	-0.12368894
53	0xbf03252a	-0.5122858
54	0x3df64ef6	0.12026779
55	0x3e2c85ae	0.1684787
56	0x3ee65a9f	0.44991013
57	0xbf3441e2	-0.7041303
58	0x3e536b68	0.20646441
59	0xbe81a6f6	-0.25322694
60	0x3e5ea950	0.21744275
61	0xbe1cab77	-0.15299784
62	0xbe80bebc	-0.2514552
63	0x3e8e1aae	0.2775473
64	0x3cce513c	0.02518522
65	0x3e53c482	0.2068043
66	0xbe056289	-0.1302587
67	0x3ee3ae3c	0.44468868
68	0x3ec1079f	0.37701127
69	0x3ee10c8b	0.43954882
70	0xbed58772	-0.417049
71	0xbea06ccc	-0.31333005
72	0xbec6fdd2	-0.38865525
73	0xbf8646cb	-1.0490354
74	0xbdab163a	-0.08353849
75	0xbea1b080	-0.3157997
76	0x3d28bece	0.04119759
77	0xbcf0360b	-0.029322645
78	0x3dcb7288	0.099339545
79	0xbe1b4041	-0.1516123
80	0x3ebcb08e	0.3685345
81	0xbf36015e	-0.71095836
82	0x3e96c6a1	0.29448417
83	0xbe494378	-0.19654644
84	0x3d5b8efa	0.05360315
85	0x3e4fb543	0.2028399
86	0x3d94d1c4	0.07266572
87	0x3e07886b	0.13235633
88	0x3d11dd81	0.035611633
89	0xbee97a74	-0.45601237
90	0x3e506587	0.2035123
91	0xbbaca654	-0.0052688513
92	0xbe98738d	-0.29775658
93	0xbe1a5082	-0.15069774
94	0x3e9c5081	0.3053017
95	0x3e86cd2a	0.26328403
96	0xbd85c727	-0.06532126
97	0x3e67f4a4	0.22651917
98	0x3e4c79dd	0.19968362
99	0x3e7d9f03	0.2476769
100	0x3eb3e34c	0.3513435
101	0x3ef12d56	0.471049
102	0x3e9746bb	0.2954615
103	0x3e0c650a	0.13710418
104	0xbe048c3a	-0.12944117
105	0x3eb92d40	0.36167336
106	0x3e1bf2b4	0.15229303
107	0xbef6a5ed	-0.48173466
108	0xbe30e12e	-0.17273399
109	0xbee4cf9b	-0.4468964
110	0xbea37714	-0.31926787
111	0xbce847a0	-0.028354466
112	0xbc4ae7cb	-0.012384365
113	0x3ca91f7e	0.0206449
114	0x3e3031f1	0.17206551
115	0x3dfe207e	0.12408541
116	0xbda8662f	-0.08222615
117	0xbf6ae6f0	-0.9175863
118	0x3d1f3c3a	0.038875796
119	0x3db630f6	0.08896057
120	0x3e53061f	0.20607804
121	0xbe3d1273	-0.18464069
122	0x3e66ba3b	0.22531979
123	0xbdfd5476	-0.12369625
124	0x3d05b795	0.03264578
125	0xbea6e4a4	-0.32596314
126	0x3cd26ca4	0.02568657
127	0x3acbb897	0.0015542683
128	0xbf35eac1	-0.7106133
129	0xbee2f9a5	-0.4433109
130	0xbea64e33	-0.32481536
131	0xbed5649d	-0.41678324
132	0x3de874ab	0.11350378
133	0xbdcab0d0	-0.098970056
134	0x3e97af5e	0.29625982
135	0x3e33936c	0.17536706
136	0xbdf7dab1	-0.12102259
137	0x3e041ccd	0.12901612
138	0x3d618fd3	0.055068802
139	0x3a5b45b0	0.0008364571
140	0xbdfbe5ab	-0.12299665
141	0x3de0de07	0.10979848
142	0xbd58433e	-0.052798502
143	0x3e67e959	0.22647609
144	0x3eeb7c28	0.4599316
145	0x3c1f68bd	0.009729561
146	0x3d63ac0b	0.055583995
147	0x3e29a1ee	0.16565678
148	0xbe38a77a	-0.18032637
149	0xbf04af25	-0.5182975
150	0xbe870173	-0.26368293
151	0xbe7e557d	-0.24837299
152	0xbea59d4d	-0.32346573
153	0xbe6229ca	-0.22086254
154	0xbe714931	-0.23563077
155	0x3d4a369d	0.04936849
156	0x3ea5c6b4	0.3237816
157	0xbe36060b	-0.17775743
158	0x3ebf9142	0.3741551
159	0x3d9d8b02	0.07692529
160	0xbdc63744	-0.0967851
161	0xbf8cd03a	-1.1001046
162	0x3caa42e2	0.020783845
163	0xbf1e01ea	-0.6172167
164	0xbdf4783b	-0.11936995
165	0x3d6c68fc	0.05771731
166	0xbd490501	-0.049077038
167	0x3e8b0ab6	0.2715661
168	0x3db893be	0.090125546
169	0x3dfcc3b0	0.12342012
170	0xbf1e74a4	-0.6189673
171	0x3eb5566e	0.35417503
172	0x3ea192db	0.31557354
173	0x3d903974	0.07042208
174	0xbeb276a0	-0.3485613
175	0xbebb056d	-0.36527577
176	0xbe648341	-0.22315694
177	0xbf9a7e9e	-1.206989
178	0xbe47feee	-0.19530842
179	0xbf02d289	-0.511025
180	0xbdaff69b	-0.08591958
181	0x3d43dbf9	0.047817204
182	0x3dc50a59	0.09621114
183	0x3ce0b4a4	0.027429886
184	0x3d5f4be2	0.054515727
185	0x3e4b526c	0.1985566
186	0x3dd7f6d4	0.105451256
187	0x3e6172ad	0.22016402
188	0x3e2b51ed	0.16730471
189	0x3f0cb5d4	0.5496495
190	0x3ec3037e	0.38088602
191	0x3e101b4d	0.14072914
192	0x3df803f2	0.121101275
193	0x3e446f91	0.19183184
194	0x3e0dec54	0.13859683
195	0x3eee8020	0.46582127
196	0xbf11f7c3	-0.5701868
197	0xbf09d268	-0.5383668
198	0x3e9bbc2d	0.30417004
199	0xbf256da8	-0.6462045
200	0xbdbdba66	-0.09264068
201	0x3e543884	0.20724684
202	0x3e4d35ce	0.20040056
203	0xbe81a57f	-0.25321576
204	0xbeb9046f	-0.36136195
205	0xbf2a7757	-0.6658835
206	0xbe10d3e8	-0.14143336
207	0xbf526fd6	-0.822019
208	0x3f5f1ec2	0.8715631
209	0xbed413cc	-0.41421354
210	0x3ed9775b	0.42473873
211	0xbe9ccc26	-0.30624503
212	0x3e55ea73	0.20890217
213	0x3e6c48ae	0.230746
214	0x3eb4c597	0.35307
215	0x3d0d8863	0.034553897
216	0x3ebae167	0.36500093
217	0xbe0fccce	-0.1404297
218	0x3e8a4571	0.27006105
219	0xbda93a21	-0.0826304
220	0xbe797e10	-0.24364495
221	0xbe52bf95	-0.20580895
222	0xbe4dcc8c	-0.2009756
223	0x3ea71f87	0.3264124
224	0x3d6a386f	0.057182726
225	0xbe7c4c97	-0.24638592
226	0xbd41b81a	-0.047294714
227	0x3ee0e004	0.4392091
228	0x3e92a41a	0.28640825
229	0xbeb92705	-0.36162582
230	0x3dfc1366	0.123083875
231	0x3ed9bbc9	0.4252608
232	0xbe07c6b6	-0.13259396
233	0xbe0f8f2e	-0.14019462
234	0x3d877c28	0.06615478
235	0x3dc2c5e4	0.09510401
236	0xbe72aa95	-0.23697884
237	0xbed28e8e	-0.41124386
238	0x3e416867	0.18887483
239	0x3eaeffe2	0.34179598
240	0xbeb63d58	-0.35593677
241	0xbd314e5d	-0.043287624
242	0xbe93f505	-0.28897873
243	0xbe950165	-0.29102626
244	0xbd5f9d06	-0.05459311
245	0x3dc9ee9a	0.09859963
246	0x3eedb724	0.46428788
247	0x3e092d5c	0.1339621
248	0x3c8f76e0	0.017512739
249	0x3e4c1fb0	0.19933963
250	0x3e9b8f41	0.30382732
251	0x3e0607ce	0.13088915
252	0xbea8e1bc	-0.32984722
253	0xbf30f38b	-0.6912162
254	0xbdb3a499	-0.08771629
255	0xbdb4e7c3	-0.088332675

layer1.bias f4 [32]
0	0xbee2f634	-0.44328463
1	0xbd21ed0a	-0.0395327
2	0xbe053025	-0.13006647
3	0x3e88c7c0	0.26714897
4	0x3dbcd8a2	0.09221007
5	0xbeaf83c0	-0.34280205
6	0x3ece5dba	0.40305883
7	0xbd88ece1	-0.06685806
8	0x3d7668f6	0.060158692
9	0x3d74c480	0.05975771
10	0xbacca292	-0.0015612415
11	0x3e47789a	0.194796
12	0x3d3b0310	0.045657218
13	0xbce0ee19	-0.027457284
14	0x3e8c7f40	0.27440834
15	0xbcf3bf93	-0.029754436
16	0xbe3a3690	-0.18184876
17	0xbedb4fe0	-0.42834377
18	0xbe5daf16	-0.21648821
19	0xbe7315e5	-0.23738821
20	0xbdd144ee	-0.102182254
21	0x3e08896e	0.13333675
22	0xbc92e4e2	-0.017931405
23	0xbdffeb2f	-0.124960296
24	0x3d12d734	0.035849765
25	0x3df23293	0.118260525
26	0xbe247cfc	-0.16063303
27	0xbe770937	-0.24124609
28	0xbde23d1a	-0.110468104
29	0xbdb1dafb	-0.08684345
30	0xbe8218a8	-0.25409436
31	0xbe2913a3	-0.16511397

layer2.weight f4 [64, 32]
0	0x3e7aeaae	0.24503586
1	0x3c7638f7	0.01502823
2	0x3c843f48	0.016143456
3	0x3e5f8828	0.21829283
4	0x3cc3ddb4	0.023909427
5	0xbe12f55d	-0.14351411
6	0xbf3c779f	-0.7362003
7	0x3e8809d1	0.2656999
8	0x3e891aa2	0.26778132
9	0x3db4d3d4	0.088294655
10	0x3e7a7bc1	0.24461271
11	0x3d918b1e	0.071066126
12	0x3cf7a061	0.030227842
13	0xbd910875	-0.07081691
14	0xbeb0300b	-0.34411654
15	0xbdecbf37	-0.11559909
16	0x3e4ad082	0.19806102
17	0xbd9a18ed	-0.075242855
18	0xbe637a1d	-0.22214551
19	0x3db3d2f8	0.087804735
20	0x3e94f476	0.2909276
21	0xbd100d8d	-0.035169173
22	0x3e90093e	0.2813205
23	0x3e8bb6b0	0.27287817
24	0xbe4e710b	-0.2016031
25	0xbf0a308a	-0.53980315
26	0x3e4cfc62	0.20018151
27	0xbd806881	-0.062699325
28	0xbe9e8013	-0.30957088
29	0x3d7d8e6c	0.061903402
30	0xbd1fc1f6	-0.039003335
31	0xbe6558d0	-0.2239716
32	0x3e3d4990	0.18485093
33	0x3e8e8d3a	0.27842122
34	0xbda41936	-0.08012621
35	0x3e668a00	0.2251358
36	0x3dbcdca0	0.092217684
37	0xbd14e4ad	-0.036350895
38	0xbee7ffa9	-0.4531224
39	0x3dc1345c	0.09433815
40	0x3e0e6ae8	0.13907969
41	0x3dc22cbf	0.09481191
42	0x3e403faa	0.18774286
43	0xbc957322	-0.018243376
44	0x3e75fb12	0.24021557
45	0xbe2ce1b5	-0.16882975
46	0xbdb3b34b	-0.08774432
47	0x3d990704	0.07472041
48	0x3e330c29	0.17485107
49	0xbde84179	-0.11340613
50	0xbdbbefa3	-0.091765665
51	0xbd5fa147	-0.054597165
52	0x3e6e4797	0.23269497
53	0x3e2950d3	0.16534738
54	0x3eec51ba	0.46156102
55	0x3ddbd988	0.1073485
56	0xbed06c14	-0.40707457
57	0xbe8f181c	-0.27948081
58	0xbcd92d05	-0.026510725
59	0x3d8e6008	0.0695191
60	0xbeca5806	-0.39520282
61	0xbd2b8331	-0.04187316
62	0x3de233d6	0.11045043
63	0xbd91bf65	-0.07116584
64	0xbe5c6e1b	-0.21526377
65	0xbd85ef33	-0.06539764
66	0xbe2ecea4	-0.17071015
67	0xbd082f17	-0.033248033
68	0xbdf70776	-0.1206197
69	0xbe4dbe8f	-0.20092224
70	0x3d52df61	0.051482562
71	0xbe1f9986	-0.15585908
72	0x3d36429d	0.04449712
73	0xbdc7b97a	-0.09752174
74	0xbe1eec49	-0.15519823
75	0x3d3884e9	0.045048628
76	0x3d85c054	0.06530824
77	0xbdf3d3c1	-0.11905623
78	0xbcac655a	-0.021044422
79	0xbda0c650	-0.07850325
80	0xbe9ae0e0	-0.3024969
81	0xbd73a7cd	-0.0594862
82	0xbe6ed7d5	-0.23324521
83	0xbe8c525f	-0.27406594
84	0xbe27ecec	-0.16398972
85	0x3db4bb42	0.08824779
86	0xbe413374	-0.18867284
87	0x3e2f50b9	0.17120637
88	0xbec00532	-0.37503964
89	0xbe9f588a	-0.31122237
90	0xbe4e4371	-0.20142914
91	0x3ddff889	0.10936076
92	0xbda7ab0f	-0.08186924
93	0xbe5ea4de	-0.2174258
94	0x3c36ebdf	0.0111646345
95	0xbed7dcab	-0.42160544
96	0xbd75aed9	-0.0599812
97	0xbde7ff50	-0.11327994
98	0x3da65044	0.08120778
99	0x3e177f42	0.14794639
100	0xbd82138f	-0.06351387
101	0xbdd5aa29	-0.10432846
102	0xbe09eccd	-0.13469239
103	0x3da94d74	0.08266726
104	0x3dee9d47	0.11651092
105	0x3e155f37	0.14587103
106	0x3cf988cb	0.030460736
107	0x3da1992b	0.078905426
108	0xbd6b41e8	-0.0574359
109	0xbe3e7fce	-0.18603441
110	0xbeabdd35	-0.33567205
111	0x3c24cf0d	0.01005913
112	0xbdb3b1ff	-0.087741844
113	0xbd187e83	-0.037230026
114	0xbddc4d61	-0.10756946
115	0xbd17a82a	-0.037025608
116	0x3e7179b7	0.23581587
117	0x3d1f7f23	0.038939606
118	0xbd1690ab	-0.03675906
119	0x3c038a05	0.008028512
120	0xbe80cb37	-0.2515504
121	0xbe04d5d0	-0.12972188
122	0x3e57c5af	0.21071504
123	0x3d5c5b25	0.05379786
124	0xbdf54916	-0.11976831
125	0xbe01c212	-0.12671688
126	0x3d9178ba	0.07103105
127	0xbdee613d	-0.116396405
128	0x3c140c0f	0.009036078
129	0xbdfd45b9	-0.12366814
130	0xbded9a13	-0.11601653
131	0xbd9077ce	-0.07054101
132	0x3d6cc6e0	0.05780685
133	0x3d609a16	0.054834448
134	0xbe337ca8	-0.17528021
135	0x3d10739e	0.03526651
136	0x3dc28586	0.09498124
137	0xbd08ba29	-0.03338066
138	0x3d2bc60c	0.04193692
139	0xbe0cf400	-0.13764954
140	0x3d9872c5	0.074437656
141	0xbe132a5e	-0.1437163
142	0xbdc972ce	-0.098363504
143	0xbd94e5c7	-0.07270389
144	0xbd60df79	-0.05490062
145	0xbd6acc97	-0.05732402
146	0xbc89c6c0	-0.016818404
147	0x3dc7428f	0.09729492
148	0x3d324f20	0.04353249
149	0xbc8e433d	-0.017366046
150	0x3d86ae41	0.06576205
151	0x3d3383e6	0.04382696
152	0x3cfc1dd0	0.030775934
153	0x3dc93c8b	0.09826001
154	0xbd423f38	-0.04742357
155	0xbe018d65	-0.12651594
156	0xbe04d5f8	-0.12972248
157	0xbd744755	-0.05963834
158	0xbce1dcf0	-0.027571172
159	0xbe06107b	-0.13092224
160	0x3e0cc392	0.13746479
161	0xbebf251c	-0.37333
162	0xbd9c3902	-0.07628061
163	0xbef2db6a	-0.47433025
164	0xbe59d6ad	-0.21273299
165	0xbd71ec4b	-0.059063237
166	0x3e450aaa	0.1924235
167	0x3eb1f71b	0.3475884
168	0xbecc0aab	-0.3985189
169	0x3ecaa73c	0.39580715
170	0x3d6f89c3	0.05848099
171	0x3e67a7e2	0.22622636
172	0xbf0b07ea	-0.5430895
173	0x3ed1751c	0.4090966
174	0x3eaa00d4	0.33203757
175	0x3d912801	0.07087708
176	0x3ee0951e	0.43863767
177	0xbcfda8f3	-0.03096435
178	0x3ecaaa6f	0.39583156
179	0x3da7260d	0.081615545
180	0x3eae3470	0.34024382
181	0xbe5ce325	-0.21571024
182	0x3e96d426	0.2945873
183	0xbee8cd69	-0.45469216
184	0x3df11819	0.117721744
185	0x3db7adeb	0.08968719
186	0x3eb0b0f3	0.34510002
187	0x3e57ce0d	0.21074696
188	0xbecba48f	-0.39773986
189	0x3e087b35	0.1332825
190	0x3e5ca514	0.21547347
191	0x3eabcf64	0.33556664
192	0xbd1a2d32	-0.037640758
193	0xbd8c17e6	-0.06840496
194	0x3df75fdd	0.12078831
195	0xbe0dc6f1	-0.13845421
196	0x3ddc352e	0.10752331
197	0x3de373ef	0.11106097
198	0xbe24fd4d	-0.16112252
199	0x3cef2462	0.029192153
200	0xbd4e3cf0	-0.050351083
201	0xbe056e07	-0.13030253
202	0xbe88b1af	-0.26698062
203	0x3e22010d	0.15820713
204	0xbe3f39c6	-0.18674383
205	0xbd777cb6	-0.060421668
206	0x3c395fe1	0.011314363
207	0x3da1dd30	0.07903516
208	0x3ca9ef3e	0.020743962
209	0xbe1c6165	-0.15271528
210	0x3d2a3540	0.04155469
211	0x3d7cdf57	0.06173643
212	0xbde9fa41	-0.11424685
213	0x3d8a2442	0.06745197
214	0x3c90d9c9	0.017681973
215	0xbd892c8d	-0.066979505
216	0xbdad35de	-0.0845754
217	0x3c20327d	0.009777662
218	0x3e4f6ab8	0.20255554
219	0xbe00ea6a	-0.12589422
220	0xbbb03e1b	-0.0053784973
221	0xbe2af386	-0.1669446
222	0xbe34fcde	-0.17674586
223	0xbda0e703	-0.07856562
224	0x3e7397f2	0.23788431
225	0x3e3d866e	0.18508312
226	0xbe0ff724	-0.1405912
227	0x3e44db3c	0.19224256
228	0x3ce45c2a	0.027875978
229	0xba49dc99	-0.0007700413
230	0xbea42719	-0.3206108
231	0x3cb895d2	0.022532377
232	0x3d9e766a	0.077374294
233	0x3e9af5ca	0.30265647
234	0x3ddd6568	0.10810357
235	0xbcfa48c7	-0.030552281
236	0x3e65e595	0.2245086
237	0x3d6891e5	0.05677976
238	0xbe7ec040	-0.24878025
239	0x3d3cbd10	0.04607874
240	0x3e90c032	0.28271633
241	0xbe19803c	-0.14990324
242	0x3cf81f93	0.030288493
243	0x3dcbe426	0.09955625
244	0x3e78e73c	0.24306959
245	0x3db67590	0.08909142
246	0x3ef335e6	0.4750206
247	0x3b034b82	0.002003402
248	0xbd36ed1c	-0.04465972
249	0xbec85875	-0.39129987
250	0x3e35c38c	0.17750376
251	0xbd72a88e	-0.059242778
252	0xbe572eaa	-0.21013895
253	0xbd1ed2d1	-0.03877527
254	0x3d480457	0.048832264
255	0xbd1791c3	-0.037004244

layer2.bias f4 [64]
0	0x3d3ad082	0.045609005
1	0x3dc3c3ba	0.09558816
2	0xbd836cdf	-0.0641725
3	0xbdc44cf4	-0.0958499
4	0xbe309d8a	-0.17247596
5	0x3d927351	0.07150901
6	0xbea5a273	-0.323505
7	0x3d552695	0.052038748
8	0xbd122aa2	-0.03568519
9	0xbc980eab	-0.018561682
10	0xbd863129	-0.06552345
11	0xbd94c4a0	-0.07264066
12	0xbe232527	-0.15932141
13	0x38755cb8	5.8498903e-05
14	0xbcf3bd02	-0.029753212
15	0xbe42cf76	-0.19024453
16	0xbd1c399e	-0.038140886
17	0xbcf2afc6	-0.029624831
18	0xbe0eb61c	-0.13936657
19	0x3e82d179	0.2555044
20	0xbe4e5812	-0.20150784
21	0xbdec8622	-0.11549021
22	0xbe86fa74	-0.26362956
23	0x3da610db	0.08108684
24	0x3debdcd3	0.11516728
25	0x3dacedb3	0.08443775
26	0x3e63fc71	0.22264268
27	0x3d980504	0.07422832
28	0xbc80a72e	-0.015704717
29	0xbd848d23	-0.06472232
30	0xbe911b71	-0.2834125
31	0x3c4d745d	0.01253995
32	0xbe84118d	-0.2579464
33	0xbe44653b	-0.19179241
34	0xbe443f4b	-0.1916477
35	0x3e8ead49	0.2786658
36	0x3e4da669	0.20083012
37	0xbd22ce0b	-0.03974728
38	0xbe0cf621	-0.13765766
39	0x3ee8d026	0.45471305
40	0x3d984162	0.07434346
41	0xbd8865bf	-0.066600315
42	0x3d6193f3	0.055072736
43	0x3dd10cf4	0.10207549
44	0x3d4e94bb	0.05043481
45	0x3c1d0b34	0.009585191
46	0x3e3f1602	0.18660739
47	0xbe08ec02	-0.1337128
48	0xbe7e370d	-0.24825688
49	0xbcf09bd3	-0.029371178
50	0xbe0bd6a4	-0.13656098
51	0xbdd052e9	-0.10172064
52	0x3d76b148	0.060227662
53	0x3b155ef0	0.0022792183
54	0xbdae7f81	-0.08520413
55	0xb9ef8ccf	-0.00045690543
56	0x3e57badc	0.21067375
57	0xbb9eb9ea	-0.00484394
58	0xbe5794c1	-0.21052839
59	0xbe829953	-0.25507602
60	0xbe0a0ea4	-0.13482147
61	0xbe818764	-0.25298607
62	0xbde30a15	-0.11085907
63	0x3c234a3f	0.009966432

layer3.weight f4 [128, 64]
0	0xbcc266a4	-0.023730583
1	0x3ce38903	0.027775293
2	0xbdf6479b	-0.120253764
3	0xbd27cc13	-0.040966105
4	0x3d6e8153	0.058228802
5	0xbd15d1a3	-0.03657688
6	0xbd4d1645	-0.050070066
7	0xbd09a84e	-0.033607773
8	0xbdc8f502	-0.098123565
9	0xbdadb057	-0.084809
10	0xbddd5d2d	-0.108087875
11	0x3d5b32ab	0.053515118
12	0xbdbefd64	-0.09325674
13	0xbd63db14	-0.05562885
14	0xbda01746	-0.07816939
15	0x3cb3b3b4	0.021936275
16	0xbcdde701	-0.02708769
17	0x3d7868be	0.060646765
18	0xbdb5809b	-0.0886242
19	0x3d947344	0.07248548
20	0xbe70cabd	-0.23514839
21	0xbdf36c2d	-0.11885867
22	0xbd063146	-0.032761835
23	0xbdbecefe	-0.093168244
24	0x3cb43c81	0.022001507
25	0xbdbbc3a6	-0.09168176
26	0xbe069c10	-0.1314547
27	0xbda24dad	-0.07924972
28	0xbb88f0d1	-0.004179098
29	0xbd960fc5	-0.073272265
30	0xbdbd937a	-0.092566445
31	0xbe52b9d8	-0.20578706
32	0xbd8ba895	-0.06819264
33	0xbd702fde	-0.0586394
34	0x3d53c16a	0.051698126
35	0xbd18a701	-0.037268642
36	0x3d818384	0.06323913
37	0xbd7c1d39	-0.061551306
38	0x3ac29eb9	0.0014848328
39	0xbe108fc5	-0.14117344
40	0xbe1bc6a9	-0.15212502
41	0xbdab4ca3	-0.08364227
42	0xbcc455d3	-0.023966705
43	0xbda54431	-0.08069647
44	0x3d6df6d9	0.05809674
45	0xbd159264	-0.036516562
46	0xbe0315f5	-0.12801345
47	0x3d9521d4	0.07281843
48	0xbd04ce0c	-0.032423064
49	0x3d571687	0.052511718
50	0x3d4170d3	0.04722674
51	0xbe024f1f	-0.12725495
52	0x3dac0510	0.08399403
53	0xbbfa8552	-0.0076452876
54	0x3cc0e9d1	0.023548992
55	0xbd029c18	-0.031887144
56	0xbe0e2144	-0.13879877
57	0xbd49da9f	-0.04928076
58	0x3c45944a	0.012059281
59	0xbdbf3022	-0.093353525
60	0x3d06ef2a	0.03294293
61	0x3c58ed57	0.01324018
62	0xbe0212af	-0.1270244
63	0x3d1499b0	0.03627938
64	0xbc1952b7	-0.0093581
65	0xbd22501b	-0.039627176
66	0x3d708cf0	0.05872816
67	0xbe04d3d4	-0.12971431
68	0xbd17cc82	-0.03706027
69	0xbd5c14af	-0.053730663
70	0x3c1bd514	0.009511251
71	0xbcf27657	-0.029597444
72	0xbdb6f5b0	-0.0893358
73	0xbd454ac2	-0.048166998
74	0x3a48fcf0	0.0007667085
75	0x3c24e916	0.010065338
76	0xbd9a3705	-0.075300254
77	0x3c6e04ed	0.014527542
78	0x3d99fc73	0.07518854
79	0xbde0df96	-0.10980146
80	0xbe6813cf	-0.22663806
81	0xbd3d8240	-0.046266794
82	0xbd149cc3	-0.036282312
83	0xbd064bf7	-0.03278729
84	0x3d352d52	0.044232674
85	0xbe0167b6	-0.12637219
86	0xbb90765e	-0.0044086417
87	0x3d9a9e4e	0.075497255
88	0xbd9d2c1d	-0.076744296
89	0xbac9079f	-0.0015337354
90	0xbce13915	-0.02749304
91	0xbcaeed9b	-0.021353533
92	0xbe06e977	-0.13174997
93	0xbdad1093	-0.08450427
94	0xbe060b0e	-0.13090155
95	0xbe3f1818	-0.18661535
96	0xbd924cbd	-0.07143543
97	0xbd97b69f	-0.07407879
98	0xbbb63182	-0.005560101
99	0xbd40b13d	-0.047044028
100	0xbe8b5c92	-0.27219063
101	0x3da1c423	0.07898738
102	0x3e0a3ba3	0.13499312
103	0xbe16bc98	-0.1472038
104	0xbe21423d	-0.15747924
105	0xbca13178	-0.019676909
106	0xbd3f520e	-0.046709113
107	0xbdda34e0	-0.10654616
108	0xbc9c3080	-0.019066095
109	0xbd676a1b	-0.056497674
110	0xbc9968d8	-0.018726751
111	0xbd764321	-0.060122613
112	0x3c8a6210	0.016892463
113	0x3d8482bc	0.06470248
114	0x3d5906f5	0.05298515
115	0x3e092295	0.13392098
116	0xbda33d83	-0.07970717
117	0xbd57c64d	-0.05267935
118	0x3de62116	0.112367794
119	0x3ce707dd	0.028201992
120	0x3dc68e35	0.096950926
121	0x3cd9c1f2	0.026581738
122	0xbd854824	-0.065079
123	0x3db26458	0.08710545
124	0xbddf0b95	-0.10890881
125	0xbbb01efc	-0.0053747874
126	0x3db0fe98	0.0864231
127	0x3d8e125b	0.06937095
128	0x3e4403af	0.1914203
129	0x3e1b5cbf	0.15172099
130	0xbca056ad	-0.01957258
131	0x3db12ba6	0.086509034
132	0xbb0b01aa	-0.0021210709
133	0x3ea42122	0.32056528
134	0xbce5b40f	-0.02803996
135	0x3d23f131	0.04002494
136	0xbd9317aa	-0.07182248
137	0x3d9d3403	0.07675936
138	0x3d3c1f2e	0.045928173
139	0x3de12deb	0.10995086
140	0x3cacffe6	0.021118116
141	0xbc7d2535	-0.015450765
142	0x3dea5dd5	0.11443678
143	0x3c818b29	0.015813427
144	0x3d9910cf	0.07473909
145	0xbc10759e	-0.008817105
146	0x3ddf8845	0.10914663
147	0xbe576d2c	-0.2103774
148	0x3e90a6ab	0.28252158
149	0x3e4c54be	0.19954202
150	0x3d590337	0.05298158
151	0x3e60ab76	0.21940407
152	0x3c7bf1a1	0.015377433
153	0xbd3b190e	-0.04567819
154	0x3e664c45	0.22490032
155	0xbaa8ff68	-0.00128935
156	0x3ae6fca9	0.0017622906
157	0x3e05eefa	0.13079444
158	0xbd510a2f	-0.051035102
159	0xbd735cc5	-0.059414644
160	0x3db4eb84	0.088339835
161	0xbd88869f	-0.06666302
162	0x3d0ddc12	0.034633704
163	0x3c76eeff	0.01507163
164	0x3e93d3de	0.2887258
165	0xbdec58b8	-0.11540359
166	0x3da5995c	0.080858916
167	0xbdd34c3b	-0.10317274
168	0x3e985b8b	0.29757342
169	0x3d8fc21c	0.07019445
170	0x3d895b26	0.06706838
171	0x3e1fa5c0	0.15590572
172	0x3ddce124	0.1078513
173	0x3d19b6cd	0.037527848
174	0xbe110bad	-0.1416461
175	0xbc8f64bc	-0.017504089
176	0x3dcbf2ed	0.09958444
177	0x3de2f222	0.110813394
178	0x3d23f73d	0.040030707
179	0x3e3332d3	0.17499857
180	0x3de409aa	0.11134656
181	0x3db7c5a3	0.08973243
182	0x3d85eae4	0.065389425
183	0x3dfac4a0	0.122445345
184	0xbd2914bf	-0.04127955
185	0xbc969d77	-0.018385632
186	0xbddf68d0	-0.10908663
187	0x3e68d7c7	0.22738563
188	0x3d00f9fb	0.0314884
189	0x3bc9a8d6	0.00615416
190	0xbca9e428	-0.020738676
191	0x3d242e1c	0.040083036
192	0x3dfd5ecc	0.12371597
193	0x3e35de80	0.17760658
194	0x3c71e2c9	0.014763542
195	0xbdf95c0e	-0.12175761
196	0xbdcea404	-0.10089877
197	0x3e89160b	0.2677463
198	0xbe013d7f	-0.12621115
199	0x3e3ede77	0.18639551
200	0x3d5e842c	0.054325268
201	0xbd18dbf1	-0.037319127
202	0xbc22c186	-0.009933835
203	0x3e006eb6	0.12542233
204	0x3c922ca0	0.017843544
205	0xbdd4a0ce	-0.103822336
206	0x3e394a51	0.18094756
207	0x3d496586	0.049169086
208	0xba8f5e52	-0.0010938144
209	0xbaecfd3a	-0.0018080838
210	0x3d2730d6	0.040818058
211	0xbe9c4f52	-0.30529267
212	0x3e54ad3a	0.20769206
213	0x3d882507	0.066476874
214	0x3cbe7bbe	0.023252364
215	0x3e4e9eb4	0.20177728
216	0x3d2f1725	0.04274668
217	0xbda87b4e	-0.082266435
218	0x3e1f0325	0.15528543
219	0xbdb83cb4	-0.08995953
220	0x3cf77aaa	0.030209858
221	0xbdc1d703	-0.09464838
222	0xbdeee21b	-0.1166422
223	0x3db5b058	0.088715255
224	0xbc7aad39	-0.015300089
225	0xbd358015	-0.0443116
226	0x3a65e605	0.00087699323
227	0xbd7f8fb4	-0.062392905
228	0x3e0a3f08	0.13500607
229	0xbd29fe41	-0.04150224
230	0xbba97e88	-0.0051725544
231	0xbdf8ad96	-0.12142484
232	0x3de785c1	0.113048084
233	0xbd6fc156	-0.05853399
234	0xbbb20b8d	-0.005433506
235	0x3df828c4	0.121171504
236	0x3df8313a	0.12118764
237	0xbde258f5	-0.110521235
238	0xbe5c0786	-0.21487245
239	0x3db22677	0.08698743
240	0x3e856107	0.26050588
241	0x3db09b08	0.0862332
242	0x3ce01d75	0.027357796
243	0xbd22e815	-0.039772112
244	0x3e59765e	0.2123656
245	0x3d216b2c	0.039408848
246	0xbb4e85f5	-0.003151295
247	0x3d2f7dd2	0.0428446
248	0xbe030d2a	-0.1279799
249	0x3de84658	0.11341542
250	0x3c29042f	0.010315939
251	0x3e8cb74d	0.27483597
252	0xbe179cc0	-0.14805889
253	0xbb896f59	-0.004194182
254	0x3e07cfa1	0.13262798
255	0x3dc5cd4f	0.096583

layer3.bias f4 [128]
0	0xbe511a54	-0.204202
1	0xbe2b6963	-0.1673942
2	0x3e007da6	0.12547931
3	0x3c0b2a94	0.008494038
4	0x3ce3b546	0.027796399
5	0xbdfd3636	-0.123638555
6	0x3eb93b29	0.36177948
7	0x3e3acefd	0.18243022
8	0xbd32f5e5	-0.043691535
9	0xbc8946f4	-0.016757466
10	0xbd0d2b11	-0.0344649
11	0xbc0a986e	-0.008459194
12	0x3cc8d804	0.024517067
13	0x3de6d578	0.11271185
14	0xbe02efea	-0.12786832
15	0x3e375ac7	0.17905723
16	0xbcd78335	-0.026307682
17	0x3e3f0414	0.186539
18	0x3c9c3bbc	0.019071452
19	0x3e54b7f5	0.20773299
20	0x3d36203d	0.04446434
21	0x3e017cc8	0.12645257
22	0xbdab8956	-0.08375804
23	0x3e442fdd	0.19158883
24	0xbc4d5fbc	-0.012535032
25	0xbe6c884e	-0.23098871
26	0x3c318ff7	0.010837547
27	0xbd46f14c	-0.048569962
28	0x3e23b5f5	0.1598738
29	0x3f7b3622	0.98129475
30	0x3eafe563	0.34354696
31	0x3e2b1656	0.16707739
32	0xbe12a8a0	-0.14322138
33	0x3d6f6a84	0.05845119
34	0x3dda262c	0.10651812
35	0x3d44e1e4	0.04806699
36	0xbd6ea67d	-0.058264244
37	0xbe1373de	-0.14399669
38	0x3d8cef59	0.068815894
39	0xbda57ec6	-0.08080821
40	0xbd88fdfe	-0.0668907
41	0x3df9c984	0.12196639
42	0xbe812335	-0.25222173
43	0xbdeb620d	-0.11493311
44	0xbd8cf257	-0.0688216
45	0x3f1db514	0.6160443
46	0x3e12fb1f	0.14353608
47	0x3da9fcb5	0.08300153
48	0x3ecbbd69	0.39792946
49	0xbe4eebf0	-0.2020719
50	0xbe378d9c	-0.17925113
51	0x3deed11c	0.11660978
52	0x3c56515b	0.01308092
53	0x3c6d38f5	0.014478912
54	0x3e32cbc3	0.17460541
55	0x3dd2f9b5	0.10301534
56	0x3c8af8ae	0.016964283
57	0xbe1e2bad	-0.15446348
58	0x3cbdd857	0.023174448
59	0xbca18a03	-0.01971913
60	0x3e1a649b	0.1507744
61	0x3d8f9f14	0.070127636
62	0xbdfee1ca	-0.124454096
63	0xbc046288	-0.008080132
64	0x3df349b3	0.118792914
65	0x3e21d155	0.1580251
66	0xbd9eba1b	-0.077503406
67	0xbd85ef4d	-0.065397836
68	0xbe3a0716	-0.18166766
69	0xbd2d8523	-0.042363297
70	0x3d94f038	0.072723806
71	0x3c2b8180	0.010467887
72	0x3cfb48e6	0.03067441
73	0xbddf0cf1	-0.1089114
74	0x3d24fe61	0.040281657
75	0x3d56f485	0.052479286
76	0xbce95f62	-0.028487865
77	0xbd16aa20	-0.036783338
78	0xbcaf07f3	-0.021366095
79	0xbe3cddb0	-0.18443942
80	0x3dae4e23	0.08510997
81	0xbe0836d3	-0.13302164
82	0xbd8274ba	-0.0636992
83	0x3ef3460b	0.47514376
84	0x3f4a0237	0.7890963
85	0xbe4afc10	-0.19822717
86	0x3cb45278	0.02201198
87	0x3bae7614	0.0053241346
88	0xbdd4b5a6	-0.10386209
89	0x3ec441bf	0.3833141
90	0x3cbd8334	0.023133852
91	0x3d942920	0.072344065
92	0x3e134800	0.14382935
93	0x3e3b65fe	0.18300626
94	0xbdcae323	-0.09906604
95	0x3c8c8bcb	0.017156502
96	0xbd3639d2	-0.044488735
97	0xbdfd7672	-0.12376107
98	0xbd0a4fcd	-0.03376751
99	0xbc6c7f08	-0.0144345835
100	0xbbc9e833	-0.0061617135
101	0x3db3ee23	0.08785655
102	0x3d071387	0.032977607
103	0xbe5e5512	-0.21712139
104	0xbddd25db	-0.10798236
105	0xbe6e9408	-0.23298657
106	0x3e00248d	0.12513943
107	0x3df9b0aa	0.12191899
108	0x3e15dd5b	0.14635222
109	0x3e695bf8	0.2278899
110	0xbe3c05a7	-0.18361531
111	0xbd588609	-0.0528622
112	0x3d7eb976	0.062188588
113	0xbe2398aa	-0.15976205
114	0xbe453068	-0.19256747
115	0xbdafd4d4	-0.085855156
116	0x3d2b7464	0.041859046
117	0x3d3fdd9c	0.046842203
118	0xbd75888c	-0.059944674
119	0xbc860b82	-0.01636291
120	0xbe315b83	-0.17320065
121	0x3edf0c50	0.4356408
122	0x3d20a2ea	0.039217867
123	0xbe1385b5	-0.14406474
124	0xbd9d5612	-0.07682432
125	0x3e49598d	0.19663067
126	0xbbe88bf7	-0.0070967632
127	0x3c1f8bca	0.009737918

layer4.weight f4 [64, 128]
0	0xbcbbc9a2	-0.022923294
1	0xbce068ed	-0.027393783
2	0xbda274f3	-0.079324625
3	0xbdc75765	-0.09733466
4	0xbcab501e	-0.020912226
5	0xbcc825a5	-0.024432013
6	0xbdc190cc	-0.09451446
7	0xbda21ea7	-0.07916003
8	0xbd915a55	-0.070973076
9	0xbd3edfc9	-0.046600137
10	0x3c9add96	0.018904489
11	0xbcb11527	-0.021616532
12	0xbc7a6db6	-0.015284946
13	0xbdc15626	-0.0944026
14	0x3d80baa5	0.062855996
15	0x3cfa088a	0.03052165
16	0x3d067d0c	0.032834098
17	0x3d1ea2e9	0.038729582
18	0x3d103b18	0.035212606
19	0xbca8f24a	-0.020623345
20	0xbc94599b	-0.018109133
21	0x3d2dd445	0.042438764
22	0xbd81ed2b	-0.06344064
23	0xbc1fec89	-0.009760984
24	0xbd04a651	-0.032385174
25	0x3cb3a004	0.021926887
26	0xbbc6d7e9	-0.006068219
27	0xbca7b4d0	-0.02047196
28	0xbd2cf67f	-0.042227264
29	0xbd154db0	-0.03645104
30	0x3a87cbb7	0.0010360394
31	0xbda447ca	-0.08021505
32	0xbc4f11ec	-0.01263855
33	0xbdb7e1cc	-0.08978614
34	0x3ad39682	0.0016142877
35	0x3c893950	0.016750962
36	0xbd9fac44	-0.07796529
37	0x3cb5a195	0.022171775
38	0x3ca6a18a	0.0203407
39	0x3d6d460e	0.057928137
40	0xbc9e6dc7	-0.019339455
41	0xbd7c719e	-0.06163179
42	0x3d51ec9f	0.05125105
43	0x3d0c07bf	0.034187075
44	0x3cdc51e3	0.026894515
45	0xbc65e024	-0.01403049
46	0xbdd9f306	-0.10642056
47	0xbd690b38	-0.056895465
48	0x3c3553bb	0.011067326
49	0xbcd4c575	-0.025973061
50	0x3d7ebc7b	0.062191468
51	0x3cdfb004	0.02730561
52	0x3d22bf9d	0.039733518
53	0xbd58b5b8	-0.052907676
54	0xbd93ffeb	-0.07226547
55	0x3cdb808d	0.026794696
56	0xbcfa205b	-0.030533006
57	0x3ccc4f10	0.024940044
58	0x3ce9b0ba	0.028526653
59	0xbb0c4beb	-0.0021407555
60	0x3d2a3ca3	0.041561734
61	0xbaf2ecab	-0.0018533667
62	0x3d8f149f	0.06986355
63	0xbd7d2388	-0.061801463
64	0xbd6e50b9	-0.058182452
65	0x3d1a6ee6	0.037703417
66	0xbd4cfbcb	-0.050044816
67	0x3c02ce4c	0.007983755
68	0x3ce13aef	0.027493922
69	0xba13b877	-0.00056350924
70	0xbd51b49a	-0.051197626
71	0xbd5c6dc0	-0.053815603
72	0x3d845b22	0.06462695
73	0x3beccd1f	0.007226601
74	0xbc7c00a5	-0.015381013
75	0xbcef9fbe	-0.029250976
76	0xbd521524	-0.051289693
77	0xbd30d92e	-0.04317587
78	0xbd46f911	-0.048577372
79	0x3d77cecf	0.060499962
80	0xbdcef6a4	-0.10105637
81	0xbba140e9	-0.004921068
82	0xbd816a40	-0.06319094
83	0xbdc62f1e	-0.09676956
84	0xbd067241	-0.032823805
85	0xbccc0044	-0.02490247
86	0xbd282358	-0.04104933
87	0x3cb95c92	0.022627149
88	0xbdb8b001	-0.09017945
89	0xbdb226d5	-0.08698813
90	0xbdae36b4	-0.085065275
91	0xbd5f1209	-0.05446056
92	0xbdb75336	-0.08951418
93	0xbd25b0ba	-0.040451743
94	0xbc35e7fb	-0.011102672
95	0x3c3edb88	0.01164902
96	0x3d21cb25	0.039500374
97	0x3d5ec338	0.054385394
98	0x3ce58dc8	0.028021708
99	0xbda5fba2	-0.08104636
100	0x3d138904	0.03601934
101	0xbc74be7a	-0.014937991
102	0xbddba78c	-0.107253164
103	0xbd96546e	-0.073403224
104	0x3c65621a	0.01400044
105	0x3d44538a	0.04793123
106	0x3cd87bdb	0.026426246
107	0xbcfb2a21	-0.030659737
108	0x3d32bcff	0.043637272
109	0x3d41dbba	0.04732869
110	0x3d888161	0.06665302
111	0x3cebe2fa	0.028794754
112	0x3d3fc5d1	0.04681951
113	0xbd863c73	-0.065544985
114	0x3c4f8380	0.012665629
115	0x3a651e3e	0.0008740163
116	0xbdd30080	-0.1030283
117	0xbc873fcb	-0.016509911
118	0xbd2e4461	-0.04254568
119	0xbda04efe	-0.078275666
120	0xbd9c648e	-0.07636367
121	0x3c5da073	0.013527024
122	0xbd856fde	-0.065154776
123	0x3d0fd393	0.035113882
124	0xbdb15031	-0.086578734
125	0x3c78535b	0.015156592
126	0xbdd88656	-0.105724975
127	0xbc03dd4d	-0.008048368
128	0xbc790b61	-0.015200467
129	0xbcaf98ea	-0.02143522
130	0xbca9739d	-0.020685012
131	0xbca7d336	-0.020486455
132	0x3d9b998a	0.075976446
133	0xbd8810b7	-0.06643813
134	0x3d82f26d	0.06393895
135	0xbea4cdf9	-0.32188395
136	0x3ce746af	0.028231947
137	0xbd8753d6	-0.06607787
138	0x3d88c85c	0.066788405
139	0xbd22e174	-0.03976579
140	0x3d194406	0.037418388
141	0xbc6f8555	-0.014619191
142	0x3bd3cefa	0.0064638825
143	0x3d744260	0.059633613
144	0xbe0695dc	-0.13143104
145	0x3de13a0f	0.10997402
146	0x3d0e68b6	0.03476783
147	0xbd0b317b	-0.033982735
148	0x3cd5b2c0	0.026086211
149	0xbd53b70d	-0.051688243
150	0x3c3646b1	0.011125253
151	0x3c28c8e0	0.010301799
152	0xbdb35924	-0.087572366
153	0x3e8721af	0.26392886
154	0xbe232dfe	-0.15935513
155	0xbd3a2fa6	-0.045455597
156	0x3e47fa52	0.19529083
157	0x3e574c49	0.21025194
158	0x3e992a88	0.2991526
159	0x3cc05878	0.023479685
160	0xbdf13efe	-0.11779593
161	0xbdca5b42	-0.09880687
162	0x3dd7a5c6	0.10529666
163	0xbe10155c	-0.14070648
164	0xbd5af832	-0.053459354
165	0x3c6261ad	0.013817233
166	0x3d271a39	0.040796492
167	0xbcf660a8	-0.030075386
168	0xbdf3d3fe	-0.11905669
169	0xbd95ec57	-0.07320469
170	0x3dfa7903	0.122301124
171	0x39e3261f	0.00043325216
172	0x3d81da14	0.06340423
173	0x3f8df0e8	1.1089144
174	0xbcfd900b	-0.030952474
175	0x3d88af60	0.06674075
176	0xbf2f1a60	-0.6839962
177	0xbe7041de	-0.23462626
178	0xbdab05d0	-0.08350718
179	0x3cfa9802	0.030590061
180	0xbe4b1ca2	-0.19835141
181	0xbdffb561	-0.12485767
182	0x3da1d0b2	0.079011336
183	0x3ddb5a3c	0.1071057
184	0xbc93c186	-0.018036615
185	0xbd07037d	-0.03296231
186	0xbe18eb5a	-0.1493353
187	0xbca18288	-0.019715562
188	0xbbeb0d29	-0.0071731997
189	0xbd9bb3e5	-0.076026715
190	0x3cbfbf82	0.023406748
191	0xbedf9dd5	-0.43675104
192	0xbd93aecb	-0.072110735
193	0xbecb8bad	-0.39755002
194	0x3d89d95d	0.06730912
195	0xbc44f4c2	-0.012021245
196	0xbe2a2b19	-0.16618003
197	0xbc97bbe1	-0.018522205
198	0xbeb4ca73	-0.35310706
199	0xbd73ffb8	-0.059570044
200	0xbd70d5d8	-0.058797687
201	0xbd0ba692	-0.0340944
202	0xbd919ae7	-0.071096234
203	0xbde9c269	-0.11414034
204	0x3ccc236f	0.02491924
205	0xbbad043b	-0.0052800453
206	0x3e44b90e	0.19211218
207	0xbd49b9d4	-0.049249485
208	0xbe780337	-0.24219976
209	0x3cf2d282	0.029641394
210	0x3c254ad4	0.010088641
211	0xbe8e22f6	-0.27761048
212	0x3f385c29	0.72015625
213	0xbe6b3209	-0.22968306
214	0x3b1cc563	0.0023921363
215	0x3bd3aa53	0.006459513
216	0xbc11e1fd	-0.008903977
217	0xbe9d7198	-0.30750728
218	0xbcce7ede	-0.02520698
219	0xbd599044	-0.053116098
220	0x3c16e583	0.009209993
221	0xbd5c3c1a	-0.053768255
222	0x3d9c9ed5	0.07647482
223	0xbdfe0766	-0.12403755
224	0xbaa233b0	-0.0012375023
225	0xbe2e6021	-0.17028858
226	0xbd9b38b2	-0.07579173
227	0xbe0a67c2	-0.13516143
228	0x3d342440	0.043979883
229	0xbcdfc0d7	-0.027313633
230	0xbe1533c8	-0.14570534
231	0xbde5d88f	-0.11222946
232	0xbcff3a23	-0.031155651
233	0x3d726fb3	0.059188556
234	0x3b28ef1b	0.0025777284
235	0x3cce8f9a	0.025214959
236	0xbd9ed955	-0.077562965
237	0x3ce98e13	0.02851013
238	0x3df057fe	0.11735533
239	0xbe22821b	-0.15869944
240	0x3d5024a0	0.05081618
241	0xbcf8786d	-0.030330861
242	0xbd4e8868	-0.050423056
243	0x3c1f8795	0.009736915
244	0x3c887e57	0.016661806
245	0x3da89ad9	0.0823266
246	0xbd2ccd92	-0.042188235
247	0xbc631e0e	-0.013862146
248	0x3cbbe9a0	0.02293855
249	0xbe1f9e75	-0.1558779
250	0x3dc44640	0.095837116
251	0xbde1a8ab	-0.11018499
252	0xbdd49e54	-0.10381761
253	0x3c800e55	0.015631834
254	0xbd2de4cc	-0.042454526
255	0x3d86dcc8	0.065850794

layer4.bias f4 [64]
0	0x3c69b10e	0.0142634045
1	0x3ecd87e1	0.4014273
2	0xbc277f18	-0.010223173
3	0x3bf83d4c	0.0075756665
4	0x3e0d0768	0.13772357
5	0xbd9f8db9	-0.07790703
6	0x3ce9f6b8	0.028560027
7	0x3e8cdc17	0.27511665
8	0xbc94dab9	-0.018170701
9	0x3d032274	0.03201528
10	0xbd3170ad	-0.043320347
11	0x3eca91e9	0.39564446
12	0xbd4491b1	-0.047990505
13	0x3eb3a56a	0.35087138
14	0xbd971e54	-0.073788315
15	0xbc8216b2	-0.015879963
16	0xbe32773e	-0.174283
17	0x3d758cd9	0.059948776
18	0xbd6d3fcd	-0.057922173
19	0x3e01804e	0.126466
20	0xbdcae551	-0.0990702
21	0x3ddcae5a	0.107754424
22	0x3ea9a172	0.33130985
23	0x3d21214b	0.03933839
24	0x3e6223a8	0.22083914
25	0xbd87c6c9	-0.06629712
26	0xbdb08e16	-0.08620851
27	0x3ec212c2	0.37904936
28	0x3b6ee6bf	0.0036453453
29	0xbcd6fb64	-0.02624292
30	0xbd38e840	-0.045143366
31	0x3f387f7b	0.7206952
32	0x3d00f467	0.03148308
33	0xbdbc5dfc	-0.091976136
34	0xbd9f0655	-0.077648796
35	0x3e13c45f	0.14430378
36	0x3caf290f	0.021381883
37	0x3df756b3	0.120770834
38	0x3d3f2aff	0.046671864
39	0xbe13f930	-0.14450526
40	0xbde59db2	-0.112117186
41	0x3e8980ab	0.26855978
42	0xbe24bdbb	-0.16088001
43	0x3ead68e0	0.33869076
44	0x3c789409	0.015172013
45	0x3e9fd9fa	0.3122099
46	0xbd850404	-0.064949065
47	0xbdc7c0df	-0.09753584
48	0xbe608f33	-0.21929626
49	0x3e209dfe	0.15685269
50	0xbe0b170b	-0.13583009
51	0xbc42182b	-0.011846582
52	0x3e3a68e5	0.18204077
53	0xbd77d585	-0.060506362
54	0x3e877684	0.26457608
55	0xbd0ffe96	-0.0351549
56	0xbdd29974	-0.10283175
57	0xbd1785b9	-0.036992762
58	0x3e3faf74	0.18719274
59	0xbcfae343	-0.030625945
60	0x3eaeb40b	0.34121737
61	0x3eb1398e	0.34614223
62	0x3edc0e68	0.4297974
63	0xbe024efa	-0.1272544
