lunar_2.pth (torch, 84411 bytes, 14 tensors)

network_arch.0.weight f4 [64, 8]
0.10895807 0.31616265 0.014763535 0.004392797 -0.27465996 0.29237765 -0.13249254 -0.0025116992
-0.08472296 0.025619298 0.18045999 0.043309554 -0.17610736 0.15105683 -0.15428907 0.05750444
-0.15480934 0.31067258 -0.10115058 0.150633 -0.2509095 -0.022616463 0.09176591 0.28038874
-0.17750517 0.23014438 -0.13094397 -0.09597545 0.09617342 0.16135225 0.33096173 0.24778777
0.044558994 -0.17801653 0.16663738 0.21766298 -0.27612582 -0.20200002 0.22864299 0.003961298
0.1885564 0.12590979 -0.28790298 0.16152455 0.25548902 -0.030900173 -0.24739356 0.22590327
-0.07788683 -0.17728907 0.31370413 -0.17836896 0.10058383 0.31895867 0.13638867 -0.14857055
-0.15671264 0.35265282 -0.32606107 0.2835792 -0.08935873 -0.25823689 0.28345925 0.14402433
0.03220019 0.19194399 -0.26815414 0.0815917 0.24268194 -0.0664204 -0.020414121 0.14511442
-0.30973336 0.3176441 -0.02014181 0.32386157 0.04024872 0.09817742 -0.06793398 -0.2852113
-0.07253717 -0.18648404 -0.35347036 0.14894928 0.11747144 -0.1059616 0.121395186 0.11477935
-0.09503419 -0.2777874 -0.16548711 -0.13590774 0.3510227 -0.32466185 -0.35044897 0.15370588
-0.1569377 0.13414992 -0.08466126 0.21363002 -0.0810298 0.2188607 0.041710544 0.1977163
0.08974729 0.34133157 -0.10143604 0.14588515 0.17756379 0.3180054 -0.15256864 0.3507475
0.054224785 0.23821221 0.25333896 0.11679385 0.10098187 0.30981848 -0.32710454 -0.024446648
-0.07632377 0.10797306 0.29029593 0.2375967 -0.12418636 -0.01404295 -0.22200726 -0.15196835
-0.2862513 0.20349607 -0.022479149 -0.12641509 -0.19739985 0.13974857 -0.01611354 -0.113878086
0.16689545 0.27110222 -0.034187205 0.1804694 -0.11501879 -0.22391553 0.2323551 -0.29273716
0.3168661 0.1442673 0.092562824 0.19051231 -0.18653108 -0.12256493 0.085265264 0.112575665
-0.34382278 0.27416566 0.21036996 -0.095277965 0.25099745 -0.19000195 0.14602353 -0.027835507
0.25232163 0.19163501 -0.18991496 0.16900666 0.19142652 -0.14330629 0.1068726 0.20721307
-0.32078633 0.016939197 -0.03268197 -0.11876198 -0.12886243 -0.32197285 0.34882998 -0.17166555
0.010175471 0.031640694 0.3203425 -0.14583509 -0.0553292 0.29919314 0.2060996 0.058492195
0.29151335 0.10898294 0.24602194 -0.33448333 -0.26480347 -0.18606502 -0.048684288 -0.28832233
0.26157206 0.2297742 0.032294855 0.0558981 -0.26092318 0.16897333 0.24974802 0.13765144
0.1351212 -0.33587873 -0.09451603 0.32919934 -0.105831325 0.19801183 -0.09623128 0.3363532
0.16998503 0.26945373 0.01989289 -0.15559427 -0.040257912 0.22180972 -0.2678767 0.17316478
-0.02714278 0.34382725 0.27196357 -0.20724499 -0.01637013 -0.102934994 -0.27676407 -0.28382468
0.26684383 -0.12424566 0.1052258 -0.19662414 -0.21462418 -0.02879793 0.12662008 -0.15659025
0.0807247 0.12803568 0.026648525 0.091962695 -0.141888 0.26250187 0.14068715 -0.28719503
0.30730388 0.3312037 0.10099333 -0.118953116 -0.16371492 -0.12165304 -0.2803035 0.06391915
-0.34664384 0.06542405 -0.10448693 0.016066715 -0.20186473 -0.07896654 -0.29282025 0.23629403
00000000: 6925 df3d 12e0 a13e c1e2 713c 74f1 8f3b
00000010: 3ba0 8cbe 86b2 953e 20ac 07be 529b 24bb
00000020: 3b83 adbd 90df d13c 81ca 383e 5c65 313d
00000030: 7d55 34be a4ae 1a3e f4fd 1dbe c789 6b3d
00000040: 5786 1ebe 7a10 9f3e 0928 cfbd 8a3f 1a3e
00000050: 3677 80be 2946 b9bc c4ef bb3d 1d8f 8f3e
00000060: eac3 35be f8aa 6b3e 2d16 06be c78e c4bd
00000070: 92f6 c43d 8639 253e d173 a93e 14bc 7d3e
00000080: 7e83 363d f749 36be fda2 2a3e 0be3 5e3e
00000090: 5d60 8dbe 18d9 4ebe 6321 6a3e c7cd 813b
000000a0: ee14 413e 7fee 003e 0568 93be b166 253e
000000b0: 75cf 823e 5c22 fdbc bd54 7dbe 3053 673e
000000c0: 2183 9fbd 448b 35be d49d a03e 5aa6 36be
000000d0: e5fe cd3d 8d4e a33e 79a9 0b3e e122 18be
000000e0: 4779 20be e98e b43e 7af1 a6be 4b31 913e
000000f0: b601 b7bd a037 84be 9221 913e 1d7b 133e
00000100: 59e4 033d f78c 443e 804b 89be 8d19 a73d
00000110: 9d81 783e 6b07 88bd 843b a7bc e098 143e
00000120: 5f95 9ebe 3fa2 a23e 7000 a5bc 2fd1 a53e
00000130: d8db 243d 3e11 c93d f820 8bbd 3707 92be
00000140: 5e8e 94bd acf5 3ebe 11fa b4be 2986 183e
00000150: de94 f03d 6502 d9bd 0a9e f83d 7011 eb3d
00000160: 49a1 c2bd 263a 8ebe 7475 29be 662b 0bbe
00000170: 3fb9 b33e 143a a6be 0c6e b3be 1365 1d3e
00000180: 47b4 20be 995e 093e e262 adbd d4c1 5a3e
00000190: f4f2 a5bd 051d 603e add8 2a3d 2476 4a3e
000001a0: 6dcd b73d 03c3 ae3e b3bd cfbd eb62 153e
000001b0: 48d3 353e 9bd1 a23e f43a 1cbe 2d95 b33e
000001c0: cf1a 5e3d e7ed 733e a5b5 813e 9d31 ef3d
000001d0: 95cf ce3d 87a0 9e3e 3f7a a7be 5644 c8bc
000001e0: a34f 9cbd fb20 dd3d aba1 943e 8d4c 733e
000001f0: 6b55 febd 6714 66bc df55 63be 979d 1bbe
00000200: 888f 92be 4661 503e 3126 b8bc f572 01be
00000210: 3023 4abe 401a 0f3e 8b00 84bc ea38 e9bd
00000220: a4e6 2a3e e9cd 8a3e e207 0cbd f8cc 383e
00000230: f98e ebbd 1d4a 65be 7fee 6d3e a5e1 95be
00000240: 463c a23e cfba 133e 9491 bd3d a915 433e
00000250: 0102 3fbe 5203 fbbd 8e9f ae3d 128e e63d
00000260: 8a09 b0be 715f 8c3e 396b 573e 1821 c3bd
00000270: bd82 803e df8f 42be 3187 153e 4a07 e4bc
00000280: 4d30 813e f83b 443e 1179 42be 1510 2d3e
00000290: 5005 443e e2be 12be 06e0 da3d aa2f 543e
000002a0: 1b3e a4be 12c4 8a3c 88dd 05bd 7b39 f3bd
000002b0: 83f4 03be a0d9 a4be d899 b23e 18c9 2fbe
000002c0: 05b7 263c ac99 013d ef03 a43e cb55 15be
000002d0: dfa0 62bd d82f 993e c60b 533e 8395 6f3d
000002e0: 3d41 953e 7332 df3d 2ded 7b3e 6641 abbe
000002f0: 5294 87be d487 3ebe 2d69 47bd fc9e 93be
00000300: c6ec 853e ee49 6b3e 9c47 043d 68f5 643d
00000310: b997 85be 5807 2d3e f2bd 7f3e 80f4 0c3e
00000320: 365d 0a3e 4cf8 abbe 9f91 c1bd d18c a83e
00000330: 18be d8bd 9dc3 4a3e e814 c5bd 7d36 ac3e
00000340: 8e10 2e3e d7f5 893e 6af6 a23c 1b54 1fbe
00000350: 7be5 24bd 1622 633e 2327 89be 1c52 313e
00000360: 895a debc 200a b03e cf3e 8b3e 0838 54be
00000370: a71a 86bc 95cf d2bd 05b4 8dbe 7851 91be
00000380: c19f 883e 8274 febd a080 d73d d757 49be
00000390: 71c6 5bbe a3e9 ebbc b2a8 013e 3259 20be
000003a0: fe52 a53d c91b 033e 024e da3c f056 bc3d
000003b0: 164b 11be a566 863e 4b10 103e 3a0b 93be
000003c0: ef56 9d3e 8893 a93e 97d5 ce3d b19d f3bd
000003d0: e2a4 27be 3b25 f9bd f183 8fbe 0be8 823d
000003e0: 4d7b b1be 0bfd 853d 3efd d5bd 589e 833c
000003f0: a1b5 4ebe 36b9 a1bd 89ec 95be 10f7 713e

network_arch.0.bias f4 [64]
-0.27520135 0.073499046 0.30197525 0.091375545 -0.20941383 -0.25216603 0.29800072 -0.3190284
-0.035572696 0.124577105 0.06654228 -0.2941925 -0.052055992 0.2053513 -0.3451828 -0.31408316
-0.042866968 -0.2879538 -0.16459262 0.06759845 -0.15127532 -0.21054175 -0.008477627 0.04240508
0.3090335 -0.26365602 0.016830964 -0.290336 0.064788975 0.19992699 -0.094615795 -0.34744766
-0.08964546 0.043389507 0.31376213 0.22964916 0.07509308 -0.32010025 0.18639868 -0.11264491
-0.092427574 0.0343061 0.2007126 0.14197224 0.22410461 0.059204772 -0.068235576 0.07196279
0.1542189 0.14798728 0.051651638 -0.08475478 0.2002452 0.34366244 -0.2385042 -0.0010218081
0.27026457 0.21287079 0.31002858 0.24687803 -0.20355529 0.29123163 -0.17919634 -0.2730267
00000000: 31e7 8cbe ab86 963d 809c 9a3e 1a23 bb3d
00000010: 9470 56be e81b 81be 8d93 983e b157 a3be
00000020: adb4 11bd 4822 ff3d 5247 883d 66a0 96be
00000030: aa38 55bd 9c47 523e cdbb b0be 82cf a0be
00000040: 4695 2fbd ae6e 93be f88a 28be 0e71 8a3d
00000050: ebe7 1abe 4298 57be bfe5 0abc f3b0 2d3d
00000060: a439 9e3e ecfd 86be 17e1 893c eca6 94be
00000070: 15b0 843d a9b9 4c3e edc5 c1bd a9e4 b1be
00000080: 0a98 b7bd 32b9 313d 6ea5 a03e 2629 6b3e
00000090: 67ca 993d 2ee4 a3be 4cdf 3e3e 60b2 e6bd
000000a0: ab4a bdbd 8e84 0c3d 9b87 4d3e 2c61 113e
000000b0: ae7b 653e b480 723d 18bf 8bbd 3a61 933d
000000c0: 8feb 1d3e fa89 173e ab90 533d ea93 adbd
000000d0: 140d 4d3e 86f4 af3e 723a 74be 31ee 85ba
000000e0: 1e60 8a3e cdfa 593e 11bc 9e3e 98cd 7c3e
000000f0: cc70 50be 501c 953e 3f7f 37be 28ca 8bbe

network_arch.2.weight f4 [4, 64]
-0.028538391 0.03015852 -0.0035906583 -0.084600925 -0.021038651 -0.03597252 -0.05670668 -0.02188228
0.056389347 0.12441385 0.05086024 -0.11952342 -0.030509114 -0.050358146 0.09039791 -0.014069542
0.00929375 -0.014639959 -0.04104702 -0.07509807 0.006059587 -0.0040123165 0.061583385 -0.08204761
0.027778089 0.025859147 -0.07816221 -0.12393367 0.002249539 -0.07701039 0.10880116 -0.10707869
0.05301042 -0.08713214 -0.07064775 -0.12355952 0.1161637 -0.099821195 0.10303883 -0.10607688
0.036145404 0.11562891 -0.07336575 0.06865029 -0.03263913 0.07170148 -0.123561874 -0.005000457
0.026512146 -0.08947793 0.015197232 -0.020767748 -0.12222634 -0.053657472 -0.031169489 -0.0045708865
-0.12286809 0.018541992 -0.019946486 -0.101687714 -0.045302734 -0.10922068 -0.07277501 0.02632235
0.0707749 0.030073166 -0.018613756 0.06708485 -0.010790274 0.022684872 0.11363435 -0.06407365
0.12158306 0.031992942 0.09365764 -0.023272544 -0.09078841 -0.10771261 0.120032296 0.04979661
0.0994772 -0.041430652 -0.08274177 -0.09946531 -0.041055202 -0.072362214 -0.06893274 -0.054217532
0.056287184 0.079865724 0.018365368 0.053576455 0.10947506 0.08654186 0.08255941 -0.059410766
0.016660511 -0.08339846 -0.1146397 -0.009950027 -0.009425193 0.11589025 0.006723225 -0.10807943
-0.106063485 0.03502068 -0.055417523 -0.08800329 0.06070073 -0.11124061 0.058190867 0.12352887
-0.058206677 -0.006088808 0.08271043 -0.042749256 0.123970345 0.1234733 -0.05508201 -0.0375451
-0.011887938 -0.051587 0.080731645 -0.05448328 0.096201226 -0.10010329 0.11455466 -0.031932443
-0.051376343 0.04116282 -0.06353603 -0.121754035 0.032091856 -0.08786705 -0.046611935 0.030426875
0.07549745 -0.06347488 -0.0384859 0.11790788 0.057329357 0.09182581 -0.04558578 -0.103382364
0.07458119 -0.034218967 -0.07438934 -0.094072476 0.099632606 0.054549754 -0.0014778823 -0.026092887
-0.100666046 0.03654556 -0.099707216 0.01589337 -0.040826052 0.06279594 -0.0068271905 -0.012733385
0.042381495 -0.09644167 -0.10519309 0.08609027 0.12063512 0.012319908 0.0127289 -0.04675816
0.029522642 0.015713006 -0.07580818 0.100303516 -0.014195219 -0.121483356 -0.024284855 -0.008852467
-0.07412045 0.11007577 0.010643497 0.102781504 0.029254973 -0.093556404 0.031643078 -0.05688618
0.08559823 -0.106553555 0.001153022 -0.09500484 0.11020337 0.0997491 0.047679782 -0.021994516
-0.11184636 -0.051072612 0.043338567 -0.048034564 -0.059659883 0.112327784 -0.0793584 -0.020381972
0.00812836 0.07180126 0.013741806 -0.049221367 0.0051074475 0.049926072 -0.049149513 0.05387272
0.09370303 0.076016545 -0.08538313 -0.109234825 -0.076603964 0.09995067 -0.11318022 -0.03685996
0.008276418 0.013020158 -0.10396099 0.105436906 0.07134707 0.0061710626 0.0024705678 -0.034093544
-0.0133353025 -0.043704867 0.057528064 0.021761343 -0.03227508 -0.023491994 0.016314164 0.033847183
-0.023624882 0.08216697 -0.076953545 0.09009868 -0.06588286 0.09695102 0.023516119 0.0022613555
-0.088672295 0.010245115 -0.015290663 -0.11139698 0.11160238 -0.102126956 -0.043374687 -0.08642854
-0.115066886 -0.1010533 0.057675913 0.050865546 0.077206016 -0.11924419 0.1127045 -0.11720124
00000000: 58c9 e9bc 000f f73c 4051 6bbb 4043 adbd
00000010: 4059 acbc ec57 13bd 4445 68bd 7842 b3bc
00000020: 84f8 663d b0cc fe3d d452 503d b2c8 f4bd
00000030: 40ee f9bc 5844 4ebd 8a22 b93d f083 66bc
00000040: d044 183c 70dc 6fbc ec20 28bd 04cd 99bd
00000050: 808f c63b c079 83bb dc3e 7c3d 9408 a8bd
00000060: e08e e33c 90d6 d33c 8213 a0bd f0d0 fdbd
00000070: 006d 133b a0b7 9dbd 24d3 de3d 124c dbbd
00000080: 7421 593d 5672 b2bd c4af 90bd c60c fdbd
00000090: 3ce7 ed3d 0e6f ccbd 0606 d33d d63e d9bd
000000a0: 340d 143d dace ec3d c840 96bd 8698 8c3d
000000b0: 9cb0 05bd 3ad8 923d 020e fdbd e0da a3bb
000000c0: 0030 d93c 3440 b7bd d0fd 783c 2021 aabc
000000d0: ce51 fabd f0c7 5bbd 2857 ffbc 60c7 95bb
000000e0: 44a2 fbbd 60e5 973c d066 a3bc a641 d0bd
000000f0: 5c8f 39bd 18af dfbd 100b 95bd f8a1 d73c
00000100: 6ef2 903d 005c f63c e07b 98bc c863 893d
00000110: b0c9 30bc a0d5 b93c 20b9 e83d 0c39 83bd
00000120: 8a00 f93d 080b 033d 94cf bf3d 10a6 bebc
00000130: 46ef b9bd 6e98 dcbd 7ed3 f53d 88f7 4b3d
00000140: b4ba cb3d 30b3 29bd 8474 a9bd 78b4 cbbd
00000150: 8029 28bd a432 94bd 9c2c 8dbd 3413 5ebd
00000160: 648d 663d a490 a33d f872 963c fc72 5b3d
00000170: 7634 e03d dc3c b13d e814 a93d b458 73bd
00000180: a07b 883c d0cc aabd 38c8 eabd 7005 23bc
00000190: 206c 1abc de57 ed3d 804e dc3b c058 ddbd
000001a0: d037 d9bd d871 0f3d 7cfd 62bd 123b b4bd
000001b0: 54a1 783d 1ed2 e3bd 8c59 6e3d b4fc fc3d
000001c0: 206a 6ebd a084 c7bb 1664 a93d d819 2fbd
000001d0: 2ae4 fd3d 92df fc3d ac9d 61bd e4c8 19bd
000001e0: a0c5 42bc e44c 53bd a256 a53d dc29 5fbd
000001f0: 2605 c53d f402 cdbd a29b ea3d 98cb 02bd
00000200: 0070 52bd 589a 283d 2e1f 82bd 2e5a f9bd
00000210: c072 033d a4f3 b3bd 28ec 3ebd c841 f93c
00000220: 689e 9a3d 1eff 81bd 64a3 1dbd b079 f13d
00000230: 30d2 6a3d 2c0f bc3d 28b8 3abd 22ba d3bd
00000240: 06be 983d 3029 0cbd 7059 98bd 12a9 c0bd
00000250: 2e0c cc3d 906f 5f3d 80b5 c1ba c0c0 d5bc
00000260: 002a cebd ccb0 153d 4c33 ccbd d032 823c
00000270: 3839 27bd 289b 803d a0b6 dfbb b09f 50bc
00000280: 3898 2d3d 3683 c5bd 7a6f d7bd 1850 b03d
00000290: 8c0f f73d 70d9 493c e08c 503c 7c85 3fbd
000002a0: 78d9 f13c 90b8 803c 5241 9bbd ee6b cd3d
000002b0: 1093 68bc 44cc f8bd 08f1 c6bc f009 11bc
000002c0: 76cc 97bd 686f e13d 1062 2e3c 1c7f d23d
000002d0: 20a8 ef3c 809a bfbd 2c9c 013d 7c01 69bd
000002e0: 204e af3d c038 dabd 0021 973a e691 c2bd
000002f0: 4eb2 e13d 4249 cc3d e04b 433d d82d b4bc
00000300: b40f e5bd 8431 51bd c883 313d e4bf 44bd
00000310: ec5d 74bd 1c0c e63d a886 a2bd 18f8 a6bc
00000320: d02c 053c 8a0c 933d 5025 613c 589c 49bd
00000330: 605c a73b 487f 4c3d 0051 49bd a4a9 5c3d
00000340: 60e7 bf3d 90ae 9b3d 5add aebd 82b6 dfbd
00000350: 8ae2 9cbd f0b2 cc3d 08cb e7bd 78fa 16bd
00000360: d099 073c 8052 553c 80e9 d4bd 4eef d73d
00000370: 6a1e 923d a036 ca3b 40e9 213b aca5 0bbd
00000380: 507c 5abc e003 33bd 8ca2 6b3d d844 b23c
00000390: e032 04bd 4872 c0bc 48a5 853c 58a3 0a3d
000003a0: f888 c1bc 2847 a83d d299 9dbd a885 b83d
000003b0: 98ed 86bd 428e c63d e0a4 c03c 4033 143b
000003c0: d299 b5bd 20db 273c b085 7abc 1a24 e4bd
000003d0: ca8f e43d f027 d1bd a8a9 31bd 7201 b1bd
000003e0: 30a8 ebbd 08f5 cebd 943d 6c3d 6458 503d
000003f0: 301e 9e3d 4c36 f4bd 9ed1 e63d 3407 f0bd

network_arch.2.bias f4 [4]
0.11660543 -0.02512905 0.06403193 -0.04130122
00000000: d4ce ee3d 70db cdbc 2c23 833d 782b 29bd

layer1.weight f4 [32, 8]
-0.71072197 -0.31165773 -0.4246279 -0.0021399818 -0.12735558 -0.16309728 -0.6193928 0.24598247
0.11199741 0.14047362 0.37547693 -0.11364037 0.15631656 0.3149911 0.31292665 -0.2593927
0.23800018 0.111898005 -0.13282053 0.026277225 0.055566005 -0.068386436 -0.10701553 -0.119871035
-0.088573545 0.14323056 0.029557217 -0.21517831 0.031226117 0.9111269 0.3675689 -0.2816467
-0.22208562 -0.68059236 -0.14007114 0.42303437 -0.3622545 0.12802424 -0.082093306 -0.049752604
-0.2567378 -0.62481695 0.07040259 -0.03137202 0.34675112 -0.11550144 0.1699966 -0.48100355
-0.26124424 -0.08848398 0.3731862 0.61075675 -0.3792182 -0.20498155 -0.0058001536 0.054040816
0.24304773 -0.8409345 0.038456757 -0.18698743 0.22312166 -0.025555518 -0.18876201 0.27138442
-0.029116893 0.24312852 -0.22642164 0.55410063 0.54496473 0.50528026 -0.79427564 -0.35755417
-0.3358123 -1.0625848 -0.056545034 -0.3339709 -0.08883423 0.0023287788 0.097203694 -0.06895792
0.16306564 -1.2887414 0.2281002 -0.30402696 -0.14415084 0.10881445 0.28312588 0.12735966
0.048956938 -0.64643687 0.12556878 -0.21138601 -0.29791108 -0.04565278 0.27651817 0.28095785
-0.08718651 0.037043184 0.056530386 0.14437716 0.26472428 0.535195 0.23027027 0.179336
-0.04834862 0.41232353 0.114062145 -0.62244177 -0.060867373 -0.50048923 -0.53834254 0.24107197
0.09827291 0.038086034 0.16322131 -0.056515004 0.3473201 -0.7511775 -0.21397665 0.32260603
0.14280048 -0.34746337 0.13214935 0.08461355 0.25433695 -0.053760093 0.06350704 -0.12340711
-0.6116399 -0.56361824 -0.2839571 -0.53197503 0.030894928 0.06818276 0.23210514 0.13821602
-0.2465785 0.17111082 0.4326152 0.06099122 -0.23426192 0.12946792 -0.054448206 0.05923195
0.32777143 0.00046516993 0.056405805 0.3651435 -0.24442562 -0.28182232 -0.23573618 -0.3343554
-0.41803598 -0.15780847 -0.31522375 0.02567406 0.32007077 -0.17155682 0.069368914 0.15495262
-0.078123786 -1.2109246 -0.012145703 -0.69537854 -0.2253497 0.07577893 0.14126359 0.19870785
0.11938475 0.061872378 -0.5825651 0.7493026 -6.596023e-05 -0.4490017 0.025978614 -0.30771527
-0.14832772 -1.3530143 -0.15409145 -0.53068167 -0.17764415 0.09436163 0.14827816 0.047465384
-0.11064315 -0.01088816 -0.13253471 -0.0025634393 0.034035537 0.48789862 0.47114968 0.04928719
0.22315013 0.23455489 0.22490528 0.6453482 -0.6448921 -0.4498731 0.2022632 -0.19814575
-0.078118235 0.22606853 0.17701387 -0.3399312 -0.20362718 -0.7418459 -0.35288593 -0.80056304
0.88544005 -0.52430856 0.40491012 -0.3527845 -0.030700639 0.17727205 0.52836865 0.14549719
0.55231786 -0.09226396 0.15055309 0.08462928 -0.18134628 -0.22839232 -0.18661276 0.26136687
0.14594008 -0.07574178 0.17285734 0.7148306 0.63291544 -0.39589697 0.11198639 0.45032847
-0.2880123 -0.5870176 -0.14438067 -0.118453644 0.1277095 -0.29644337 0.050523225 0.38801503
-0.16707493 -0.5278212 -0.07416271 -0.26874533 -0.25406975 0.16377585 0.40387598 0.28302553
-0.46799415 -0.037035424 -0.113833256 -0.06522136 -0.2411641 -0.70815927 -0.0356738 0.022714004
00000000: e0f1 35bf 9a91 9fbe d468 d9be f03e 0cbb
00000010: 8069 02be f902 27be 8790 1ebf d4e2 7b3e
00000020: e65e e53d 51d8 0f3e 833e c03e 48bc e8bd
00000030: 7311 203e 8346 a13e ec37 a03e 1fcf 84be
00000040: 52b6 733e c82a e53d 1b02 08be 5643 d73c
00000050: 2e99 633d 300e 8cbd f52a dbbd f27e f5bd
00000060: 0c66 b5bd 08ab 123e fa21 f23c b457 5cbe
00000070: eacd ff3c 9d3f 693f fe31 bc3e ff33 90be
00000080: 6a6a 63be 4d3b 2ebf cf6e 0fbe f697 d83e
00000090: 6c79 b9be c918 033e 8920 a8bd 63c9 4bbd
000000a0: 2373 83be 01f4 1fbf 3c2f 903d f27f 00bd
000000b0: 5d89 b13e 058c ecbd 9713 2e3e 1946 f6be
000000c0: cec1 85be 1737 b5bd 4312 bf3e 8e5a 1c3f
000000d0: e328 c2be afe6 51be 370f bebb e759 5d3d
000000e0: 81e1 783e 7c47 57bf d584 1d3d a279 3fbe
000000f0: 017a 643e ce59 d1bc d44a 41be e6f2 8a3e
00000100: 8d86 eebc aff6 783e 13db 67be 8ad9 0d3f
00000110: cf82 0b3f 0c5a 013f a655 4bbf 5711 b7be
00000120: 97ef abbe c702 88bf c49b 67bd 3cfe aabe
00000130: b9ee b5bd 6d9e 183b bb12 c73d cf39 8dbd
00000140: aefa 263e 7af5 a4bf 1993 693e 6ca9 9bbe
00000150: 479c 13be 1cda de3d e0f5 903e 926a 023e
00000160: 1287 483d e37c 25bf 1a95 003e 9375 58be
00000170: cd87 98be 69fe 3abd ca93 8d3e b5d9 8f3e
00000180: d78e b2bd 98ba 173d 688c 673d 9bd7 133e
00000190: f189 873e 8a02 093f f8cb 6b3e dba3 373e
000001a0: 3409 46bd 121c d33e 6a99 e93d 5858 1fbf
000001b0: 1150 79bd 1020 00bf d1d0 09bf 92db 763e
000001c0: 4f43 c93d 1a00 1c3d 7d23 273e 477c 67bd
000001d0: f1d3 b13e 2b4d 40bf b21c 5bbe 9e2c a53e
000001e0: 4a3a 123e b8e6 b1be 2952 073e de49 ad3d
000001f0: 7438 823e 8b33 5cbd fb0f 823d debc fcbd
00000200: 6f94 1cbf 4949 10bf d362 91be 842f 08bf
00000210: 5c17 fd3c 67a3 8b3d f8ac 6d3e 8088 0d3e
00000220: 137f 7cbe ad37 2f3e bd7f dd3e eed1 793d
00000230: 5be2 6fbe 3d93 043e 1505 5fbd 349d 723d
00000240: a8d1 a73e 0de2 f339 c609 673d 17f4 ba3e
00000250: b64a 7abe 044b 90be d364 71be a230 abbe
00000260: d008 d6be 8b98 21be 0265 a1be 6852 d23c
00000270: 51e0 a33e 97ac 2fbe 4a11 8e3d e6ab 1e3e
00000280: 5dff 9fbd 94ff 9abf c5fe 46bc 5404 32bf
00000290: 12c2 66be fc31 9b3d 67a7 103e 127a 4b3e
000002a0: fe7f f43d e46d 7d3d fd22 15bf 4cd2 3f3f
000002b0: 2154 8ab8 8de3 e5be 1ad1 d43c db8c 9dbe
000002c0: 39e3 17be 932f adbf 26ca 1dbe c1da 07bf
000002d0: 59e8 35be ac40 c13d 3bd6 173e 106b 423d
000002e0: e098 e2bd 4164 32bc 2eb7 07be 60ff 27bb
000002f0: d968 0b3d d9cd f93e 883a f13e 5de1 493d
00000300: 7881 643e 282f 703e 924d 663e 8a35 253f
00000310: a617 25bf c455 e6be 161e 4f3e b8e6 4abe
00000320: 74fc 9fbd 827e 673e 2043 353e 760b aebe
00000330: a583 50be 9de9 3dbf 77ad b4be b3f1 4cbf
00000340: 33ac 623f 1639 06bf 6150 cf3e 2ca0 b4be
00000350: e87f fbbc ce86 353e 2b43 073f 37fd 143e
00000360: b464 0d3f e3f4 bcbd 972a 1a3e 1e52 ad3d
00000370: d7b2 39be addf 69be 6a17 3fbe e1d1 853e
00000380: 5171 153e 821e 9bbd 8401 313e 23ff 363f
00000390: bf06 223f 02b3 cabe 1f59 e53d 7491 e63e
000003a0: 5976 93be c946 16bf 87d8 13be d397 f2bd
000003b0: 47c6 023e 6dc7 97be 71f1 4e3d e8a9 c63e
000003c0: b115 2bbe 4a1f 07bf 9ee2 97bd fd98 89be
000003d0: 6e15 82be dbb4 273e d5c8 ce3e b9e8 903e
000003e0: ee9c efbe 75b2 17bd 6921 e9bd c792 85bd
000003f0: b9f3 76be ed49 35bf b11e 12bd b812 ba3c

layer1.bias f4 [32]
-0.50464976 -0.17791905 -0.4145974 0.0425625 0.16514972 -0.5345494 0.46125582 -0.30418015
0.014001815 -0.04366671 -0.18521571 -0.054460455 -0.062137377 -0.018615931 0.21433689 -0.35014647
-0.22399843 -0.38804677 -0.37156045 -0.41978893 -0.18733151 -0.04059821 -0.13094161 -0.21394353
0.14086823 0.08695844 -0.21853621 -0.3839962 0.08774497 -0.2778717 -0.3842126 -0.06964662
00000000: ba30 01bf 6930 36be 1c46 d4be 0456 2e3d
00000010: 021d 293e 3bd8 08bf b929 ec3e 80bd 9bbe
00000020: de67 653c dddb 32bd 30a9 3dbe ed11 5fbd
00000030: c383 7ebd 7080 98bc 217b 5b3e 6646 b3be
00000040: d85f 65be 11ae c6be 2c3d bebe 93ee d6be
00000050: d5d3 3fbe 4f4a 26bd 8f15 06be 0314 5bbe
00000060: c33f 103e 4417 b23d f5c7 5fbe 269b c4be
00000070: a3b3 b33d 3345 8ebe 84b7 c4be e3a2 8ebd

layer2.weight f4 [64, 32]
0.015950391 0.016936297 -0.022411257 0.29199007 -0.12081751 -0.40851727 -0.68904406 -0.15089373
0.38372228 -0.2182515 0.42237484 0.26076835 0.043529045 -0.5117013 -0.7464373 -0.33081028
-0.1322052 0.109714344 -0.26562086 -0.27301323 0.27177837 0.07556895 0.090387404 0.29383668
-0.30605838 -0.4835057 0.30702478 -0.21118711 -0.50747955 -0.06318059 0.043465897 -0.31454298
0.522353 0.14533705 -0.08247058 0.19736585 -0.056773998 -0.36141935 -0.42152396 -0.005787056
0.3494663 -0.026189465 0.22875157 0.059348635 0.11131726 0.02720816 0.26196295 0.17806417
0.12005447 -0.04830574 -0.49683812 -0.23582886 0.35435015 0.18038742 0.41950944 -0.04459162
-0.32218644 0.024008563 -0.00572473 0.17905726 -0.8812379 0.02308734 0.20925449 0.2052082
-0.19130938 -0.094349906 -0.18168549 -0.06565444 -0.10719717 -0.17856371 0.013392157 -0.1385152
0.0034059798 -0.08666954 -0.13792786 0.040035617 0.02177713 -0.14106217 -0.051688854 -0.06976745
-0.2688353 -0.05286661 -0.20728977 -0.24356781 -0.14574108 0.042686112 -0.16767736 0.115752004
-0.33330542 -0.2765897 -0.17901418 0.09719113 -0.07275886 -0.19323073 0.00992224 -0.37468943
-0.053874716 -0.16971666 -0.010445107 0.113299966 -0.14767006 -0.25073874 -0.31825048 -0.210762
0.27818432 0.036131643 -0.07925124 0.06740765 -0.0744722 -0.34033182 -0.47858956 -0.3082515
-0.19416134 0.11096458 -0.095599174 -0.20341116 0.11767053 0.1233406 -0.12521204 -0.01090498
-0.34971824 -0.18573079 0.12043332 -0.34076023 0.043442745 -0.09053607 0.031637665 -0.11518183
0.008030549 -0.18778484 -0.18098247 -0.14057007 -0.026504265 0.048732497 -0.15577509 0.031342078
0.006533004 -0.10754425 -0.04060783 -0.12233185 -0.011724535 -0.12772366 -0.08741766 -0.06461344
-0.1266699 -0.05094504 -0.0149468575 0.008591304 -0.03919015 -0.015433551 -0.01943415 -0.03892888
0.02735121 0.08732571 -0.12001752 -0.11243725 -0.115286954 -0.053001806 -0.10238125 -0.116353214
0.30749035 -0.5705344 -0.117667526 -0.5211661 -0.29753736 -0.19666208 0.18332915 0.16769768
-0.2972077 0.2506986 0.016733423 0.08908957 -0.6668409 0.32835996 0.2044197 -0.15652987
0.51323676 -0.045163907 0.10993525 0.054214824 0.29940704 -0.216545 0.3491488 -0.73667014
0.13277695 0.0014879669 0.16013572 -0.044156242 -0.74187577 0.043575265 0.20870265 0.313296
-0.03345211 -0.060792863 0.10734704 -0.123047076 0.09555814 -0.049507618 -0.14319278 -0.12226613
-0.1929574 -0.26401204 -0.237271 0.14060193 -0.314172 -0.20190777 -0.1381544 -0.07796953
-0.12977406 -0.13572122 0.03693051 -0.09334331 -0.10153351 -0.08826392 0.015714338 -0.059526052
-0.0751639 -0.13952012 0.18001531 -0.111884765 -0.15298976 -0.29657683 -0.1570777 -0.2180326
0.13019893 -0.02768443 -0.1995363 0.10680226 -0.106205195 -0.40923926 -0.2638312 -0.21381341
0.10617119 0.09353751 0.06822684 0.030241912 0.051537097 -0.25179556 -0.3760093 -0.036357246
0.059114397 -0.062737755 -0.14214143 -0.11164791 0.12688476 0.10864957 0.23632139 -0.13495453
-0.15901338 -0.40123138 0.11404017 -0.093893595 -0.33430114 -0.09785107 0.050516155 -0.038039703
00000000: 65aa 823c fdbd 8a3c d097 b7bc b97f 953e
00000010: 2c6f f7bd 2d29 d1be 3165 30bf e383 1abe
00000020: 3f77 c43e 527d 5fbe 8441 d83e 6e83 853e
00000030: 834b 323d dbfe 02bf 8416 3fbf f75f a9be
00000040: cd60 07be eab1 e03d 75ff 87be 64c8 8bbe
00000050: 8926 8b3e e5c3 9a3d 081d b93d c371 963e
00000060: afb3 9cbe 0f8e f7be 5a32 9d3e 6f41 58be
00000070: 2eea 01bf d364 81bd 4c09 323d c70b a1be
00000080: edb8 053f 3cd3 143e 56e6 a8bd 461a 4a3e
00000090: da8b 68bd f50b b9be fdd1 d7be 58a1 bdbb
000000a0: 3fed b23e 4a8b d6bc da3d 6a3e 8e17 733d
000000b0: 4efa e33d a6e3 de3c 0220 863e 7456 363e
000000c0: 1edf f53d 3ddc 45bd 9161 febe 1f7d 71be
000000d0: 626d b53e 7bb7 383e f1c9 d63e b4a5 36bd
000000e0: 9ff5 a4be 9bad c43c 8496 bbbb c95a 373e
000000f0: cf98 61bf a921 bd3c cf46 563e 1922 523e
00000100: 9be6 43be 863a c1bd c30b 3abe d675 86bd
00000110: 318a dbbd 68d9 36be c76a 5b3c eed6 0dbe
00000120: dc36 5f3b cd7f b1bd f63c 0dbe 63fc 233d
00000130: f465 b23c 9a72 10be b1b7 53bd 3de2 8ebd
00000140: c8a4 89be a98a 58bd c543 54be d769 79be
00000150: 263d 15be a2d7 2e3d 9db3 2bbe 630f ed3d
00000160: 02a7 aabe 2a9d 8dbe 7e4f 37be 250c c73d
00000170: 9902 95bd 47de 45be e490 223c 4bd7 bfbe
00000180: bcab 5cbd 34ca 2dbe f421 2bbc d009 e83d
00000190: d236 17be d460 80be baf1 a2be fed1 57be
000001a0: 2d6e 8e3e c6fe 133d 794e a2bd 060d 8a3d
000001b0: e184 98bd f93f aebe b109 f5be 24d3 9dbe
000001c0: 3bd2 46be 6641 e33d 80c9 c3bd 044b 50be
000001d0: 3ffd f03d ff99 fc3d 9637 00be cdaa 32bc
000001e0: 450e b3be 3630 3ebe bfa5 f63d 2078 aebe
000001f0: 05f1 313d fa6a b9bd 7f96 013d 74e4 ebbd
00000200: 9092 033c ab4a 40be 7853 39be 9af1 0fbe
00000210: 791f d9bc ba9b 473d 8183 1fbe 8d60 003d
00000220: cf12 d63b 2940 dcbd 6554 26bd 1f89 fabd
00000230: 4418 40bc fec9 02be 0808 b3bd 0d54 84bd
00000240: c1b5 01be bfab 50bd aae3 74bc 8ac2 0c3c
00000250: da85 20bd 01dd 7cbc 5e34 9fbc e473 1fbd
00000260: a50f e03c d2d7 b23d bfcb f5bd 8045 e6bd
00000270: 911b ecbd 6c18 59bd 43ad d1bd 984a eebd
00000280: 606f 9d3e 8b0e 12bf acfb f0bd 246b 05bf
00000290: d156 98be c961 49be a3ba 3b3e f1b8 2b3e
000002a0: 9c2b 98be 915b 803e 8814 893c 9874 b63d
000002b0: 16b6 2abf cc1e a83e 6653 513e 5e49 20be
000002c0: 7c63 033f cafd 38bd bb25 e13d 5d10 5e3d
000002d0: e14b 993e f9bd 5dbe a2c3 b23e 6a96 3cbf
000002e0: aef6 073e e207 c33a 9efa 233e 2ddd 34bd
000002f0: 92eb 3dbf fa7b 323d 26b6 553e 5568 a03e
00000300: 1405 09bd f001 79bd c4d8 db3d 1b00 fcbd
00000310: fcb3 c33d 80c8 4abd 21a1 12be aa66 fabd
00000320: a096 45be 962c 87be 2bf7 72be f4f9 0f3e
00000330: 27db a0be e9c0 4ebe 5978 0dbe 7dae 9fbd
00000340: 7ee3 04be 81fa 0abe 7244 173d c72a bfbd
00000350: cdf0 cfbd b7c3 b4bd 5bbb 803c 97d1 73bd
00000360: 88ef 99bd 5dde 0ebe ef55 383e d723 e5bd
00000370: 59a9 1cbe ebd8 97be fad8 20be f043 5fbe
00000380: de52 053e 75ca e2bc 3e53 4cbe 25bb da3d
00000390: 1c82 d9bd cf87 d1be e214 87be e7f1 5abe
000003a0: 4870 d93d 9890 bf3d 83ba 8b3d e3bd f73c
000003b0: 9018 533d 59eb 80be 4a84 c0be 56eb 14bd
000003c0: f021 723d a77c 80bd 868d 11be a9a7 e4bd
000003d0: 14ee 013e aa83 de3d 3cfe 713e 8531 0abe
000003e0: 67d4 22be 336e cdbe e58d e93d 494b c0bd
000003f0: 8529 abbe 2466 c8bd 07ea 4e3d 85cf 1bbd

layer2.bias f4 [64]
-0.028675884 0.37664884 -0.093135804 -0.19313598 -0.23116127 0.0008037595 -0.43571553 -0.08280667
-0.18534546 -0.14678329 -0.1944918 -0.20434281 -0.25889716 5.198918e-05 -0.16535878 -0.28278378
-0.05401468 -0.14766118 -0.100880414 0.32733136 -0.35040265 -0.13800961 -0.23429292 0.035737015
-0.016184986 0.3905234 0.17222512 0.031038683 -0.009526885 -0.11302563 -0.2518745 -0.18084548
-0.22924209 -0.17044987 -0.24751335 0.5776184 0.15848158 -0.1332 -0.29696104 0.44890192
0.09006194 -0.14696711 -0.0052780337 0.027690066 0.09134441 -0.18315026 0.21302462 -0.20685898
-0.3764503 -0.22563937 -0.24234487 -0.15655601 -0.0790248 -0.16473676 -0.16438113 -0.15302968
0.28515884 -0.20297746 -0.18710092 -0.40151227 -0.23362917 -0.2248339 -0.14448878 -0.06722087
00000000: b0e9 eabc 1ed8 c03e fcbd bebd 70c5 45be
00000010: 8ab5 6cbe 63b3 523a 1b16 dfbe 8b96 a9bd
00000020: 33cb 3dbe 5c4e 16be dc28 47be 3e3f 51be
00000030: 2b8e 84be f50e 5a38 d053 29be 09c9 90be
00000040: 7f3e 5dbd 7e34 17be 649a cebd fa97 a73e
00000050: fa67 b3be 6452 0dbe 7cea 6fbe fa60 123d
00000060: 6096 84bc aff2 c73e c85b 303e d644 fe3c
00000070: a716 1cbc fb79 e7bd b2f5 80be 8f2f 39be
00000080: 70be 6abe 698a 2ebe 2474 7dbe cdde 133f
00000090: ff48 223e 9565 08be 470b 98be 79d6 e53e
000000a0: 6572 b83d 8c7e 16be 5bf3 acbb 47d6 e23c
000000b0: c712 bb3d be8b 3bbe 2023 5a3e d7d2 53be
000000c0: 18be c0be 020e 67be 4129 78be 3850 20be
000000d0: c1d7 a1bd c1b0 28be 8753 28be d0b3 1cbe
000000e0: 5700 923e 53d9 4fbe 6297 3fbe 0493 cdbe
000000f0: 7c3c 6fbe dc3a 66be def4 13be 18ab 89bd

layer3.weight f4 [128, 64]
-0.021089857 0.02468447 -0.10687195 -0.03640742 0.051749144 -0.03250662 -0.04449829 -0.0298679
-0.0872044 -0.0753715 -0.096059926 0.047559977 -0.08287918 -0.049438488 -0.06947074 0.019495204
-0.024073387 0.053898007 -0.07876215 0.064419314 -0.20898119 -0.10563216 -0.02911609 -0.08280054
0.019553198 -0.081479505 -0.11682639 -0.070430845 -0.0037140485 -0.065118544 -0.082265735 -0.18288718
-0.06060418 -0.05211401 0.045945186 -0.03312141 0.056201894 -0.054701906 0.0013196018 -0.12546375
-0.13519666 -0.074334614 -0.02129971 -0.07171662 0.051631752 -0.03245302 -0.11376816 0.06471523
-0.028815025 0.04666823 0.041971363 -0.113093995 0.07464724 -0.006794524 0.020928478 -0.028338745
-0.123353235 -0.04379682 0.010717328 -0.08296519 0.02927704 0.011766817 -0.11288915 0.03224224
-0.008316733 -0.035217464 0.052192923 -0.115279734 -0.032936238 -0.047751546 0.008452846 -0.026303867
-0.079394594 -0.042806983 0.00068138936 0.008945275 -0.066920884 0.012910924 0.0668216 -0.09758281
-0.20141792 -0.041118257 -0.032244816 -0.029138725 0.039310485 -0.1123095 -0.003918052 0.06709596
-0.06820425 -0.001363062 -0.024433631 -0.018977324 -0.11708881 -0.07510068 -0.116334856 -0.1658489
-0.063486174 -0.06583533 -0.0049413764 -0.04180901 -0.24190114 0.07019772 0.11997111 -0.13082306
-0.13995509 -0.017487269 -0.041511342 -0.094689734 -0.016944429 -0.050210644 -0.016642855 -0.053432208
0.015012673 0.057502385 0.04708899 0.11901832 -0.07083736 -0.046817213 0.099863574 0.025063682
0.086162284 0.023623737 -0.057836987 0.0774124 -0.09678949 -0.0047766855 0.07680596 0.061651323
0.18707149 0.16026525 -0.03935389 -0.017378053 0.07596749 0.25118876 -0.024919692 -0.11568906
-0.08834196 0.026913092 0.12674665 0.032153472 -0.09337281 -0.013731409 0.08899823 -0.09944145
-0.02407069 -0.040426 0.25142473 -0.3564527 0.20872346 0.10731393 0.047085825 0.17362268
0.085453525 -0.10999566 0.2561074 -0.0669735 -0.09274775 0.10596364 -0.04535594 -0.15692243
0.07850941 -0.059244797 0.20746031 0.13035855 0.2843143 -0.0024733713 0.015931346 -0.12129374
0.28226098 0.12391751 0.0054168776 0.06266037 0.23453668 -0.07471691 -0.3537764 -0.0005907348
0.09650577 -0.03618931 -0.085177556 0.044218324 -0.0022705705 0.05318531 0.0084837 0.12396832
0.06549385 -0.15394473 -0.09694752 0.10473161 0.03595444 0.005469327 -0.060125295 -0.0008146176
-0.03832121 0.048678726 -0.009883722 -0.20182109 -0.0118240975 0.12822758 -0.112166405 -0.055175856
-0.065984525 -0.026521938 0.10734825 -0.037107464 -0.089823164 -0.09226904 0.017989926 -0.114118144
-0.15666734 -0.030330585 0.091809 -0.4167169 0.05757525 -0.08563444 0.020664854 0.004412253
-0.016978199 -0.23883328 0.06723725 -0.2199826 -0.15138337 -0.09439739 -0.103662305 -0.1309543
-0.0135975005 -0.039380625 0.12872712 -0.30381444 0.04383366 0.06293966 -0.09529996 -0.3545158
-0.010472607 -0.3489113 -0.0048288675 -0.100301586 -0.020905666 -0.26293197 -0.3647062 0.09187353
0.1800533 -0.053277433 -0.08856655 -0.1624018 -0.0041164933 -0.10779124 -0.0325058 -0.08807803
-0.2837985 -0.04699696 0.009167983 0.12633513 -0.10268329 -0.0037274547 -0.015627902 -0.07595406
00000000: a3c4 acbc 1637 ca3c aedf dabd f21f 15bd
00000010: e9f6 533d a925 05bd d743 36bd 87ad f4bc
00000020: 3898 b2bd 5f5c 9abd 11bb c4bd 40ce 423d
00000030: 8fbc a9bd 0380 4abd ad46 8ebd 68b4 9f3c
00000040: 8d35 c5bc 28c4 5c3d 0d4e a1bd 46ee 833d
00000050: 2aff 55be ad55 d8bd de84 eebc 5493 a9bd
00000060: 072e a03c bade a6bd ad42 efbd 0c3e 90bd
00000070: 6567 73bb df5c 85bd f07a a8bd c746 3bbe
00000080: 173c 78bd 8075 55bd 0531 3c3d 51aa 07bd
00000090: f533 663d 1b0f 60bd 7df6 ac3a 9279 00be
000000a0: fe70 0abe bf3c 98bd bb7c aebc 2ae0 92bd
000000b0: d17b 533d 75ed 04bd 48ff e8bd 6b89 843d
000000c0: 7d0d ecbc 3027 3f3d 2aea 2b3d d39d e7bd
000000d0: a7e0 983d 99a4 debb 3372 ab3c a826 e8bc
000000e0: 9fa0 fcbd 4b64 33bd bb97 2f3c a7e9 a9bd
000000f0: 67d6 ef3c 9cc9 403c 6d32 e7bd 7010 043d
00000100: e842 08bc 3040 10bd 3fc8 553d c817 ecbd
00000110: 26e8 06bd 2097 43bd ce7d 0a3c 357b d7bc
00000120: a299 a2bd 6056 2fbd 449f 323a 348f 123c
00000130: d10d 89bd 5788 533c c3d9 883d 7fd9 c7bd
00000140: 8040 4ebe 9e6b 28bd 2413 04bd 56b4 eebc
00000150: 0804 213d 8602 e6bd 0163 80bb 9b69 893d
00000160: abae 8bbd c5a8 b2ba 0a29 c8bc 5576 9bbc
00000170: 42cc efbd 63ce 99bd f840 eebd 4bd4 29be
00000180: 0a05 82bd acd4 86bd 45eb a1bb ed3f 2bbd
00000190: efb4 77be d2c3 8f3d 6ab3 f53d 7bf6 05be
000001a0: 6350 0fbe 7641 8fbc cc07 2abd b1ec c1bd
000001b0: 0bcf 8abc ada9 4dbd 9956 88bc bbdb 5abd
000001c0: b7f7 753c 9f87 6b3d 63e0 403d e1bf f33d
000001d0: 2e13 91bd 68c3 3fbd 4685 cc3d 5a52 cd3c
000001e0: da75 b03d 9186 c13c 7ae6 6cbd 648a 9e3d
000001f0: 9139 c6bd be85 9cbb 714c 9d3d 1986 7c3d
00000200: ab8f 3f3e 931c 243e 8b31 21bd 6b5c 8ebc
00000210: d894 9b3d d09b 803e 6224 ccbc 63ee ecbd
00000220: a1ec b4bd d878 dc3c e0c9 013e 5cb3 033d
00000230: 3e3a bfbd b4f9 60bc b444 b63d f5a7 cbbd
00000240: e52f c5bc bc95 25bd beba 803e f880 b6be
00000250: 9abb 553e 68c7 db3d 11dd 403d 25ca 313e
00000260: 4202 af3d 6845 e1bd 8220 833e 6729 89bd
00000270: 88f2 bdbd 7703 d93d 26c7 39bd 46b0 20be
00000280: 8bc9 a03d acaa 72bd 7a70 543e b67c 053e
00000290: a591 913e 4918 22bb 7482 823c da68 f8bd
000002a0: 8384 903e 77c8 fd3d 1080 b13b 1454 803d
000002b0: 622a 703e 2e05 99bd 2e22 b5be 8bdb 1aba
000002c0: d1a4 c53d 3e3b 14bd 9271 aebd 461e 353d
000002d0: dacd 14bb d7d8 593d 38ff 0a3c 1ae3 fd3d
000002e0: a421 863d b0a3 1dbe 6c8c c6bd 877d d63d
000002f0: f644 133d 0a38 b33b f145 76bd 108c 55ba
00000300: b3f6 1cbd 5863 473d 56ef 21bc 30aa 4ebe
00000310: dcb9 41bc 174e 033e 80b7 e5bd 1400 62bd
00000320: e522 87bd 8944 d9bc 66d9 db3d fffd 17bd
00000330: 35f5 b7bd 8df7 bcbd 9c5f 933c c6b6 e9bd
00000340: 676d 20be d977 f8bc 5b06 bc3d eb5b d5be
00000350: 06d4 6b3d 1c61 afbd 5749 a93c a994 903b
00000360: dd15 8bbc b690 74be afb3 893d 1e43 61be
00000370: 3e04 1bbe 6b53 c1bd e74c d4bd e218 06be
00000380: 0dc8 5ebc 944d 21bd 0bd1 033e 918d 9bbe
00000390: ed8a 333d 82e6 803d a02c c3bd 1883 b5be
000003a0: 4c95 2bbc 80a4 b2be 7a3b 9ebb eb6a cdbd
000003b0: 5c42 abbc 059f 86be c5ba babe 3028 bc3d
000003c0: e45f 383e 7039 5abd 6162 b5bd a84c 26be
000003d0: a6e3 86bb a7c1 dcbd cd24 05bd 4162 b4bd
000003e0: 094e 91be e27f 40bd 4f35 163c ff5d 013e
000003f0: 9e4b d2bd 5048 74bb 1606 80bc cd8d 9bbd

layer3.bias f4 [128]
-0.18147853 -0.14876668 0.17371677 -0.19136761 0.024703233 -0.109880075 0.37118453 0.07282663
-0.03882958 -0.09914836 -0.052193083 -0.094826676 0.027871506 0.16266038 -0.113639124 0.1989395
-0.12141603 0.06510862 -0.07984479 0.21511175 -0.013670051 0.019842695 -0.15121445 0.24034011
-0.172593 -0.20528446 -0.07902183 -0.090666875 0.023819195 0.9117451 0.32460147 0.20419721
-0.234429 0.06907812 0.20036452 0.0136827305 -0.051780637 -0.09852972 0.06170223 -0.1250884
-0.12614995 0.1395125 -0.3740115 -0.10214338 -0.061163105 0.54997385 0.11252982 0.14323679
0.41152322 -0.24015628 -0.15930411 0.17498724 0.12426887 0.05179139 0.23979568 0.08650278
0.10234817 -0.13727485 -0.15882671 -0.120068334 0.15853393 0.08379956 -0.13339852 0.040732987
-0.023636714 0.0024523328 -0.06887887 -0.13451292 -0.1614518 -0.037649114 -0.022458795 -0.03199347
-0.038899213 -0.096791774 0.042891745 0.06486916 -0.025317755 -0.06811056 -0.20206892 -0.16391513
0.08480201 -0.118218996 -0.18904357 0.36679712 0.72805834 0.44767672 -0.018832192 -0.08120453
-0.09230435 0.20826064 -0.06715598 -0.06449973 0.17544985 0.17906263 -0.3315558 0.026105098
0.24627021 -0.10998899 -0.11653857 -0.09892751 -0.0054760436 0.13042928 -0.16227236 -0.1929602
-0.09596615 -0.20705998 -0.11985833 0.1850822 0.16528185 0.3031453 -0.32163164 -0.12671359
0.20210889 -0.14198378 -0.17113863 -0.07630127 -0.0059238723 0.1222918 -0.15703826 -0.014542045
-0.15392698 0.2712497 0.09712355 -0.12803334 -0.17767574 0.23226821 -0.16522405 -0.077695936
00000000: 82d5 39be 4b56 18be cfe2 313e dff5 43be
00000010: 6f5e ca3c ce08 e1bd e60b be3e 2126 953d
00000020: c40b 1fbd 4c0e cbbd 6ac8 55bd 7d34 c2bd
00000030: c952 e43c 7190 263e a1bb e8bd ccb6 4b3e
00000040: f8a8 f8bd ab57 853d aa85 a3bd 4146 5c3e
00000050: 59f8 5fbc 268d a23c f6d7 1abe b81b 763e
00000060: 38bc 30be 1736 52be 32d6 a1bd 8eaf b9bd
00000070: 7920 c33c 2068 693f 2a32 a63e 1319 513e
00000080: 280e 70be d478 8d3d 5b2c 4d3e 882d 603c
00000090: ef17 54bd f3c9 c9bd 7abb 7c3d 2c17 00be
000000a0: 742d 01be 5ddc 0e3e 6f7e bfbe 8c30 d1bd
000000b0: 2a86 7abd 16cb 0c3f 0976 e63d aaac 123e
000000c0: 2cb3 d23e 87eb 75be 9e20 23be db2f 333e
000000d0: ad80 fe3d 3523 543d 008d 753e 5f28 b13d
000000e0: eb9b d13d c791 0cbe 78a3 22be 63e6 f5bd
000000f0: b856 223e 1b9f ab3d 9f99 08be a2d7 263d
00000100: c8a1 c1bc 51b7 203b 5d10 8dbd c1bd 09be
00000110: 9f53 25be f535 1abd 82fb b7bc 960b 03bd
00000120: c854 1fbd c43a c6bd 41af 2f3d 1fda 843d
00000130: 2e67 cfbc 8d7d 8bbd 28eb 4ebe 5ed9 27be
00000140: adac ad3d cd1c f2bd a394 41be d5cc bb3e
00000150: 0862 3a3f e235 e53e f845 9abc 904e a6bd
00000160: 100a bdbd 4742 553e 1389 89bd 6f18 84bd
00000170: 20a9 333e 325c 373e afc1 a9be 5cda d53c
00000180: 422e 7c3e e841 e1bd c6ab eebd 829a cabd
00000190: 6270 b3bb 418f 053e ba2a 26be 5c97 45be
000001a0: e789 c4bd 8807 54be 4978 f5bd 3086 3d3e
000001b0: a53f 293e dc35 9b3e e7ac a4be 35c1 01be
000001c0: a2f5 4e3e 3264 11be f73e 2fbe d743 9cbd
000001d0: 0b1d c2bb 2074 fa3d a3ce 20be c241 6ebc
000001e0: 099f 1dbe 3ee1 8a3e b6e8 c63d 2c1b 03be
000001f0: a1f0 35be b8d7 6d3e 7e30 29be 0c1f 9fbd

layer4.weight f4 [64, 128]
-0.020372406 -0.024345418 -0.07049745 -0.08650332 -0.018585127 -0.021713234 -0.08399695 -0.070351146
-0.063075244 -0.041414507 0.016800813 -0.019211061 -0.01358404 -0.08389751 0.05586138 0.027125224
0.02918031 0.03441978 0.03129418 -0.01832839 -0.016093964 0.03771621 -0.056380965 -0.008674787
-0.028781353 0.019486876 -0.005392952 -0.018193848 -0.037528247 -0.032394797 0.00092074915 -0.07128875
-0.011232138 -0.07979477 0.0014346507 0.014886918 -0.06928936 0.019704517 0.018077184 0.05148191
-0.017187364 -0.05477345 0.045547847 0.03038274 0.023901708 -0.012469186 -0.094578125 -0.050564174
0.009835758 -0.023082795 0.055270817 0.02426705 0.035312004 -0.047020137 -0.06422382 0.023812994
-0.027135298 0.022164734 0.02535222 -0.0019025323 0.036936756 -0.001647125 0.062089127 -0.054924235
-0.05170795 0.03350781 -0.04447587 0.007095325 0.02443441 -0.00050080236 -0.045500375 -0.047827035
0.057435263 0.0064224275 -0.013669426 -0.025995936 -0.045582213 -0.038371272 -0.0431717 0.05376756
-0.08981088 -0.004373454 -0.05615904 -0.0860011 -0.029171173 -0.022131342 -0.03648137 0.020109214
-0.080144346 -0.077308126 -0.07559923 -0.048400212 -0.0795531 -0.03595029 -0.009867171 0.010352727
0.035104793 0.048333406 0.024903473 -0.07202751 0.03201115 -0.013275698 -0.09531808 -0.06523496
0.01244248 0.042597473 0.023485543 -0.027247934 0.038781337 0.042061977 0.059235908 0.02559049
0.04160946 -0.05825115 0.0112562 0.00077675626 -0.09156337 -0.014672686 -0.037811194 -0.06956522
-0.06786593 0.012021741 -0.057904355 0.031206423 -0.07694428 0.0134699745 -0.093959965 -0.007152745
-0.013508967 -0.01904991 0.1432576 -0.06623991 0.06752181 -0.059044875 0.117422156 0.19587497
0.025090301 -0.13179247 0.034550305 -0.11754951 -0.012712686 0.13095987 0.0057445853 0.24016078
-0.16056442 0.68558276 -0.058092568 0.11270332 0.029961552 -0.017432375 0.08645959 0.18926625
-0.06815408 0.23455885 -0.17600767 0.034495033 0.21114714 0.14511222 0.45226556 0.007587911
-0.08864525 0.056822788 0.031178823 -0.058020785 -0.047510426 -0.72702223 0.120937526 -0.5558875
-0.06809817 0.047353223 -0.041174702 0.00038504007 0.05634863 1.1439241 -0.101985075 0.23528741
-0.91219795 -0.2152645 -0.07421456 0.20805752 -1.4487946 0.029433254 0.23576191 0.19652978
0.077837996 -0.029294271 -0.15683736 0.060820695 0.112915345 -0.051765434 0.0435781 -0.7599111
-0.22382948 -0.64189416 0.059818976 -0.010683528 -0.14768754 -0.01646107 -0.92349964 -0.052941114
-0.012648537 -0.03030038 0.046976052 0.0030722204 0.02214623 -0.22589482 0.08169585 -0.04376903
-0.28934887 0.026342914 0.093520045 -0.2674933 0.65642244 -0.56319 0.062319227 0.087969996
-0.007913151 0.07346116 -0.11006951 -0.078672886 0.16990629 0.07577064 0.94292164 0.0119262785
-0.66414124 -0.15133905 -0.06012202 -0.1201207 0.039085817 -0.023866335 -0.049876798 -0.099740595
-0.027688665 0.0526021 -0.038150113 0.19477637 0.08443734 0.17837797 0.19933578 0.014312998
0.332229 -0.02695565 -0.044811986 0.008653393 -0.016184805 0.2110039 -0.014834044 -0.012319574
0.020385953 -0.13952452 0.24257012 -0.09792367 -0.0660307 0.17357579 -0.12917547 0.14482684
00000000: 08e4 a6bc 0b70 c7bc f860 90bd a728 b1bd
00000010: d63f 98bc f4df b1bc 9806 acbd 4314 90bd
00000020: 982d 81bd 42a2 29bd dca1 893c 8460 9dbc
00000030: 988f 5ebc 75d2 abbd e7ce 643d b835 de3c
00000040: 8c0b ef3c c1fb 0c3d 532e 003d 6b25 96bc
00000050: 7dd7 83bc 507c 1a3d baef 66bd b220 0ebc
00000060: dfc6 ebbc f1a2 9f3c 5cb7 b0bb 440b 95bc
00000070: 38b7 19bd 68b0 04bd 6e5e 713a d6ff 91bd
00000080: 0007 38bc 716b a3bd e40a bc3a 42e8 733c
00000090: 94e7 8dbd 5e6b a13c 9a16 943c b2de 523d
000000a0: 84cc 8cbc 205a 60bd 6190 3a3d 39e5 f83c
000000b0: 84cd c33c 8f4b 4cbc 2db2 c1bd 611c 4fbd
000000c0: 2926 213c 2118 bdbc a763 623d b1cb c63c
000000d0: 52a3 103d 3098 40bd c787 83bd 7813 c33c
000000e0: d84a debc d192 b53c 75af cf3c 645e f9ba
000000f0: ff4a 173d 58e4 d7ba 2b51 7e3d 3cf8 60bd
00000100: b7cb 53bd 7c3f 093d 542c 36bd e67f e83b
00000110: ac2a c83c 4748 03ba 9a5e 3abd 48e6 43bd
00000120: 3d41 6b3d 3a73 d23b baf5 5fbc 6ef5 d4bc
00000130: 6ab4 3abd 322b 1dbd cfd4 30bd 5f3b 5c3d
00000140: c4ee b7bd 314f 8fbb 0607 66bd 5821 b0bd
00000150: 62f8 eebc ca4c b5bc 7d6d 15bd 14bc a43c
00000160: b822 a4bd b953 9ebd c5d3 9abd 4d3f 46bd
00000170: bcec a2bd 9c40 13bd eaa9 21bc 7c9e 293c
00000180: 0bca 0f3d 40f9 453d 5e02 cc3c 2983 93bd
00000190: 201e 033d 5082 59bc 2036 c3bd e899 85bd
000001a0: 8bdb 4b3c b07a 2e3d c164 c03c 0f37 dfbc
000001b0: 2ed9 1e3d 2e49 2c3d 5aa1 723d 26a3 d13c
000001c0: ae6e 2a3d c298 6ebd ed6b 383c 3b9f 4b3a
000001d0: 9385 bbbd b565 70bc e9df 1abd 3678 8ebd
000001e0: 4bfd 8abd d6f6 443c 1e2d 6dbd 9da4 ff3c
000001f0: f694 9dbd 2bb1 5c3c 156e c0bd 9361 eabb
00000200: b754 5dbc 8f0e 9cbc 1fb2 123e caa8 87bd
00000210: e048 8a3d 0ad9 71bd 077b f03d 7393 483e
00000220: 2d8a cd3c 9bf4 06be 9f84 0d3d ccbd f0bd
00000230: df48 50bc 581a 063e 133d bc3b b5ec 753e
00000240: 006b 24be 5a82 2f3f 79f2 6dbd 00d1 e63d
00000250: ee71 f53c 57ce 8ebc ba11 b13d 03cf 413e
00000260: 5e94 8bbd 3230 703e 5b3b 34be aa4a 0d3d
00000270: f536 583e 4c98 143e 5a8f e73e 03a4 f83b
00000280: a48b b5bd 03bf 683d bb6a ff3c 34a7 6dbd
00000290: 4b9a 42bd 211e 3abf 18ae f73d a54e 0ebf
000002a0: 0e77 8bbd 74f5 413d cea6 28bd 34df c939
000002b0: d2cd 663d 1b6c 923f 8ddd d0bd 2fef 703e
000002c0: ce85 69bf 4c6e 5cbe cefd 97bd 080d 553e
000002d0: 1a72 b9bf 021e f13c 926b 713e 1a3f 493e
000002e0: 8769 9f3d 8afa efbc f999 20be 1f1f 793d
000002f0: 2940 e73d fe07 54bd f37e 323d 8989 42bf
00000300: 8e33 65be 2d53 24bf be04 753d f709 2fbc
00000310: 673b 17be 5ed9 86bc 796a 6cbf c8d8 58bd
00000320: cf3b 4fbc 8138 f8bc f669 403d 4e57 493b
00000330: 036c b53c f950 67be 2750 a73d 2847 33bd
00000340: 8925 94be 18cd d73c 7087 bf3d e2f4 88be
00000350: 4d0b 283f 382d 10bf 7242 7f3d 9d29 b43d
00000360: 29a6 01bc ce72 963d 206c e1bd 401f a1bd
00000370: eafb 2d3e a32d 9b3d 5063 713f 7066 433c
00000380: 2905 2abf a0f8 1abe 8242 76bd d701 f6bd
00000390: 7318 203d 5583 c3bc 9d4b 4cbd cc44 ccbd
000003a0: 57d3 e2bc 4d75 573d 4b43 1cbd 7573 473e
000003b0: 7ced ac3d b7a8 363e ae1e 4c3e 1181 6a3c
000003c0: eb19 aa3e 18d2 dcbc c68c 37bd f6c6 0d3c
000003d0: ff95 84bc 6811 583e 7d0a 73bc 0ad8 49bc
000003e0: 7100 a73c 84df 0ebe 4d64 783e 358c c8bd
000003f0: 1b3b 87bd dabd 313e 9346 04be 7d4d 143e

layer4.bias f4 [64]
0.012676178 0.5933289 -0.009085545 0.006732653 0.003181905 -0.06923756 0.02538187 0.3763997
-0.016148673 0.028452616 -0.038499687 0.58965284 -0.042650137 0.31820455 -0.11111123 -0.014112843
-0.15488882 0.053277712 -0.051476613 0.11239291 -0.17571276 0.09576354 0.17193747 0.034960836
0.28993338 -0.05891959 -0.076615274 0.6021518 0.0032396936 0.030817972 -0.27240255 0.6018164
-0.22280948 -0.05673478 -0.06900807 0.10545542 0.019002518 0.0018379741 0.041478243 -0.1284248
-0.09964084 0.46950924 -0.14297736 0.2836339 0.013483678 0.560196 -0.05772152 -0.08668211
-0.1948931 -0.41976807 -0.120714866 -0.010528302 0.1512544 -0.05377323 0.46391445 -0.052626427
-0.09138866 -0.03287623 0.27581105 -0.027217908 0.18109782 0.3078156 0.29281986 -0.11309353
00000000: beaf 4f3c 67e4 173f 8adb 14bc 969d dc3b
00000010: 8287 503b 6ccc 8dbd a4ed cf3c 76b7 c03e
00000020: 394a 84bc 7615 e93c d9b1 1dbd 7df3 163f
00000030: e9b1 2ebd b5eb a23e 498e e3bd 8e39 67bc
00000040: 2d9b 1ebe bb39 5a3d 24d9 52bd 412e e63d
00000050: 0cee 33be ad1f c43d 6010 303e 1833 0f3d
00000060: 2672 943e ab55 71bd 78e8 9cbd 9f26 1a3f
00000070: 0a51 543b f975 fc3c 5978 8bbe a410 1a3f
00000080: 2b28 64be bb62 68bd 1a54 8dbd 03f9 d73d
00000090: 2bab 9b3c 2de8 f03a 17e5 293d ca81 03be
000000a0: 7f10 ccbd 8463 f03e a868 12be 7638 913e
000000b0: a5ea 5c3c 0169 0f3f 676d 6cbd 6486 b1bd
000000c0: 0f92 47be d7eb d6be 5b39 f7bd e67e 2cbc
000000d0: 6fe2 1a3e 5241 5cbd 3286 ed3e cf8e 57bd
000000e0: fa29 bbbd 3aa9 06bd 1b37 8d3e 17f8 debc
000000f0: b571 393e 029a 9d3e 7cec 953e 959d e7bd
